models/model.bin (torch_old, 274506 bytes, 6 tensors)

linear1.weight f4 [256, 5]
0	0xbe483f62	-0.19555429
1	0xbebdad47	-0.37046263
2	0xbd9b9e50	-0.07598555
3	0xbe8e159f	-0.2775087
4	0xbefc42c1	-0.4926968
5	0xbf992247	-1.1963586
6	0xbf2d5772	-0.67711556
7	0xbedac8ed	-0.4273142
8	0xbe85d254	-0.2613703
9	0xbfc4dd43	-1.5380024
10	0xbdf7460c	-0.12073907
11	0xbf095ca4	-0.53656983
12	0xbf016d7b	-0.5055768
13	0xbf591d72	-0.84810555
14	0xbf3609c8	-0.71108675
15	0xbf3f96aa	-0.7483927
16	0xbf9c6899	-1.2219421
17	0xbfd83b09	-1.6893016
18	0xbf00a299	-0.50248104
19	0xc052d425	-3.2941983
20	0x406b48a1	3.676308
21	0xc00dbc48	-2.2146168
22	0xc177e829	-15.49418
23	0xc04c023e	-3.1876369
24	0xbd517c5e	-0.051143996
25	0x3f9965e0	1.1984215
26	0xc00363f0	-2.0529747
27	0xbf50189d	-0.81287557
28	0xbe8c30af	-0.27380893
29	0xc0c75bbc	-6.229948
30	0xbf835567	-1.0260438
31	0xbf35316f	-0.70778555
32	0xbfb645bc	-1.4240031
33	0xbedcfc69	-0.43161324
34	0xc01154a5	-2.2707913
35	0xbe4d3f32	-0.20043638
36	0xbf617cc4	-0.88081
37	0xbe89583d	-0.26825133
38	0xbeaff301	-0.34365085
39	0xbee393fd	-0.44448844
40	0xbf83506f	-1.0258921
41	0xbf99bc09	-1.2010509
42	0xbfab6f25	-1.3393294
43	0xbf6bea42	-0.92154324
44	0xbfab173a	-1.3366463
45	0xbed8a9c1	-0.42317012
46	0xbf42aa13	-0.7604076
47	0xbf5a892a	-0.85365546
48	0xbef659e2	-0.4811545
49	0xbfe4e947	-1.788369
50	0xbc82b0b2	-0.015953396
51	0xbef9b6dc	-0.48772323
52	0xbf503f86	-0.8134693
53	0xbe112f0f	-0.14178108
54	0xbf361450	-0.71124744
55	0xbe9cf292	-0.30653816
56	0xbeb6cf51	-0.35705045
57	0xbe94c5cc	-0.29057157
58	0x3cbcf0d0	0.023064047
59	0xbf2e3f8e	-0.68065727
60	0xbe84e3b7	-0.25954983
61	0xbf2c9855	-0.6741994
62	0xbeb8bc44	-0.36081135
63	0xbe8fe4ee	-0.28104347
64	0xbee4bc2c	-0.44674814
65	0xbfac7fc0	-1.3476486
66	0xbfd0ea32	-1.6321471
67	0xbfa24fdf	-1.2680625
68	0xbf8407a6	-1.0314834
69	0xc00c85d3	-2.195668
70	0xbe5fc9a4	-0.21854264
71	0xc050469a	-3.2543092
72	0xbe1864b3	-0.14882164
73	0xc02ccd67	-2.7000368
74	0xbe74f51d	-0.23921628
75	0xbf2bd622	-0.67123616
76	0xbf99b761	-1.2009088
77	0xbfb039b3	-1.3767608
78	0x3eae58d5	0.34052148
79	0xc0802f6d	-4.0057893
80	0xbddc992a	-0.10771401
81	0xbe098d65	-0.13432844
82	0xbf2050cf	-0.62623304
83	0xbeb00590	-0.34379244
84	0xbf517634	-0.8182099
85	0xbe350877	-0.1767901
86	0xbfa7f682	-1.3122103
87	0xbf93dd71	-1.1551954
88	0xbd4a0cdb	-0.049328666
89	0xc077c03c	-3.871108
90	0xbe859017	-0.26086494
91	0xbf9f0483	-1.2423252
92	0xbfa64421	-1.2989541
93	0xbe200884	-0.15628248
94	0xc017d4db	-2.3723667
95	0x3d996c80	0.07491398
96	0xbf895575	-1.0729204
97	0xc066a41b	-3.6037662
98	0xbe3448f2	-0.17605951
99	0xc07212e3	-3.7824028
100	0xbe539ca9	-0.2066523
101	0xbf0acb2c	-0.54216266
102	0xbca96236	-0.020676713
103	0xbf101107	-0.5627598
104	0xc01c3606	-2.4407973
105	0xbf8aac7e	-1.083389
106	0xbf21e7a1	-0.6324406
107	0xbf742185	-0.95363647
108	0x3edc4747	0.4302313
109	0xc050610c	-3.2559233
110	0x403f9253	2.993306
111	0xbfef4400	-1.8692627
112	0x40e18556	7.0475264
113	0x3fbd62e3	1.4795803
114	0xc11bc3d5	-9.735311
115	0x3eb1955d	0.34684268
116	0xbfb40168	-1.4062929
117	0xbf1ddb06	-0.6166233
118	0xbf96bdd9	-1.1776687
119	0xc099949f	-4.799392
120	0xbc98cff3	-0.018653845
121	0xbfa67d17	-1.3006924
122	0xbfb080b1	-1.3789274
123	0xbdcae11d	-0.09906218
124	0xbfdbde5e	-1.7177236
125	0xbe09d702	-0.13460925
126	0xbe321a1c	-0.17392772
127	0xbf9dfed1	-1.2343389
128	0xbe89fa40	-0.26948738
129	0xbfb93f2e	-1.4472406
130	0x3cda017e	0.02661204
131	0xbe9f2957	-0.31086227
132	0xbf14230a	-0.57865965
133	0xbf3b33e6	-0.73126066
134	0xbf34d0b7	-0.70630974
135	0xbeabb1f1	-0.33534196
136	0xbfcf12ce	-1.6177614
137	0xbfbeec4c	-1.4915862
138	0x3ee522a9	0.44753006
139	0xc02b695f	-2.6783063
140	0xc02a332e	-2.6593738
141	0xbec311f6	-0.3809964
142	0xbe8fe219	-0.28102186
143	0xc02adf4a	-2.6698785
144	0xbea88459	-0.32913473
145	0xbec60f3f	-0.38683507
146	0xbe760a41	-0.24027349
147	0xbdb3d664	-0.08781126
148	0xbe27abda	-0.1637415
149	0xbefee541	-0.49784282
150	0xbdadf310	-0.08493626
151	0xbea684e7	-0.3252327
152	0xbebe2b49	-0.371424
153	0xbd8f0e7c	-0.069851846
154	0xbf0c4c7e	-0.5480422
155	0xbd2c75f1	-0.042104665
156	0xbebb3a03	-0.36567697
157	0xbf92f810	-1.1481953
158	0xbe0c4729	-0.1369902
159	0xc00d2602	-2.2054448
160	0xbf933ee0	-1.1503563
161	0xbf9fc89f	-1.24831
162	0xbf9574e4	-1.1676297
163	0x3e440285	0.19141586
164	0xc025734d	-2.5851624
165	0xbe82a72b	-0.25518164
166	0xbf34e8ce	-0.7066773
167	0xbedb96ae	-0.42888397
168	0xbe18c753	-0.14919786
169	0xbf74a2ee	-0.9556111
170	0xc0346394	-2.8185778
171	0xbeeb8830	-0.4600234
172	0xc0434978	-3.0513592
173	0xbf9877b2	-1.1911528
174	0xbec9502d	-0.39318982
175	0xbe0ab7a0	-0.1354661
176	0xbe40fe54	-0.18847018
177	0xbf70cdbc	-0.94063926
178	0xbe4283a0	-0.18995523
179	0xbf04975e	-0.5179347
180	0x40e45407	7.1352572
181	0x3f86dcc8	1.0536127
182	0xc0fb2a82	-7.848939
183	0x3ff773af	1.9332179
184	0xbf7e9839	-0.99451023
185	0xbfe60f71	-1.7973462
186	0xbff311a6	-1.8989761
187	0xbfc621dc	-1.5479083
188	0xbf933cb2	-1.1502898
189	0xbeab7a7d	-0.3349189
190	0xbf257519	-0.646318
191	0xbd87cf52	-0.0663134
192	0xbf115687	-0.56772655
193	0xbfa4694c	-1.2844634
194	0xbf61896d	-0.8810032
195	0xc0378c0c	-2.8679228
196	0xbf0d511e	-0.552019
197	0xc04372da	-3.053885
198	0xc052dd6e	-3.294765
199	0xbf6241f9	-0.88381916
200	0xbe1d42c8	-0.15357506
201	0xbedf36d8	-0.4359653
202	0xbeb7f4ce	-0.3592896
203	0xbe122030	-0.14270091
204	0xbe97c681	-0.29643634
205	0xbfbfdb75	-1.4988848
206	0xbfc90abf	-1.5706404
207	0xbfa7eadd	-1.311855
208	0xbf2e88ae	-0.68177307
209	0xbfa5808e	-1.2929857
210	0xc047486e	-3.1137958
211	0xbed0bc04	-0.40768445
212	0xbeafde13	-0.34349117
213	0xbe830bca	-0.25594932
214	0xbec18ec9	-0.3780425
215	0xbecae9ed	-0.39631596
216	0xbf4d76be	-0.8025931
217	0xbdd1bd06	-0.102411315
218	0xbda3b3a8	-0.07993251
219	0xbf20402a	-0.62597907
220	0xbd8a7f10	-0.067625165
221	0xbe97cb33	-0.29647216
222	0xbebb5904	-0.3659135
223	0xbee2d1cf	-0.44300696
224	0xbee5d1ba	-0.4488657
225	0xbf6f60d9	-0.9350715
226	0xbf81ce64	-1.014111
227	0xbf9d3ee6	-1.228482
228	0xbda12eb4	-0.07870236
229	0xc01bdae6	-2.4352355
230	0x4111e603	9.118655
231	0xc1560f29	-13.378701
232	0x40bbad75	5.864924
233	0xbfa30066	-1.2734497
234	0xbf99a866	-1.2004516
235	0xbfa793cb	-1.3091978
236	0xc0650b38	-3.5788097
237	0xbffbdcf1	-1.9676801
238	0x3eae8725	0.34087482
239	0xbfc187c4	-1.5119557
240	0xbf41c85f	-0.7569637
241	0xbe95f915	-0.29291597
242	0xb9bdcedc	-0.0003620301
243	0xbf767263	-0.9626829
244	0xc01477d5	-2.319814
245	0xbe01ad9a	-0.1266388
246	0xbed3d14e	-0.41370624
247	0xbdf5a750	-0.11994803
248	0xbeac6185	-0.33668151
249	0xbeb4910c	-0.35266912
250	0xbfb111ff	-1.3833617
251	0xbfaf89cf	-1.3713931
252	0xbf9535af	-1.1657008
253	0xbf2acfec	-0.66723514
254	0xbfae19c9	-1.3601619
255	0xbef969ca	-0.48713523

linear1.bias f4 [256]
0	0xbeb86c3d	-0.3602008
1	0xbfce46d8	-1.611537
2	0xbfc8ab67	-1.5677308
3	0xc097ad0d	-4.7398744
4	0xc02c2ea8	-2.6903477
5	0xc14ffd4d	-12.999341
6	0xc09273d7	-4.5766406
7	0xbeaa5367	-0.33266756
8	0xbfb26dd2	-1.3939764
9	0xc0616c9f	-3.5222547
10	0xbf7b2909	-0.9810949
11	0xbef9f248	-0.48817658
12	0xbfdf4f69	-1.7446109
13	0xbfc96e82	-1.5736849
14	0xc05e56c4	-3.4740458
15	0xc0b594d9	-5.67442
16	0xbec734f0	-0.38907576
17	0xc0a0a2b8	-5.019863
18	0xc08d5593	-4.416696
19	0xc197f19f	-18.99298
20	0xc0277e5c	-2.6170874
21	0xc099cff5	-4.8066354
22	0xc1dbe86e	-27.488491
23	0xc13fcba6	-11.987219
24	0xbf3cbf46	-0.7372936
25	0xbfaf6106	-1.3701484
26	0xbfa796ca	-1.3092892
27	0xc09f41b8	-4.9767723
28	0xc02d45e2	-2.7073903
29	0xbf42010f	-0.75782865
30	0xbe5d8367	-0.21632157
31	0xc08dcbf7	-4.431148
32	0xc08c156d	-4.3776155
33	0xbf48a718	-0.78379965
34	0xc07b7124	-3.9287806
35	0xbf81e091	-1.0146657
36	0xbe8a0830	-0.26959372
37	0xc00fa0cf	-2.24419
38	0xbf4d32aa	-0.8015543
39	0xc022330b	-2.5343654
40	0xbe9ad180	-0.3023796
41	0xbfa3a781	-1.2785493
42	0xbf038e95	-0.5138944
43	0xbedd4e46	-0.4322378
44	0xbf19f5f9	-0.6014095
45	0xc0a71a74	-5.221979
46	0x40aa9fb2	5.331994
47	0xc0280c08	-2.6257343
48	0xc0180baf	-2.375713
49	0xbe31b63a	-0.1735467
50	0xbfef9f07	-1.8720406
51	0xc0839aa9	-4.1126294
52	0x414c08dc	12.752163
53	0xc1abef94	-21.491982
54	0xc05581ba	-3.336043
55	0x40872cde	4.224227
56	0xc03261ee	-2.7872272
57	0xc0ac1545	-5.3775964
58	0xc025af2b	-2.5888164
59	0xbfc70cc4	-1.5550771
60	0xbd9fc4d6	-0.07801215
61	0xbfd1c342	-1.6387713
62	0xbff51729	-1.9147693
63	0xbfbdf146	-1.4839256
64	0xbf863b2c	-1.0486808
65	0xbf75c03e	-0.95996463
66	0xc09d1bba	-4.9096346
67	0xbf14373c	-0.5789678
68	0xbf2d206a	-0.67627585
69	0xc00ff546	-2.2493453
70	0xbff1f82a	-1.8903859
71	0x40d51600	6.6589355
72	0xbe7c6d16	-0.24650988
73	0xbf91947c	-1.1373439
74	0xc1d24b06	-26.286633
75	0xbfb85aa7	-1.4402665
76	0xc186e47c	-16.861565
77	0xc18e2a22	-17.770573
78	0xc08c2711	-4.379769
79	0xc0be475e	-5.946212
80	0xbfa135c3	-1.2594532
81	0xbd54ebc8	-0.05198267
82	0xc0c3972a	-6.1122026
83	0xc0740bbe	-3.8132167
84	0xbf3c9baa	-0.73675025
85	0xc0a231bb	-5.0685706
86	0xbf8752db	-1.057216
87	0xbf2414f1	-0.64094454
88	0x406154d9	3.5208037
89	0xc0d01a7b	-6.5032325
90	0xbfc3c5dd	-1.5294758
91	0xbf1c5327	-0.6106438
92	0xc08dca2d	-4.4309297
93	0xbf83748e	-1.0269945
94	0xc0ac4d54	-5.3844395
95	0xbf2ae960	-0.6676235
96	0xbfa15e56	-1.2606914
97	0xbed3683e	-0.41290468
98	0xbfb560a7	-1.4170121
99	0xbf0edd7e	-0.5580672
100	0xbfebe307	-1.8428658
101	0xbf9d8584	-1.2306371
102	0xc0093351	-2.143757
103	0xc0620fae	-3.532207
104	0xbef2b978	-0.47407126
105	0xbebd4501	-0.36966708
106	0xbfe63e1d	-1.7987705
107	0xc0f807f9	-7.750973
108	0xc0a30640	-5.094513
109	0xbf4d8245	-0.802769
110	0xc189f6db	-17.245535
111	0x3ef146b7	0.47124264
112	0xbf1aae6c	-0.60422397
113	0xbf92ef26	-1.1479232
114	0xc0b9786f	-5.7959514
115	0xbfd0e63a	-1.632026
116	0xc09d618f	-4.918159
117	0xc00c381b	-2.1909244
118	0xc0aa0921	-5.3136144
119	0xc07e2a30	-3.971325
120	0xc11f9e30	-9.97612
121	0xc07f9bc2	-3.9938817
122	0xc1757721	-15.341584
123	0x3f831463	1.0240597
124	0xc02315e0	-2.5482101
125	0xc0215199	-2.5206053
126	0xc047561f	-3.1146314
127	0xc1a848bd	-21.035517
128	0xbf3ab1e7	-0.7292771
129	0xbf1b8f63	-0.60765666
130	0x3efdea16	0.49592656
131	0xbe6b3ec2	-0.22973159
132	0xc1402d73	-12.011096
133	0xbf6bdb25	-0.92131263
134	0xc1769307	-15.410895
135	0xbec8346a	-0.3910249
136	0xc13a00f2	-11.625231
137	0x40f7e059	7.746136
138	0xbfab6a4d	-1.3391815
139	0xc1b05c1f	-22.044981
140	0xc02ac689	-2.6683676
141	0xbc9f1260	-0.019417942
142	0xc191633d	-18.173456
143	0xc043bec0	-3.0585175
144	0xc0a8b09d	-5.2715592
145	0xc073f504	-3.8118296
146	0xc09ae12b	-4.8399863
147	0xbf27f42b	-0.65606946
148	0xbfa97c38	-1.3241034
149	0xc0aac2ea	-5.336293
150	0xc0802637	-4.004665
151	0xbe934795	-0.2876555
152	0xbf4f0974	-0.808738
153	0xc0e0ed03	-7.028932
154	0xc0a95b23	-5.292375
155	0xbed3f876	-0.41400498
156	0xbe949a49	-0.2902396
157	0xc05bcac5	-3.434251
158	0xc017cd60	-2.37191
159	0xc037544d	-2.8645203
160	0xbf6776c8	-0.9041562
161	0xbf8fdc7c	-1.1239161
162	0xbf3867b7	-0.72033256
163	0xbee5e6aa	-0.44902545
164	0xc007f98e	-2.1246066
165	0xc130f7ef	-11.060531
166	0xbf8559d3	-1.0418037
167	0xc09c0ceb	-4.876577
168	0xbfc82888	-1.5637369
169	0xc0a753e8	-5.2289925
170	0xc0797197	-3.897558
171	0xbf7d72fe	-0.9900359
172	0xc00cd308	-2.2003803
173	0xbf58e312	-0.8472148
174	0x40f5fa68	7.686817
175	0xbf08a1f4	-0.5337212
176	0xbf6d9a04	-0.92813134
177	0xbf617cca	-0.8808104
178	0xc0af1b20	-5.472061
179	0xc00c4f97	-2.1923578
180	0xc143a54e	-12.227858
181	0xc09eafee	-4.958976
182	0xc132076f	-11.126815
183	0xbf44ada6	-0.76827466
184	0xbea56ce1	-0.3230963
185	0xc0ae0027	-5.4375186
186	0xc11f495e	-9.955412
187	0xbf425dad	-0.7592419
188	0xbecb3095	-0.39685503
189	0xc071ad78	-3.7762127
190	0xbe0f85b1	-0.14015843
191	0xc004d034	-2.0752077
192	0xbfb522ac	-1.4151206
193	0xc0b6cfe0	-5.7128754
194	0xc0b95f3c	-5.7928753
195	0xc0380358	-2.875204
196	0xbf1a32c7	-0.6023373
197	0xbe8b81a3	-0.27247342
198	0xbf88fb2a	-1.0701649
199	0xc15ab67a	-13.66955
200	0xbea82ee7	-0.32848284
201	0x409f453e	4.9772024
202	0xc0212aed	-2.518245
203	0xc0a5b7f1	-5.178704
204	0xbeb55502	-0.35416418
205	0xc121bf8b	-10.109263
206	0xbfb82cb7	-1.4388646
207	0xbffdaa3a	-1.9817574
208	0xc0d7ecc9	-6.7476544
209	0xbe4266f7	-0.1898459
210	0xbf369e46	-0.71335256
211	0xbfb3de4f	-1.4052218
212	0xbee71ef9	-0.45140818
213	0xc097b95a	-4.741376
214	0xbf0b12a7	-0.54325336
215	0xbed61b48	-0.4181769
216	0xc09ff189	-4.9982343
217	0xbf9823d5	-1.1885935
218	0xbecd9497	-0.40152428
219	0xc0b8fe00	-5.781006
220	0xc024ec5e	-2.5769267
221	0xc096ecef	-4.7164226
222	0xbf804ccc	-1.0023437
223	0xc06d6173	-3.7090728
224	0xbfbd4166	-1.4785583
225	0xc0d1b9a0	-6.5539093
226	0xbfef1d10	-1.8680744
227	0xbf7fe792	-0.99962723
228	0xbfe4d0f5	-1.7876269
229	0xbf86d228	-1.0532885
230	0xbf28bd2c	-0.65913653
231	0xc0390cb9	-2.8914015
232	0xbf884e4f	-1.0648898
233	0xc0131127	-2.297922
234	0xc0932a1c	-4.5988903
235	0x41668769	14.408059
236	0xc17f026b	-15.93809
237	0xbd1e9868	-0.038719565
238	0xc0b0b9bd	-5.522673
239	0xc0b20e94	-5.5642796
240	0xbfc693c7	-1.5513848
241	0xc0312790	-2.7680397
242	0xc0062ce7	-2.0964906
243	0xbfc3e450	-1.530405
244	0xbfc20a61	-1.5159417
245	0xc094b34a	-4.646886
246	0xbf7e4231	-0.9931975
247	0xc111e42b	-9.118205
248	0xbe4ae8fb	-0.19815437
249	0xc1912bbc	-18.146355
250	0xc0dbc74f	-6.8680797
251	0xbfecbc88	-1.8495035
252	0xbf72f9a1	-0.94912153
253	0xbf5fa589	-0.8736196
254	0xc056d9b2	-3.357037
255	0xc02043d3	-2.5041397

linear2.weight f4 [256, 256]
0	0xbf177f5d	-0.59178716
1	0xbf0f5d3e	-0.5600165
2	0xbc13ebd0	-0.00902839
3	0xbf27f5aa	-0.6560923
4	0xbf21976f	-0.63121694
5	0x3d7be2d8	0.061495632
6	0xbd370b94	-0.044688776
7	0xbf1a93cc	-0.6038177
8	0x3d4ee36a	0.050509848
9	0xbf222d16	-0.63350046
10	0xbd147ee8	-0.03625384
11	0xbf25ac6a	-0.6471621
12	0x3bf277b0	0.007399522
13	0xbf0a6fbc	-0.54076743
14	0xbd1cb316	-0.038256727
15	0xbf12086c	-0.570441
16	0xbf0eec07	-0.558289
17	0xbf24c9ba	-0.6437031
18	0xbd19bf00	-0.037535667
19	0xbc91b63c	-0.017787091
20	0xbf1b40ac	-0.60645556
21	0xbd4bc35c	-0.049746856
22	0xbc6e5a18	-0.014547847
23	0xbc909554	-0.01764933
24	0xbd348484	-0.04407169
25	0xbd34774e	-0.04405909
26	0xbc8c6c18	-0.017141387
27	0xbd0584e2	-0.03259743
28	0xbc81a8e0	-0.015827596
29	0x3c24c610	0.010056987
30	0xbf29b631	-0.6629363
31	0xbf223ee2	-0.633772
32	0xbcea5274	-0.02860377
33	0xbd19e708	-0.037573844
34	0x3cfd1874	0.03089545
35	0xbd2cc84c	-0.042183205
36	0xbcbf9bac	-0.02338966
37	0x3c9376bc	0.018000953
38	0xbf0f3a87	-0.5594868
39	0xbf1744e9	-0.59089524
40	0xbf1f17bc	-0.6214559
41	0xbf26fa16	-0.6522535
42	0xbf282726	-0.65684736
43	0xbf0fe4ac	-0.562083
44	0x3d1bb352	0.03801281
45	0x3b8ab4e0	0.0042329878
46	0xbf0dea91	-0.55436045
47	0xbf09d647	-0.53842586
48	0xbf0cbf56	-0.54979455
49	0xbf2294d9	-0.63508373
50	0xbd24aed8	-0.040205806
51	0xbf0d3da8	-0.55172205
52	0xbf0a4e48	-0.540257
53	0xbf180caf	-0.59394354
54	0xbf262b8b	-0.6491019
55	0xbf275a3b	-0.65372056
56	0xbf17cc1c	-0.5929582
57	0xbf1c4ede	-0.6105784
58	0x3c75b0b8	0.014995746
59	0xbf0f8be9	-0.5607286
60	0xbf0a0322	-0.5391103
61	0xbf14343b	-0.578922
62	0xbf0c688e	-0.5484704
63	0xbf290386	-0.66021
64	0xbf0cb7c4	-0.54967904
65	0xbd4ceeae	-0.05003231
66	0xbf1e55c7	-0.61849636
67	0xbf258ab3	-0.64664763
68	0x3cd02360	0.025407493
69	0x3d687734	0.056754306
70	0xbcdf1620	-0.02723223
71	0xbd03c280	-0.03216791
72	0xbbcce300	-0.0062526464
73	0xbf0b037e	-0.54302204
74	0xbcc4e2b4	-0.024033882
75	0xbbce29d0	-0.0062916055
76	0x3d7a49d4	0.061105564
77	0xbd1c9a7a	-0.038233258
78	0xbf1d9459	-0.61554486
79	0x3c5a4930	0.013323113
80	0xbf27f8d6	-0.6561407
81	0x3c8ed648	0.017436162
82	0xbf154f2f	-0.5832395
83	0xbf1dd200	-0.6164856
84	0xbf1ac15f	-0.6045131
85	0xbf199671	-0.5999518
86	0xbb937ba0	-0.004500821
87	0xbf250269	-0.644568
88	0xbcab071c	-0.020877413
89	0x3c8ee884	0.017444856
90	0xbc3a8e40	-0.011386454
91	0x3ccbfe60	0.024901569
92	0xbf0a0275	-0.5391
93	0x3c4dee60	0.01256904
94	0x3d711974	0.058862165
95	0xbd5a3a38	-0.053278178
96	0x3d7e6c82	0.0621152
97	0xbf1d2210	-0.613801
98	0xbf196ceb	-0.5993182
99	0xbf2939a2	-0.66103566
100	0xbf16aef1	-0.5886069
101	0xbf1d9d0b	-0.61567754
102	0xbf0cb052	-0.54956543
103	0x39bbd500	0.00035826117
104	0xbf24b92e	-0.6434506
105	0xbf15cf84	-0.5851977
106	0xbd60c9b8	-0.054879874
107	0xbf28918e	-0.658471
108	0xbf0ee909	-0.55824333
109	0xbccbed7c	-0.024893515
110	0xbd26d18a	-0.040727176
111	0xbf1d4968	-0.61440134
112	0x3c8d6274	0.01725886
113	0xbd0a5608	-0.033773452
114	0xbf20c241	-0.6279641
115	0xbf1473bf	-0.57989115
116	0xbf27c3de	-0.65533245
117	0xbd067056	-0.032821976
118	0x3cbbf918	0.022945926
119	0xbc30f888	-0.010801442
120	0x3c112658	0.0088592395
121	0xbcb949fc	-0.022618286
122	0xbf11d1dc	-0.56960845
123	0xbf17c964	-0.5929167
124	0xbd6aa1a0	-0.057283044
125	0xbd2b1284	-0.041765705
126	0xbd7ab062	-0.061203368
127	0x3d361234	0.044450954
128	0x3d4f3e90	0.050596774
129	0xbf21a956	-0.6314901
130	0xbf1969a1	-0.599268
131	0xbf0c036d	-0.5469273
132	0xbf1d6767	-0.61485904
133	0x3d00ff50	0.031493485
134	0xbb776e00	-0.0037754774
135	0xbf0fd611	-0.56186014
136	0xbf1e491b	-0.618303
137	0xbf1ea649	-0.6197248
138	0xbf11997c	-0.56874824
139	0xbc64fe90	-0.013976708
140	0x3cdaef68	0.026725486
141	0xbd677420	-0.05650723
142	0x3d7ca986	0.061685108
143	0xbf0fc0e7	-0.5615372
144	0xbd7ceb94	-0.061748102
145	0xbf1b709b	-0.607187
146	0xbf2967b3	-0.6617386
147	0xbc679298	-0.014134072
148	0xbf1fe3fd	-0.6245726
149	0xbd53789a	-0.051628686
150	0xbf1220cd	-0.570813
151	0x3b5d2b40	0.0033747703
152	0xbc0fd710	-0.008779302
153	0xbf1803d9	-0.5938087
154	0x3c2de420	0.010613471
155	0xbcaa87d0	-0.020816714
156	0xbf1a87c4	-0.6036341
157	0x3d4e678a	0.05039171
158	0xbf2106dc	-0.6290109
159	0xbf26e96a	-0.6519991
160	0xbf16f8a8	-0.5897317
161	0xbcbb3588	-0.022852674
162	0x3d48408a	0.048889674
163	0xbf1fe292	-0.62455094
164	0xbc094fc8	-0.008380838
165	0xbf1fb803	-0.62390155
166	0x3d0a675e	0.033789985
167	0xbc8f2488	-0.017473474
168	0xbf10899f	-0.56459993
169	0xbf1b2ac3	-0.60612124
170	0xb8ef7000	-0.0001141727
171	0xbd52de72	-0.05148167
172	0xbd283468	-0.041065603
173	0x3d375f70	0.04476875
174	0x3cdb70b0	0.026787132
175	0xbc5ad968	-0.013357498
176	0xbf1ac27f	-0.6045303
177	0x3c545f60	0.012962192
178	0xbf20510a	-0.62623656
179	0x3c49bb50	0.012312725
180	0xbd6b4d90	-0.057447016
181	0xbc0f5058	-0.008747183
182	0xbf2742c3	-0.65336245
183	0xbd15aa8a	-0.03653959
184	0xbf172369	-0.59038407
185	0xbf26b072	-0.65112984
186	0xbd182360	-0.03714311
187	0xbf0ba933	-0.5455505
188	0xbf0add35	-0.54243785
189	0xbd283e0c	-0.041074798
190	0xbf0de7fb	-0.554321
191	0x3cf17fe4	0.029479928
192	0xbd3e1c02	-0.04641343
193	0xbf0d35d3	-0.55160254
194	0x3d5c8c78	0.0538449
195	0xbf13af89	-0.5768972
196	0xbf244976	-0.6417459
197	0xbf0cbb79	-0.5497356
198	0x3bd30e10	0.0064408854
199	0xbd6deb9a	-0.058086015
200	0xbf0acd96	-0.5421995
201	0x3d6d7588	0.057973415
202	0x3d4a9034	0.04945393
203	0xbcebd79c	-0.028789334
204	0xbf0c39f2	-0.5477592
205	0xbf249577	-0.64290565
206	0x3d13ccb0	0.036083877
207	0xbf15d41a	-0.58526766
208	0x3cf91354	0.030404724
209	0xbf24bb15	-0.64347965
210	0xbf23275c	-0.6373193
211	0xbf10bdff	-0.5653991
212	0xbf222fe5	-0.6335433
213	0xbc3754e8	-0.011189677
214	0xbf288cda	-0.6583992
215	0xbf132450	-0.57477283
216	0xbd27205a	-0.040802337
217	0xbf1f7764	-0.6229155
218	0xbf215fd3	-0.6303684
219	0xbf1e04f7	-0.61726326
220	0xbf19b6fc	-0.60044837
221	0xbcf7a5e0	-0.030230463
222	0xbc882d20	-0.01662308
223	0x3c1b2bf0	0.009470925
224	0x3cdb8918	0.02679877
225	0xbf0fa0a6	-0.56104505
226	0xbf0fad75	-0.5612405
227	0x3d049226	0.03236594
228	0x3d50837e	0.05090665
229	0xbca9a010	-0.020706207
230	0xbf133606	-0.5750431
231	0xbf1a7bc5	-0.6034511
232	0x3cb980ac	0.022644363
233	0xbf10e190	-0.5659418
234	0xbd65bf16	-0.056090437
235	0xbf0e2ebc	-0.5554006
236	0x3d5646da	0.052313663
237	0xbd1ba38e	-0.037997775
238	0xbf27ac34	-0.65497136
239	0x3d7ada4c	0.06124334
240	0xbd0fcc06	-0.03510668
241	0xbc3dab28	-0.011576451
242	0xbf0f8ec2	-0.56077206
243	0xbf0f80ea	-0.5605608
244	0xbd660062	-0.05615271
245	0xbf2389fc	-0.6388242
246	0xbf244c27	-0.641787
247	0xbd6ac8aa	-0.057320274
248	0xbf0f3546	-0.55940664
249	0xbc628080	-0.013824582
250	0xbf204289	-0.62601525
251	0x3cd9a908	0.026569858
252	0x3d518680	0.05115366
253	0x3bb07410	0.0053849295
254	0xbca1aed4	-0.019736685
255	0x3a1ace00	0.000590533

linear2.bias f4 [256]
0	0xbf1d32d7	-0.614057
1	0xbf0b2bb3	-0.54363555
2	0xbf193947	-0.59853023
3	0xbf29371f	-0.66099733
4	0xbf283559	-0.657064
5	0xc076229c	-3.8458624
6	0xc07da361	-3.9630969
7	0xc026b718	-2.6049252
8	0xbf1af7a4	-0.6053412
9	0xbf1dad77	-0.6159281
10	0xbfda19ee	-1.7039163
11	0xc0b24a93	-5.5716033
12	0xbf0b0830	-0.5430937
13	0xbf02e742	-0.5113412
14	0xc059784d	-3.3979676
15	0xbe9046ac	-0.28178918
16	0xbf177e15	-0.5917676
17	0xc0e5d6b2	-7.182458
18	0xbf24b92e	-0.6434506
19	0xc06db79d	-3.7143319
20	0xc07e1cfc	-3.970519
21	0xbf0fd5a1	-0.56185347
22	0xbee23e76	-0.4418828
23	0xc00eca0c	-2.231082
24	0xbf283ebf	-0.6572074
25	0xbf157f4d	-0.5839737
26	0xbefeb90c	-0.49750555
27	0xbf142366	-0.57866514
28	0xc0a44416	-5.1333113
29	0xbf1aad3d	-0.6042059
30	0x41101851	9.005937
31	0xc098261b	-4.7546515
32	0xbf66a26e	-0.900916
33	0xbf8bf045	-1.09327
34	0xc14fe070	-12.992294
35	0xc10eacfc	-8.9172325
36	0xc07cb856	-3.948751
37	0xbecb0741	-0.39653972
38	0xbee3cb29	-0.44490936
39	0xbfc5848c	-1.5431075
40	0xbf2663a0	-0.64995766
41	0xc0298197	-2.6485345
42	0xc0a091cc	-5.0177975
43	0xbed154d5	-0.40885034
44	0xc0507f56	-3.257772
45	0xbeed1f5b	-0.46312985
46	0xbfd23188	-1.6421366
47	0xc1a90226	-21.126049
48	0xc01f635b	-2.4904392
49	0xbefac52d	-0.48978558
50	0xbf15e442	-0.5855142
51	0xc1e05573	-28.041723
52	0xc01f7d72	-2.4920316
53	0xbf199af0	-0.6000204
54	0xbed3386f	-0.41253993
55	0xbf13a396	-0.5767149
56	0xbf0e7d82	-0.5566026
57	0xc08e5f0e	-4.4491034
58	0xbeae21b2	-0.34010082
59	0xc0b3d16c	-5.619314
60	0xbf1f3e19	-0.6220413
61	0xbfee43a0	-1.8614388
62	0xbf253f7c	-0.64549994
63	0xbedec680	-0.43510818
64	0xbf13bf84	-0.57714105
65	0xc049c633	-3.1527221
66	0xbffb6a02	-1.9641726
67	0xc0a60237	-5.1877704
68	0xc022438c	-2.5353727
69	0xc06c1387	-3.6886919
70	0xbe93475b	-0.28765377
71	0xc1403919	-12.01394
72	0xbf46d496	-0.7766813
73	0xbf07e264	-0.5307982
74	0xbe8ed32c	-0.27895486
75	0xbf1f097b	-0.6212384
76	0xbf1334cc	-0.57502437
77	0xbed7df76	-0.42162675
78	0xbf10f532	-0.5662414
79	0xbfdcc8e4	-1.7248807
80	0xbf0cd428	-0.55011225
81	0xc069be0f	-3.6522253
82	0xbf1c5936	-0.61073625
83	0xbf0f840e	-0.56060874
84	0xc09872de	-4.764022
85	0xc05f342f	-3.48756
86	0xbf1efa36	-0.6210054
87	0xc02d4530	-2.7073479
88	0xc0650f9b	-3.5790775
89	0xc08f4b12	-4.477914
90	0xc10c22fd	-8.758542
91	0xbf962548	-1.1730127
92	0xbee9ae3e	-0.4564075
93	0xc0f8bd9a	-7.7731447
94	0xbf264d17	-0.6496138
95	0xc03f4cef	-2.9890707
96	0xbf03011f	-0.51173586
97	0xc0444571	-3.0667384
98	0xbf13f5f9	-0.577972
99	0xc0490e54	-3.1414995
100	0xc0acbd04	-5.398073
101	0xbf057265	-0.5212768
102	0xbf23d5cd	-0.6399811
103	0x4003123e	2.0479884
104	0xc093ea41	-4.6223454
105	0xc0534c8a	-3.3015466
106	0xbef8521e	-0.4850015
107	0xc0f0a967	-7.520679
108	0xc0f1177f	-7.534118
109	0xbef3a5a4	-0.4758731
110	0xbf0bfc7a	-0.54682124
111	0xbf170a90	-0.5900049
112	0xc04dfa77	-3.2184122
113	0xc019dbc9	-2.4040396
114	0xc09832fd	-4.756224
115	0xbf173d65	-0.59078056
116	0xc0527d44	-3.2888956
117	0xbf0ef9cf	-0.5584993
118	0xbef55d97	-0.47922966
119	0xbf18304f	-0.59448713
120	0xbf0d9a2d	-0.5531338
121	0xbf10caad	-0.5655926
122	0xbf1703ea	-0.5899035
123	0xbee460bd	-0.44605055
124	0xbf164779	-0.5870281
125	0xc0236176	-2.5528235
126	0xc030cf32	-2.7626462
127	0xbf23614e	-0.6382035
128	0xbf1325f8	-0.5747981
129	0xc06040fc	-3.5039663
130	0xbf1736f8	-0.5906825
131	0xc0a03c60	-5.00737
132	0xbf09c448	-0.53815126
133	0xbefdf9c7	-0.49604627
134	0xbf92eef5	-1.1479174
135	0xbef6bcb6	-0.4819085
136	0xbfc998d4	-1.5749764
137	0xc19563a7	-18.673658
138	0xc0fa10a9	-7.8145337
139	0xbf243d00	-0.6415558
140	0xbf4e3058	-0.80542517
141	0xc1233f8b	-10.203013
142	0xc19aec6e	-19.365444
143	0xbec851a1	-0.39124778
144	0xc0429df6	-3.0408912
145	0xbf0a325a	-0.5398308
146	0xbf0b3277	-0.5437388
147	0xbf176d9e	-0.5915164
148	0xbf19c410	-0.6006479
149	0xbf035772	-0.51305306
150	0xc04e4ffb	-3.2236316
151	0xbf12d3cc	-0.57354426
152	0xc0872bf0	-4.2241135
153	0xbf89b5a0	-1.0758553
154	0xc038c58a	-2.8870568
155	0xbf9b9945	-1.2156149
156	0xc119e6d4	-9.6188545
157	0xbf243152	-0.64137757
158	0xc21bfd14	-38.997147
159	0xbee8bb98	-0.45455623
160	0xbfc4dae5	-1.5379301
161	0xc020c1b3	-2.5118225
162	0xbefd4f92	-0.4947477
163	0xbf0077cf	-0.50182813
164	0xbff52eaf	-1.9154872
165	0xc0804a65	-4.0090814
166	0xbf220289	-0.6328512
167	0xc09cf86c	-4.905325
168	0xbf0e07f4	-0.55480886
169	0xbfcddd27	-1.6083115
170	0xc100094d	-8.002271
171	0xbf2501ba	-0.6445576
172	0xc0406e1d	-3.0067208
173	0xbf0bdffc	-0.5463865
174	0xc011d17e	-2.2784114
175	0xbf0a43bc	-0.54009604
176	0xc0445aa3	-3.068032
177	0xc056cd08	-3.356264
178	0xbf1727f2	-0.59045327
179	0xbf1001b2	-0.56252587
180	0xbf0b3b8f	-0.54387754
181	0xc0260272	-2.5938993
182	0xc036345a	-2.8469453
183	0xbf107488	-0.5642781
184	0xbf16a6dc	-0.5884836
185	0xbc9c99a4	-0.01911623
186	0xbf132c04	-0.5748904
187	0xc0b883b3	-5.7660766
188	0xbf170438	-0.5899081
189	0xbf06d063	-0.5266172
190	0xbf0e7d6d	-0.55660135
191	0xbf1acfc6	-0.6047329
192	0xbf1aab5b	-0.6041772
193	0xbedd23f2	-0.43191487
194	0xc03225ee	-2.783565
195	0xbf02ae92	-0.51047623
196	0xbfd73801	-1.6813966
197	0x402b4620	2.676155
198	0xbeef0de7	-0.46690294
199	0xbf0e042b	-0.5547511
200	0xbf16c52d	-0.58894616
201	0xc05429e7	-3.3150575
202	0xbee2be12	-0.44285637
203	0xbe82b51c	-0.255288
204	0xbeee9f12	-0.46605736
205	0xc072f9bd	-3.7964928
206	0xbf859dd7	-1.0438794
207	0xc108e41e	-8.555693
208	0xbf0e3935	-0.5555604
209	0xc08f0518	-4.469372
210	0xbecc8716	-0.39946812
211	0xbf23cf2d	-0.63988
212	0xc04da3fa	-3.2131333
213	0xc0806b00	-4.0130615
214	0xbf18a075	-0.5961984
215	0xbfd7de12	-1.6864645
216	0xc081f32b	-4.0609336
217	0xc0035d54	-2.0525713
218	0xbf64c730	-0.89366436
219	0xc077246c	-3.861598
220	0xc05096f8	-3.2592144
221	0xbe8e6a73	-0.2781559
222	0xc09aff49	-4.8436627
223	0xbf23818e	-0.6386956
224	0xc0a919c5	-5.2843957
225	0xbf192680	-0.5982437
226	0xbf165f71	-0.5873938
227	0xc0b284ca	-5.5787096
228	0xc06d2c54	-3.7058306
229	0xbf0d0c80	-0.550972
230	0xbf082045	-0.5317424
231	0xc0c1de5c	-6.0583935
232	0xbf0d9441	-0.5530434
233	0xbf09ebf6	-0.5387567
234	0xc0602e20	-3.5028152
235	0xc04426f3	-3.0648773
236	0xc093a0ae	-4.613364
237	0xc101fab1	-8.123704
238	0xc09859bd	-4.7609544
239	0xbfbba76b	-1.4660467
240	0xc10b1fb7	-8.695243
241	0xbee897b1	-0.4542823
242	0xbf9acca3	-1.20937
243	0xbf177aa8	-0.59171534
244	0xbfbed902	-1.4909976
245	0xbee8a836	-0.45440835
246	0xc035601c	-2.833991
247	0xc13f7b8e	-11.967665
248	0xbef326f1	-0.47490647
249	0xbe62a56c	-0.22133416
250	0xbf150668	-0.582129
251	0xbf22069c	-0.63291335
252	0x3edaa9b7	0.42707607
253	0xbf1379a3	-0.5760748
254	0xbf9517a0	-1.1647835
255	0xbe6f59db	-0.23374121

linear3.weight f4 [4, 256]
0	0x3f176164	0.5913298
1	0x3f0fa4f7	0.5611109
2	0x3f1bc9df	0.60854906
3	0x3f137941	0.57606894
4	0x3f16016e	0.5859593
5	0x4073cb1f	3.8092725
6	0xc0163182	-2.3467717
7	0xc024972f	-2.5717275
8	0x3dfd5284	0.12369254
9	0x3f1f7ff9	0.62304646
10	0x3dbc94d7	0.092080764
11	0x418e88e9	17.81685
12	0x3f09ef1c	0.53880477
13	0x3df71ffc	0.120666474
14	0x3f12f4fb	0.5740506
15	0x3d4acabf	0.04950976
16	0xbf0d588b	-0.5521323
17	0x40869805	4.206057
18	0x3f285eef	0.6576986
19	0x3fd7a271	1.6846448
20	0xc06e0de3	-3.7195976
21	0x3f1bc444	0.6084635
22	0x3e2f0b67	0.17094193
23	0x3fc54f3d	1.5414807
24	0x3f0acf42	0.542225
25	0x3f16ca8d	0.5890282
26	0xbd1f1e26	-0.03884711
27	0x3f21482f	0.6300077
28	0xc02e9a7a	-2.7281785
29	0x3f0f1c11	0.559022
30	0xbf810dbf	-1.008232
31	0xbf7b43d6	-0.98150384
32	0x3ebcc84d	0.36871567
33	0x3d46a11b	0.048493486
34	0xbea6557b	-0.3248709
35	0x3fccbd17	1.5995206
36	0xbe90e101	-0.28296664
37	0x3e3c0d16	0.18364367
38	0x3e384cf8	0.17998111
39	0xbe26dc08	-0.16294873
40	0x3f0bc39a	0.5459534
41	0xbf48c193	-0.7842037
42	0x407adba1	3.919655
43	0x3e806727	0.250787
44	0x400f4c4f	2.2390325
45	0x3ea33f7e	0.31884378
46	0x3f051918	0.51991415
47	0x41447be8	12.280251
48	0xc036d14d	-2.8565247
49	0x3dd6e2c0	0.10492468
50	0xbf00e8ce	-0.5035523
51	0xc136ae85	-11.417607
52	0x3f72b538	0.9480777
53	0x3f168ec9	0.5881162
54	0x3ddf8804	0.10914615
55	0x3f1c615b	0.6108605
56	0x3f141c30	0.5785551
57	0xc01eaed3	-2.4794204
58	0x3e6c7a92	0.23093632
59	0xbf1639b5	-0.58681804
60	0x3f0e2f0e	0.5554055
61	0x3f0a8583	0.5410997
62	0x3f109e1c	0.56491256
63	0x3e515cc3	0.20445542
64	0x3f28902a	0.65844977
65	0x40585116	3.379949
66	0xbee126ad	-0.4397482
67	0xc122f914	-10.18581
68	0x3fda218c	1.7041488
69	0x40cd434d	6.4144654
70	0x3ec8f4f0	0.39249372
71	0x4016b3b0	2.3547173
72	0xc032c8fe	-2.7935176
73	0xbf066e45	-0.5251201
74	0x3ea2e9d7	0.3181903
75	0x3f18dbca	0.5971037
76	0x3db3ad5f	0.08773302
77	0x3e447196	0.19183955
78	0x3f0c28cc	0.5474975
79	0x40269ad8	2.603201
80	0xbee71f9f	-0.45141312
81	0x4037aee4	2.8700495
82	0x3f1104be	0.5664786
83	0x3f1b17f7	0.6058344
84	0xbf818c5a	-1.0120957
85	0xc02ee0f3	-2.7324798
86	0x3f1de6a3	0.6168005
87	0x3fd3e367	1.6553773
88	0x4018879f	2.3832777
89	0x40452a7d	3.0807183
90	0x3f93fd6f	1.1561717
91	0x3e038570	0.12843871
92	0x3f04f02a	0.5192896
93	0x3e55894d	0.20853157
94	0x3ef62492	0.48074776
95	0x3ffc9f9d	1.973621
96	0x3dd985bf	0.10621213
97	0x3fffa30a	1.997163
98	0x3f242add	0.64127904
99	0x3e1160cd	0.14197083
100	0xc0317c88	-2.7732258
101	0x3d4108f4	0.04712768
102	0x3f2138e0	0.6297741
103	0x3febcc6b	1.8421758
104	0x3e574359	0.21021785
105	0x40496bda	3.1472077
106	0x3e06032b	0.13087146
107	0x4059545b	3.3957736
108	0x3fa5da52	1.2957251
109	0x3efa9218	0.48939586
110	0x3f3e9f68	0.74461985
111	0x3f0cb414	0.5496228
112	0xc02bb25f	-2.682762
113	0x3df1f9cb	0.11815222
114	0xc09a0f25	-4.8143487
115	0xbf048aa2	-0.51774037
116	0xbfdf1add	-1.7430073
117	0xbf0603db	-0.5234963
118	0x3ccf8aa0	0.025334656
119	0xbc5f1648	-0.013616152
120	0x3f0ab34f	0.54179853
121	0x3f0cf6cc	0.5506408
122	0x3f0f7823	0.5604269
123	0x3ead5c8b	0.33859667
124	0x3f102418	0.56305075
125	0xbfc44c6c	-1.5335822
126	0x400744ac	2.1135664
127	0x3ebab59a	0.36466676
128	0x3f18f42c	0.59747577
129	0x4016e41d	2.357673
130	0x3f27380f	0.65319914
131	0x3fb52a51	1.4153539
132	0x3f09e96b	0.5387179
133	0x3db67b04	0.08910182
134	0x40383db7	2.8787668
135	0x3f007dbd	0.5019186
136	0x3f074d7d	0.5285261
137	0xc0ef4760	-7.477463
138	0x411170a0	9.089996
139	0x3f09d3f6	0.5383905
140	0x3eabaa12	0.3352819
141	0xc0e0eb4d	-7.0287232
142	0xc101d637	-8.114799
143	0x3e51cbac	0.20487851
144	0x3df86a2f	0.12129628
145	0x3f0f8573	0.56063
146	0x3f1adb83	0.604912
147	0x3f1a68c9	0.6031614
148	0xbf0c83c2	-0.54888546
149	0xbc9e6fe1	-0.019340457
150	0x402d966c	2.712306
151	0x3f0e7ba7	0.5565743
152	0xbfd5569e	-1.6667058
153	0x40c0b3ae	6.0219336
154	0x3dd2b272	0.10287942
155	0xbe9d1b2c	-0.30684793
156	0x3fc542e8	1.5411043
157	0x3f0b8947	0.54506344
158	0xc0d98454	-6.7974033
159	0x3dc39ba5	0.09551171
160	0xbf2e96c4	-0.681988
161	0xbfb3e43c	-1.4054027
162	0x3d879438	0.06620067
163	0x3dcf7d04	0.10131267
164	0xc02518f8	-2.579649
165	0xc020e9b6	-2.5142646
166	0x3f1241dc	0.57131743
167	0xc001fe8a	-2.0311608
168	0x3f127ef3	0.5722496
169	0xbf6d9eee	-0.9282063
170	0x3f2ce48b	0.6753623
171	0x3f0a570a	0.5403906
172	0xc000818f	-2.0079076
173	0x3f0e7111	0.55641276
174	0x3ed6da6f	0.41963527
175	0x3f0a7fca	0.5410124
176	0x3fd6debb	1.6786722
177	0x3dd53c89	0.10411937
178	0x3f0f4bb6	0.559749
179	0x3f1df192	0.6169673
180	0x3f1ab180	0.60427094
181	0xc03956b2	-2.8959165
182	0xbe07f7a6	-0.13278064
183	0x3f1ea788	0.6197438
184	0x3f0c6655	0.54843646
185	0xbe2c7594	-0.16841727
186	0x3f1b317a	0.6062237
187	0x3fc26aba	1.518882
188	0x3f1eb213	0.6199047
189	0xbb7897c0	-0.0037932247
190	0x3f132888	0.5748372
191	0x3f06abbd	0.526058
192	0x3f17d0fc	0.5930326
193	0x3dc49b20	0.095999
194	0xc00ee577	-2.2327554
195	0x3f04075d	0.51573735
196	0xbf41d7aa	-0.757197
197	0x3fba643f	1.4561843
198	0x3daa5f79	0.08318991
199	0x3f09e787	0.5386891
200	0x3f0b51cc	0.5442169
201	0xbdd26b3e	-0.10274361
202	0x3e213cea	0.15745893
203	0x3eafe22d	0.34352246
204	0xbecfc715	-0.40581575
205	0xc0115712	-2.2709394
206	0x40382c3b	2.8776996
207	0xbf96ab27	-1.1770982
208	0x3f048e75	0.5177987
209	0xc00e23e3	-2.2209404
210	0x3ef326c6	0.4749052
211	0x3db935e8	0.09043485
212	0x3fcfe93b	1.6243051
213	0x3f6d1bb4	0.92620397
214	0xbf0847c0	-0.5323448
215	0x4011e859	2.2798064
216	0x40143b59	2.3161223
217	0xbd4cc8c9	-0.04999617
218	0xbd757ab2	-0.059931464
219	0x3f883804	1.0642095
220	0x3fd68936	1.6760623
221	0x3ec73ea2	0.38914973
222	0xbf9d8ea9	-1.2309161
223	0x3f0e7d72	0.55660164
224	0x4077d498	3.8723507
225	0x3f0e1027	0.55493397
226	0x3f1d7148	0.6150098
227	0xc09e48a8	-4.946369
228	0x3f92f3f3	1.1480697
229	0x3ddb577f	0.10710048
230	0x3f0221a2	0.5083257
231	0x3eaf44ea	0.34232265
232	0xbf013d37	-0.5048403
233	0x3f15aa22	0.5846273
234	0x4016b698	2.3548946
235	0xc02d5679	-2.7084029
236	0xbe9942da	-0.29933816
237	0x3f1dd3d1	0.6165133
238	0x408c9410	4.393074
239	0xbfffe862	-1.9992793
240	0x3fbc14d4	1.4693856
241	0x3e630cb1	0.2217281
242	0xbeb6094d	-0.3555397
243	0x3f0c7871	0.5487128
244	0xbf2c0aa2	-0.67203724
245	0x3eb42cf9	0.3519056
246	0xc036b2f1	-2.8546717
247	0xc0e7c355	-7.2425942
248	0x3efa86ff	0.4893112
249	0x3ebdd836	0.37079018
250	0x3f177260	0.591589
251	0x3f186fb4	0.59545445
252	0xbe66d2c7	-0.22541343
253	0x3f100834	0.56262517
254	0x3ea29680	0.31755447
255	0x3ebb9f7d	0.36645117

linear3.bias f4 [4]
0	0xc243843d	-48.87914
1	0x403ad988	2.919527
2	0x42419ed3	48.4051
3	0xc196992a	-18.824787
