models/model_city2.bin (torch_old, 273482 bytes, 6 tensors)

linear1.weight f4 [256, 4]
0	0xbd6a0780	-0.05713606
1	0xbe972d74	-0.29526865
2	0xbe0d1182	-0.1377621
3	0xbf24f16f	-0.644309
4	0xbff0d475	-1.8814837
5	0xbe92789c	-0.28607643
6	0xbeaa9cae	-0.33322662
7	0xbe66e6b4	-0.22548944
8	0xbfb0ecdd	-1.3822285
9	0xbf03f83c	-0.5155065
10	0xbf3a8cad	-0.72870904
11	0xbfd9844a	-1.6993496
12	0x3fc80e29	1.5629321
13	0x4007b770	2.1205711
14	0x403d9831	2.962414
15	0xc03b9c2e	-2.9314075
16	0xbf15fbad	-0.5858715
17	0xbf3947ab	-0.7237498
18	0xbe9b98dc	-0.3039006
19	0xbe18cc44	-0.14921671
20	0xbeb701e2	-0.35743624
21	0xbef1ee00	-0.47251892
22	0xbee8712c	-0.45398843
23	0xbed65d7c	-0.41868198
24	0xbf187d82	-0.5956651
25	0xbee3bd3d	-0.44480315
26	0xbe9d73e7	-0.3075249
27	0xbed9e3bc	-0.4255656
28	0xbf18b5e5	-0.5965255
29	0x3e888223	0.26661786
30	0xbf3a1c33	-0.7269928
31	0xbf7b7019	-0.9821792
32	0xbf4847cd	-0.7823456
33	0xbf0c7d3f	-0.5487861
34	0xbeb76fbc	-0.35827434
35	0xbf0dd306	-0.5540012
36	0xbeb228a3	-0.34796628
37	0xbf212144	-0.62941384
38	0xbf40290d	-0.7506264
39	0xbf6e6d5a	-0.9313561
40	0xbf545f36	-0.8295778
41	0xbf2e3b4e	-0.6805924
42	0xbfd1f185	-1.6401831
43	0xbfa5bf4a	-1.2949002
44	0xbee2dd74	-0.4430958
45	0xbe8d6245	-0.27614036
46	0x3deb3f2d	0.11486659
47	0xbf47dd98	-0.780725
48	0xbe7bea88	-0.24601185
49	0xbe4993a8	-0.19685233
50	0xbe8ee08a	-0.27905685
51	0xbe219fe0	-0.15783644
52	0xbe762f88	-0.24041569
53	0xbe8b7616	-0.2723853
54	0xbe433a82	-0.19065288
55	0xbf059b31	-0.5218993
56	0x3ed39386	0.4132349
57	0x3eaff8e5	0.3436958
58	0x40a40ecc	5.1268063
59	0x40285a6e	2.6305194
60	0xbec2db32	-0.38057858
61	0xbd308920	-0.043099523
62	0xbeb66116	-0.35620946
63	0xbee55258	-0.44789386
64	0xbe8d2340	-0.27565956
65	0xbd8791b0	-0.066195846
66	0xbe9728d1	-0.29523328
67	0xbf22a246	-0.6352886
68	0xbeec28bd	-0.4612483
69	0xbf2d0ad7	-0.67594665
70	0x3e96bd6b	0.2944139
71	0x3e26ba33	0.16281967
72	0xbead1f82	-0.338131
73	0xbf1729f3	-0.59048384
74	0xbef7f858	-0.4843166
75	0x3dbdb170	0.09262359
76	0xbe8c8b0e	-0.2744984
77	0xbed7c7e8	-0.42144704
78	0xbe70ce18	-0.23516119
79	0xbdce4458	-0.10071629
80	0xbfaa2646	-1.329293
81	0xbf0e7d9d	-0.5566042
82	0xbee8767b	-0.45402893
83	0x3fb526ee	1.4152505
84	0xbf0ad559	-0.5423179
85	0xbebd190e	-0.36933178
86	0xbf408634	-0.7520478
87	0xbef74b12	-0.48299462
88	0xc048ccd1	-3.137501
89	0x3f0a90d9	0.5412727
90	0x40cf41a7	6.476764
91	0x3ef5bb80	0.47994614
92	0xbf631a3d	-0.8871191
93	0xbe45148d	-0.19246121
94	0x3e5ae659	0.21376933
95	0xbf62b9e9	-0.88564926
96	0xc12fa70f	-10.978286
97	0x3f2730b2	0.6530868
98	0x411f8604	9.970219
99	0xbf546f63	-0.8298246
100	0xbe860ec6	-0.26183146
101	0xbed58b58	-0.41707873
102	0xbee8a886	-0.45441073
103	0xbee87b71	-0.45406678
104	0x3fb4aed1	1.411585
105	0xc00d8acd	-2.2115967
106	0x40ad0ea2	5.408036
107	0xbf222d33	-0.6335022
108	0xc05285c0	-3.2894135
109	0xbfbbf978	-1.4685507
110	0x40f5ea82	7.6848764
111	0xbf820993	-1.0159172
112	0xbf9644bf	-1.173973
113	0xbf61c11c	-0.88185287
114	0xbf0da74a	-0.5533339
115	0xbf9567c5	-1.1672293
116	0xbe5b9b74	-0.2144602
117	0xbf788482	-0.9707719
118	0xbf0f2919	-0.55922085
119	0xbed33ef7	-0.41258976
120	0xbe35c8a4	-0.1775232
121	0xbe10efa4	-0.14153916
122	0xbe93cee4	-0.28868783
123	0xbec3003a	-0.3808611
124	0xbfb241d7	-1.3926343
125	0xbf17c34b	-0.5928237
126	0xbf871838	-1.0554266
127	0xbfd21d15	-1.6415125
128	0xbced07e0	-0.02893442
129	0x3d109310	0.0352965
130	0xbe4d0570	-0.20021605
131	0x3d0859d0	0.033288777
132	0xbee702e9	-0.45119408
133	0xbeda71a4	-0.42664826
134	0x3e238344	0.15968043
135	0xbede616b	-0.434337
136	0xbf2a3bd4	-0.6649754
137	0xbef301cf	-0.47462317
138	0xbf574ce0	-0.84101677
139	0xbfc5d090	-1.5454273
140	0x3d6f3ba0	0.058406472
141	0xbe14bfa0	-0.14526224
142	0xbe902588	-0.28153634
143	0xbc93f860	-0.01806277
144	0xbe8a0fc0	-0.2696514
145	0xbe106dfc	-0.14104456
146	0xbf608f80	-0.87718964
147	0xbe6a3db8	-0.22875106
148	0xc035e75e	-2.8422465
149	0xbf0161e4	-0.50539994
150	0x3e216867	0.15762483
151	0xbf2d6843	-0.67737216
152	0xbed43035	-0.4144303
153	0xc08dbb96	-4.4291487
154	0xbed84a8c	-0.42244375
155	0x3f6e80a1	0.9316502
156	0xbf1b28bd	-0.60609037
157	0xbe80b4cc	-0.25137937
158	0xbda21be0	-0.07915473
159	0xbdc45200	-0.09585953
160	0xbf02a5c6	-0.510342
161	0xbf58d301	-0.84696966
162	0xbf12e20c	-0.5737617
163	0xbedf6d49	-0.43638065
164	0xbee707e6	-0.45123214
165	0xbe9f3c39	-0.31100634
166	0xbf59dfe3	-0.8510725
167	0xbeab0d80	-0.33408737
168	0x401c30e1	2.4404833
169	0x3ec9a70a	0.39385253
170	0x405c5915	3.4429371
171	0xc03f6801	-2.990723
172	0xbe92108e	-0.28528255
173	0xbee936e8	-0.45549703
174	0xbeb652d0	-0.35610056
175	0xbda57c58	-0.08080357
176	0xc048c48c	-3.1369963
177	0xbfd48e68	-1.6605959
178	0x3e875f1c	0.2643975
179	0xbf0a29c9	-0.5397001
180	0xbeb6621a	-0.3562172
181	0xbec2f967	-0.38080904
182	0x3e706d1d	0.23479123
183	0xbe8281a7	-0.25489542
184	0xbfac352d	-1.3453728
185	0xbfa0430e	-1.2520463
186	0xbfd26ca2	-1.6439402
187	0x3e9b98c2	0.30389982
188	0xbf0f5782	-0.559929
189	0xbf0b3d3c	-0.5439031
190	0xbed5db34	-0.417688
191	0xbe77ce0d	-0.24199696
192	0xc0782c4e	-3.8777041
193	0xc01977a3	-2.397927
194	0x3f64d61f	0.8938922
195	0x3ebb4a45	0.365801
196	0xbf3998a8	-0.7249856
197	0xbe2326e7	-0.15932809
198	0xbe0a7008	-0.13519299
199	0xbdf63ca0	-0.12023282
200	0xbebc3e1c	-0.36766136
201	0x3cfcde20	0.030867636
202	0xbcb42bc0	-0.021993518
203	0xbe76cc38	-0.24101341
204	0xbf0e06cd	-0.5547913
205	0xbe7a0304	-0.24415213
206	0x3e10fabc	0.14158148
207	0xbf52548f	-0.82160276
208	0xbf756571	-0.9585791
209	0xbda0412a	-0.07824929
210	0x3d26d50c	0.04073052
211	0xbf3ca8c1	-0.73695
212	0xbea98116	-0.33106297
213	0xbea9fa91	-0.3319898
214	0xbe4945b4	-0.19655496
215	0xbdd9d1e0	-0.106357336
216	0xbf3a7d92	-0.72847855
217	0x3caec0c2	0.021332148
218	0xbe248db4	-0.1606968
219	0xbf04cdf0	-0.51876736
220	0xbeadcc3c	-0.3394488
221	0xbe17b179	-0.14813794
222	0xbef14a11	-0.4712682
223	0xbee0a864	-0.43878472
224	0xbf7a3620	-0.9773884
225	0xbea8e492	-0.32986885
226	0xbe818249	-0.25294712
227	0xbe8296f4	-0.25505793
228	0xbf4b7162	-0.79469883
229	0xbf4b87df	-0.795042
230	0xbed4b976	-0.41547745
231	0xbe9f79db	-0.31147656
232	0xbef57030	-0.47937155
233	0x3cb31e3e	0.021865007
234	0xbe1bf220	-0.15229082
235	0xbe9be0e6	-0.3044502
236	0xbfd4f70c	-1.6637893
237	0xbf656227	-0.89602894
238	0xbf8197c3	-1.0124439
239	0xbe228c1d	-0.15873761
240	0xbf8e806c	-1.1132941
241	0xbec39d3a	-0.38205892
242	0xbfa7c2a5	-1.3106276
243	0xbf06f54a	-0.5271803
244	0xbf36c2fe	-0.71391284
245	0x3e63b79a	0.22238007
246	0x40855621	4.166764
247	0x3fe0de31	1.7567807
248	0xbeda0787	-0.42583868
249	0xbe51765a	-0.20455304
250	0xbe62c8d0	-0.22146916
251	0x3e504af0	0.20341086
252	0xbf989746	-1.1921165
253	0xbf30efd0	-0.69115925
254	0xbf560c61	-0.8361264
255	0xbf840d14	-1.0316491

linear1.bias f4 [256]
0	0xbf862191	-1.0478994
1	0xc0208b56	-2.5085044
2	0xc012c1fe	-2.2930903
3	0xc1469d77	-12.413444
4	0xbf96cd28	-1.1781359
5	0xbf69c516	-0.91316354
6	0xbf858ee8	-1.0434237
7	0xc0072bf7	-2.1120584
8	0xbe5e45d6	-0.21706328
9	0xbfd0949e	-1.6295354
10	0xbf85119b	-1.0395998
11	0xbf85b829	-1.0446826
12	0xbea5984a	-0.3234275
13	0xbf114de0	-0.5675945
14	0x40cbf82e	6.3740454
15	0xbe43b034	-0.19110185
16	0xbf50dd72	-0.815879
17	0xc0b5ca14	-5.6809177
18	0xbee2c6a9	-0.4429219
19	0xbee06963	-0.43830404
20	0xc11c402d	-9.765668
21	0xbf3cb66b	-0.7371585
22	0xc1614301	-14.078858
23	0xbf8ddf30	-1.1083736
24	0x40a533ab	5.162557
25	0xbf4b895c	-0.7950647
26	0xc17a5833	-15.646533
27	0xc08efcbd	-4.468352
28	0xbfb8532d	-1.4400383
29	0xbf608512	-0.8770305
30	0xbee97aca	-0.45601493
31	0xbf01a9ca	-0.506497
32	0xbf2ddca1	-0.6791478
33	0xc0021e43	-2.033097
34	0xbff1e08b	-1.889665
35	0xbf1022fa	-0.5630337
36	0xbeecdbd7	-0.46261474
37	0xbfa9fd3a	-1.3280404
38	0xc12c27d9	-10.759728
39	0xbf17c58a	-0.59285796
40	0xbf62d2c7	-0.8860287
41	0xbf1aa5b6	-0.60409105
42	0xc0b2b454	-5.5845127
43	0xbedca2f9	-0.43093088
44	0xc10bde32	-8.741747
45	0xc0aada29	-5.339131
46	0xc0c0c0df	-6.023544
47	0xbf8213b1	-1.0162259
48	0xc1365e6f	-11.398055
49	0xbf111f8e	-0.56688774
50	0xbef29d29	-0.4738553
51	0xbfad6ff6	-1.3549793
52	0xbfabe960	-1.3430595
53	0xbeee54f4	-0.4654919
54	0xbf9d3096	-1.2280452
55	0xbf8fa6a1	-1.1222726
56	0xbf625855	-0.88416034
57	0xbf938497	-1.1524838
58	0xbf0af5be	-0.5428122
59	0xbfd8db42	-1.6941912
60	0xbfbaf3d5	-1.4605662
61	0x40dfc3b7	6.992641
62	0xbf77a4b5	-0.967357
63	0xbf8946ec	-1.0724769
64	0xc0541de4	-3.3143244
65	0xbeae7da1	-0.34080222
66	0x3ea562c5	0.32301918
67	0xbe1b8f2c	-0.15191334
68	0xc1493bbc	-12.577084
69	0xbf7ad2ad	-0.97977716
70	0xbf6b1c85	-0.9184039
71	0xbf839fc9	-1.0283138
72	0xbf947dec	-1.1600928
73	0xbf24d2b9	-0.6438404
74	0xbfc4c5f2	-1.5372908
75	0xc1168dc6	-9.409613
76	0xc01aaa74	-2.4166536
77	0xc006e12b	-2.1074932
78	0xbed78c90	-0.42099428
79	0xbfaf47cf	-1.3693789
80	0xbf8f30ac	-1.1186728
81	0xc15c05bc	-13.7514
82	0xc00a5738	-2.1615734
83	0xbe8a5a2a	-0.27021915
84	0xc191295a	-18.145191
85	0xbef91740	-0.4865055
86	0xc12cfdd8	-10.811974
87	0xbf99423a	-1.1973336
88	0xbf6830ab	-0.9069926
89	0xc03dc03c	-2.964858
90	0xbedf0e90	-0.43565798
91	0xc006eb46	-2.10811
92	0xc0060034	-2.0937624
93	0xbee02279	-0.437763
94	0xc07fdd37	-3.997877
95	0xbf1680d0	-0.587903
96	0xc162caf4	-14.174549
97	0xc11b7da5	-9.718175
98	0xbf8af86b	-1.0857061
99	0xc10143e8	-8.079079
100	0xbf318fd9	-0.6936012
101	0xbf88733e	-1.0660169
102	0x3f009d35	0.5023988
103	0xbf90512e	-1.1274774
104	0xc0887fa3	-4.2655807
105	0xbef0e75a	-0.47051507
106	0xc11e373e	-9.888487
107	0xbfc85048	-1.56495
108	0xc1242454	-10.258869
109	0xc128108c	-10.50404
110	0xc1631e7d	-14.194943
111	0xbf860f72	-1.0473464
112	0xc0372eeb	-2.8622386
113	0xc0097369	-2.147669
114	0xbfafc66d	-1.373243
115	0xc1414d6b	-12.081401
116	0xbeeabb9d	-0.45846263
117	0xc08bea8d	-4.3723817
118	0xc00bc1da	-2.1837068
119	0xbeceee62	-0.40416247
120	0xc034e8ef	-2.8267171
121	0xbf965da6	-1.1747329
122	0xbe7be870	-0.24600387
123	0xbfc4a54b	-1.5362943
124	0xc12ef63f	-10.935119
125	0xbf19137c	-0.59795356
126	0xc010417d	-2.253997
127	0xc137b165	-11.480809
128	0xc025a83b	-2.588393
129	0xbfdac068	-1.7089968
130	0xbe83aea8	-0.2571919
131	0xbf3c4983	-0.7354967
132	0xc0de68ad	-6.950278
133	0xc00da1a1	-2.21299
134	0xbf0c80b1	-0.5488387
135	0xbeca3d4e	-0.39499897
136	0xbfdbe7b4	-1.7180085
137	0xc09faba8	-4.989704
138	0xbfb8dec4	-1.4442983
139	0x41304799	11.01748
140	0xbf321c85	-0.6957477
141	0xbf268bbc	-0.6505697
142	0xbf091398	-0.5354552
143	0xc16e518d	-14.89491
144	0xc130b1f8	-11.043449
145	0xc14e1dd8	-12.882286
146	0xbf78da35	-0.9720796
147	0x40e7c84f	7.2432017
148	0xbfab422c	-1.3379569
149	0xbf4f07b6	-0.8087114
150	0xc1c645c1	-24.78406
151	0xc0197b9f	-2.3981702
152	0xc11ba576	-9.727896
153	0xbea9528e	-0.33070797
154	0xbee5254a	-0.44755012
155	0xbfea64d0	-1.8312016
156	0xc10d0d30	-8.81572
157	0x3fdd5a67	1.7293214
158	0x407ccf97	3.9501703
159	0xc1525502	-13.145754
160	0xc106c731	-8.423631
161	0xbf668996	-0.9005369
162	0xc0e4856e	-7.141288
163	0x4121cf45	10.113103
164	0xc10a5f07	-8.6482
165	0xc004e2a5	-2.0763333
166	0xbfd0134f	-1.6255893
167	0xbeceacfd	-0.40366355
168	0xbf9dce09	-1.2328502
169	0xc194bfbe	-18.593624
170	0xbe7fbdbc	-0.24974722
171	0xbfb18aff	-1.3870543
172	0xbfb22d25	-1.3920027
173	0xbf482b8f	-0.78191465
174	0xbf23d047	-0.6398968
175	0xbec108b8	-0.37701964
176	0xbefd1a19	-0.49433973
177	0x408f5b52	4.4798975
178	0xbf5a93b8	-0.8538165
179	0xbf11a900	-0.568985
180	0xc02a76d3	-2.6635025
181	0x402e4808	2.7231464
182	0xbf994309	-1.1973583
183	0xbec9aaf9	-0.39388254
184	0xc0e2bff2	-7.085931
185	0xbf48296c	-0.78188205
186	0xbec5ffe4	-0.38671792
187	0xbfa310bd	-1.2739483
188	0xbf9d90b5	-1.2309786
189	0xc1489200	-12.535645
190	0xc0a57217	-5.170177
191	0xbec24e95	-0.37950578
192	0x408bfd0c	4.3746395
193	0xc108e277	-8.555289
194	0xbfb3473c	-1.4006114
195	0xbfa8a725	-1.3176008
196	0xbf8c976a	-1.0983708
197	0xc148e5e1	-12.556123
198	0xc10e9a4f	-8.912673
199	0xbf026c4e	-0.5094651
200	0xbef6f509	-0.48233822
201	0xc04e98ae	-3.2280688
202	0xbf930d9e	-1.1488531
203	0x410b5471	8.708116
204	0xc0249107	-2.5713518
205	0xbee0cef3	-0.4390789
206	0xbef68412	-0.48147637
207	0xc010f061	-2.2646716
208	0xc0000e85	-2.0008862
209	0xbfc43ee6	-1.5331695
210	0xc0b0e7f6	-5.5283155
211	0xc1455fd0	-12.335892
212	0xc19d4697	-19.659468
213	0xc1831896	-16.387005
214	0xc1517238	-13.090385
215	0xbf3b269c	-0.7310579
216	0xc0e6f295	-7.217112
217	0xbf22e278	-0.63626814
218	0xc06c0d9f	-3.6883314
219	0xbe286c14	-0.16447479
220	0xc0d26da3	-6.5758834
221	0xbfb8b042	-1.442879
222	0xbfca7e9e	-1.581989
223	0xc1152a63	-9.322848
224	0xbe2a599c	-0.16635746
225	0xbea863e1	-0.32888702
226	0xbefd2871	-0.49444917
227	0xc00b612d	-2.1778061
228	0xc1405c80	-12.022583
229	0xbf780453	-0.968816
230	0xbf54597f	-0.8294906
231	0x40b9f537	5.8111835
232	0x4185c79a	16.722462
233	0xc006dd5a	-2.1072602
234	0xbfbfd852	-1.4987891
235	0xc0f418dc	-7.6280346
236	0xbfcc6954	-1.5969644
237	0xbfca06a0	-1.5783272
238	0xbf18426c	-0.5947635
239	0xc11c9d1e	-9.788359
240	0xbf9d590e	-1.2292802
241	0xc10e0ca0	-8.878082
242	0xc039497d	-2.8951104
243	0xbf7b863b	-0.98251694
244	0xbfa5dc93	-1.2957939
245	0xc0ca24f4	-6.317011
246	0xbf80e724	-1.0070539
247	0xbf84d30a	-1.0376904
248	0x40ad50a5	5.4160943
249	0x400294e8	2.0403385
250	0xc0067c7c	-2.101348
251	0xbf9aa538	-1.2081671
252	0xc130b6c8	-11.044624
253	0xbf2f0537	-0.6836733
254	0xbf454d5a	-0.77071154
255	0xbf9b96a5	-1.2155348

linear2.weight f4 [256, 256]
0	0x3d625c34	0.055263713
1	0xbd39bf90	-0.045348704
2	0xbf7874ea	-0.97053397
3	0xc0276b50	-2.6159248
4	0x3f3c4427	0.7354149
5	0x3d742fc0	0.05961585
6	0x3ce1e56c	0.027575217
7	0x3e61286c	0.21988076
8	0xbb3217c0	-0.00271748
9	0x3f4782c3	0.779339
10	0xbf809e43	-1.0048298
11	0xbd545396	-0.051837526
12	0x3d25b98a	0.040460147
13	0xbc6c7d40	-0.014434159
14	0xbff8d264	-1.9439206
15	0x3d2e0c94	0.042492464
16	0xbbae4eb0	-0.005319439
17	0x3fb18ae0	1.3870506
18	0x3d7ccc92	0.06171853
19	0xbb1e4fe0	-0.0024156496
20	0x4053fbe4	3.3122492
21	0x3c049e08	0.008094318
22	0x40158a78	2.3365765
23	0x3d5958aa	0.053063072
24	0xc0ade11a	-5.433728
25	0x3cbb00cc	0.022827528
26	0x41098e7e	8.597288
27	0x41074bee	8.4560375
28	0xbf1e48df	-0.6182994
29	0x3bd332d0	0.0064452663
30	0xbc3b0fa8	-0.011417307
31	0x3f928a63	1.1448482
32	0x3cb12718	0.021625087
33	0xbe9129ab	-0.28352103
34	0xbf92785d	-1.1442982
35	0x3cbbcebc	0.022925727
36	0xbd754892	-0.05988366
37	0x3f3699c0	0.71328354
38	0x408ed2ac	4.463217
39	0xbc8cd13c	-0.017189614
40	0x3bc11190	0.005891986
41	0xbceb4b10	-0.028722316
42	0xc10100da	-8.062708
43	0xbd17ddf4	-0.037076905
44	0x40646ec6	3.569261
45	0x3f82b220	1.021061
46	0x3f6eda54	0.9330189
47	0xbd490bb8	-0.04908344
48	0x4116aedd	9.417691
49	0x3c1a2060	0.009407133
50	0x3d1947ae	0.037421875
51	0xbcc279bc	-0.023739688
52	0x3c854f9c	0.016273312
53	0xbc04ddf0	-0.008109555
54	0x3c95b670	0.01827547
55	0x3d5929ae	0.053018264
56	0x3f2e4a35	0.6808198
57	0x3e7aa961	0.24478675
58	0x3d5db16a	0.054124273
59	0x3f115f66	0.5678619
60	0x3e828e38	0.2549913
61	0xbfdf41ba	-1.7441933
62	0xbd3fa588	-0.046788722
63	0x3f6b8863	0.92004985
64	0x3f20061e	0.62509334
65	0xbd732e24	-0.059370175
66	0xc0c4ef11	-6.154183
67	0x3d3c6162	0.04599131
68	0x3fd821ee	1.6885355
69	0x3c5dea68	0.013544656
70	0x3cd33270	0.025780886
71	0x3f30f236	0.69119585
72	0x3f2f5b61	0.6849881
73	0xbcde962c	-0.027171217
74	0x3f9ef12d	1.2417351
75	0x3f9ac78c	1.2092147
76	0x3ea1e7b8	0.316221
77	0x3db051f4	0.08609381
78	0xbc8fe21c	-0.017563872
79	0xbf49ce8f	-0.7883081
80	0xbf578cbd	-0.84199125
81	0x3ff746b7	1.9318455
82	0xbfa516be	-1.2897565
83	0x3cd6a434	0.026201345
84	0x404fd73c	3.2475119
85	0x3cd90c24	0.026495047
86	0x40ce0841	6.4385076
87	0xbf392736	-0.72325456
88	0x3cdab634	0.02669821
89	0xbf9e23f7	-1.2354726
90	0xbcf889ac	-0.030339085
91	0x3ed8ea9d	0.42366496
92	0x3f1d08cd	0.61341554
93	0xbd7357a2	-0.059409745
94	0x3f863631	1.0485288
95	0xbcbe8978	-0.02325891
96	0xc0a4562f	-5.1355205
97	0x409d17b7	4.909145
98	0x3f5614d5	0.8362554
99	0x3ff2b709	1.8962108
100	0x3c8cd600	0.017191887
101	0xbd76c91e	-0.060250394
102	0xc08ea0ea	-4.457143
103	0x3d2419b4	0.040063575
104	0x3fa3226b	1.2744879
105	0xbc93c428	-0.01803787
106	0xc07c5a82	-3.9430242
107	0xbf59b9fb	-0.8504941
108	0x4010e9a0	2.2642593
109	0x3f354564	0.70809007
110	0x3f988aae	1.1917322
111	0x3c9377d8	0.018001482
112	0xbdab1fca	-0.08355673
113	0x3e6bd9b0	0.2303226
114	0x3e9e2f34	0.30895388
115	0x3fe8a45f	1.8175162
116	0xbd42e1d6	-0.047578655
117	0x3c749d98	0.014930151
118	0xbf72b4f6	-0.94807374
119	0x3d39970a	0.045310058
120	0x400c8f9e	2.1962657
121	0x3be46ae0	0.0069707483
122	0xbd31ae08	-0.04337886
123	0x3c148de8	0.009067036
124	0x3fa70b53	1.3050331
125	0x3c370fa0	0.011173159
126	0xbf7ed0ea	-0.9953753
127	0x411f3efe	9.952879
128	0xbfc20ebe	-1.5160749
129	0x3e18c56a	0.14919057
130	0xbc90de84	-0.017684229
131	0x3f2505e4	0.64462113
132	0x3fc96346	1.5733421
133	0xbf9ba90c	-1.2160964
134	0xbcab46fc	-0.020907871
135	0xbd598f3c	-0.053115115
136	0x3b34fa00	0.0027614832
137	0xbe75dac1	-0.24009229
138	0x3d42594c	0.04744844
139	0x3dc43ebb	0.095822774
140	0xbfc144a6	-1.5099075
141	0xbd099376	-0.033587895
142	0xbbc4ef10	-0.006009944
143	0x40f00ca0	7.501541
144	0x409f44ce	4.977149
145	0x3f964985	1.1741186
146	0x3c985920	0.018597186
147	0xbfa253dc	-1.2681842
148	0xbdae31ce	-0.08505593
149	0x3f2984a6	0.6621803
150	0x401ae6a0	2.4203262
151	0xb9a29a00	-0.00031013787
152	0x405091b5	3.2588933
153	0x3c0265d0	0.007958844
154	0xbd3ab446	-0.04558208
155	0x3f2c4bca	0.67303145
156	0x3fc24b14	1.5179162
157	0xc0889870	-4.268608
158	0xbfae5515	-1.3619715
159	0x3f32f526	0.69905317
160	0x3f833fea	1.025388
161	0xbba47440	-0.005018741
162	0x40056186	2.0840774
163	0xc0e2cd59	-7.087567
164	0x40027f00	2.0390015
165	0xbf9a8db5	-1.2074496
166	0xbc7e4e60	-0.015521616
167	0x3d3f13fe	0.046649925
168	0xbf24f89d	-0.64441854
169	0x40da0a9f	6.8137965
170	0x3b8b1ce0	0.0042453855
171	0xbf2093a3	-0.62725276
172	0xbf3a374d	-0.7274063
173	0x3d79b592	0.060964175
174	0xbcc69a30	-0.024243444
175	0xbd2a4218	-0.04156694
176	0xbf9b1be9	-1.2117893
177	0xc10bec4e	-8.745192
178	0x3c7541b8	0.014969282
179	0xbf89d738	-1.0768805
180	0xbf3b4911	-0.73158365
181	0xc10c5a9c	-8.772121
182	0xbf2dcb31	-0.6788817
183	0xbc83dfcc	-0.016097926
184	0x3ee83b4a	0.45357734
185	0x3d52740a	0.051380195
186	0xbc8d82a4	-0.017274208
187	0xbc97a3b0	-0.01851067
188	0xbf27c4bd	-0.65534574
189	0x3f867515	1.0504481
190	0x3ec1de1c	0.37864769
191	0xbd734c6e	-0.05939906
192	0xc1534182	-13.203493
193	0x40cf40d7	6.476665
194	0x3f2af6d0	0.66782856
195	0x3d314062	0.04327429
196	0xbd59b41c	-0.05315028
197	0x3f42078f	0.75792783
198	0x40073ede	2.113212
199	0xbf95c122	-1.1699564
200	0xbcd0c8c8	-0.025486365
201	0xbfab848f	-1.3399829
202	0x3d84c778	0.06483358
203	0xc1535112	-13.207293
204	0x3f77006a	0.96485007
205	0x3d7df95a	0.06200538
206	0xbc8ade10	-0.01695159
207	0x41014918	8.080345
208	0xbf851f30	-1.0400143
209	0x3c2236d0	0.009900764
210	0x3f934061	1.1504022
211	0x3f274dc7	0.65353054
212	0x40f9f7e5	7.8115106
213	0x40413f60	3.019493
214	0x40cb4bf1	6.35302
215	0x3d51d75a	0.051230766
216	0xc0063f80	-2.0976257
217	0xbcbfea54	-0.023427166
218	0xbf8b75b6	-1.0895298
219	0xbc845f4c	-0.016158722
220	0x3f562d51	0.836629
221	0xbf36871d	-0.71299917
222	0xbd72152a	-0.059102215
223	0x3fbb5a07	1.4636849
224	0x3d1a667c	0.037695393
225	0x3bde1910	0.00677789
226	0x3d2efa46	0.042719148
227	0x3faf3c25	1.369023
228	0x3fa65f54	1.2997842
229	0xbd5b3730	-0.053519428
230	0xbd680e78	-0.056654423
231	0xbffb71ee	-1.9644144
232	0xc0b0dcfa	-5.5269747
233	0xbd9d7545	-0.07688383
234	0x3d2015a6	0.039083146
235	0xc10b2583	-8.696658
236	0xbd4c8622	-0.049932607
237	0xbd4c9e26	-0.04995551
238	0xbd4eeb9a	-0.050517656
239	0x40b1cb27	5.556049
240	0x3ba3ed80	0.0050026774
241	0xbe525e9f	-0.20543908
242	0x40109f28	2.2597141
243	0x3f399cc6	0.7250484
244	0x3d393f64	0.04522647
245	0x40a59b8e	5.1752386
246	0x3d42aa30	0.047525585
247	0xbd2081be	-0.03918623
248	0xc17ce429	-15.805703
249	0xc146a8e7	-12.416236
250	0x3b660180	0.003509611
251	0x3f5d96d8	0.86558294
252	0x406e2124	3.7207727
253	0xbe5445c1	-0.20729734
254	0x3beb54d0	0.0071817413
255	0xbd66575e	-0.056235664

linear2.bias f4 [256]
0	0xc02b5e27	-2.6776216
1	0xbf0472ad	-0.5173748
2	0xbf03eda2	-0.51534474
3	0xbf29a119	-0.6626144
4	0xbf02e47c	-0.5112989
5	0xbf06e405	-0.5269168
6	0xbf053680	-0.52036285
7	0xbf86492c	-1.049108
8	0xc00f6c05	-2.240968
9	0xbf1d37da	-0.6141335
10	0xbf0dec55	-0.5543874
11	0xbf1d19d8	-0.6136756
12	0x3e4c046c	0.19923562
13	0xbf0e6435	-0.55621654
14	0xbf10bb04	-0.56535363
15	0xbfad5f88	-1.3544779
16	0xbf03b2e0	-0.51444817
17	0xbf158517	-0.58406204
18	0xbfc714e5	-1.5553252
19	0xbf281f88	-0.6567311
20	0xbf037968	-0.51357126
21	0xbf150148	-0.5820508
22	0xbf1b2735	-0.606067
23	0xbf168ce6	-0.58808744
24	0xbefffe03	-0.49998483
25	0xbf1ce2a7	-0.61283344
26	0xbf1c6807	-0.61096233
27	0xbf017da5	-0.50582343
28	0xbf263f3f	-0.64940256
29	0xbf32014d	-0.69533235
30	0xbf051556	-0.5198568
31	0xbec2546e	-0.3795504
32	0xbf25c72d	-0.64757043
33	0xbf0e7955	-0.5565389
34	0xbf181a1e	-0.5941485
35	0xc00fa664	-2.2445307
36	0xbf0c857b	-0.54891175
37	0xbf16e270	-0.58939266
38	0xbf1073cb	-0.56426686
39	0xbf0f6a67	-0.5602173
40	0xbf130a4d	-0.5743759
41	0xbef287ca	-0.47369224
42	0xbf0b2c79	-0.54364735
43	0xbf132fa0	-0.57494545
44	0xbf16346b	-0.58673733
45	0xbf13cdac	-0.57735705
46	0xbf11d576	-0.5696634
47	0xbf1fb6bf	-0.62388223
48	0xbeee086c	-0.464908
49	0xc02c7ca5	-2.6951077
50	0xbeebe226	-0.46070975
51	0xbf0de523	-0.5542776
52	0xbfd50d5f	-1.6644706
53	0xc010694f	-2.2564275
54	0x3ef5057f	0.47855756
55	0xbf0883a7	-0.53325886
56	0xbf33ce2c	-0.7023647
57	0xbf403ca4	-0.7509253
58	0xbf03099b	-0.5118653
59	0xbedfb214	-0.4369055
60	0xbe8b9c37	-0.2726762
61	0xc01ccca5	-2.4499905
62	0xbf1814c8	-0.5940671
63	0xbf2bc89e	-0.6710299
64	0xc01a2b69	-2.4088995
65	0xbf058725	-0.5215934
66	0xbf0434de	-0.5164317
67	0xc015467a	-2.3324265
68	0xc0d4cb6a	-6.649831
69	0xbfc2e7f8	-1.5227041
70	0xbf152be5	-0.582701
71	0xbf38c45b	-0.72174615
72	0xbf95a402	-1.1690676
73	0xbf24b78f	-0.6434259
74	0xbf0c22a5	-0.54740363
75	0xbf1fc8d9	-0.62415844
76	0xbf0a57f4	-0.54040456
77	0xbfb17795	-1.3864619
78	0xc00f907d	-2.2431939
79	0xbf0f2948	-0.55922365
80	0xbf6a0424	-0.9141257
81	0xbf20c6f3	-0.6280357
82	0xbfc7e0da	-1.5615494
83	0xc00a10ee	-2.1572833
84	0xbeb12f45	-0.34606376
85	0xbf181bdc	-0.5941751
86	0xbf1a3fa7	-0.60253376
87	0xbf273858	-0.6532035
88	0xbeb76e31	-0.35826257
89	0xbf0b9132	-0.54518425
90	0xbf093bb4	-0.53606725
91	0xbd9a1fc2	-0.075255886
92	0xbf077405	-0.52911407
93	0xbf1443e4	-0.5791609
94	0xbf1ad552	-0.6048175
95	0xbf5d2e6b	-0.86398953
96	0xbf0160db	-0.50538415
97	0xbf24180b	-0.64099187
98	0xbeaf3650	-0.34221125
99	0xbf108a16	-0.564607
100	0xbf1774f2	-0.5916282
101	0xc00b62ca	-2.1779046
102	0xbf0bddeb	-0.54635495
103	0xbf134b78	-0.5753703
104	0xbf108a79	-0.5646129
105	0xbf1b92de	-0.60770977
106	0xc002c3a8	-2.043192
107	0xbf2350ac	-0.6379497
108	0xbecfec49	-0.4060996
109	0xbf1e7d28	-0.61909723
110	0xbf143e1f	-0.5790729
111	0xbef3a4f9	-0.47586802
112	0xbf0ea649	-0.5572248
113	0xbe690091	-0.22754122
114	0xbf135870	-0.5755682
115	0xbf302515	-0.6880658
116	0xc01251f7	-2.2862527
117	0xbf05457d	-0.52059156
118	0x3fdaffb2	1.7109282
119	0xc13f32d6	-11.949911
120	0xc0200c8f	-2.5007665
121	0xc0982e70	-4.7556686
122	0xbfe730d4	-1.8061776
123	0xbef1f5df	-0.47257897
124	0xbf0a3af6	-0.5399622
125	0xbf16c658	-0.588964
126	0xbf72209c	-0.9458101
127	0xc00c39f1	-2.1910365
128	0xc01da8cd	-2.4634278
129	0xbf15a814	-0.5845959
130	0xbef75680	-0.48308182
131	0xbeeec3a5	-0.4663364
132	0xbf129936	-0.5726503
133	0xc0007563	-2.0071647
134	0xbf36ee5e	-0.7145747
135	0xbf6ea751	-0.93224055
136	0xbf5288d6	-0.82240045
137	0xbf127a32	-0.57217705
138	0xbf128a6f	-0.5724248
139	0xbf21d862	-0.632208
140	0xbdf85cec	-0.121270984
141	0xbf0041ca	-0.50100386
142	0xbf0009f1	-0.5001517
143	0xbe2db40f	-0.16963218
144	0xbf1cd9fc	-0.6127012
145	0xc014a8aa	-2.3227944
146	0xc0bd62d9	-5.9183164
147	0xbf1e5c67	-0.61859745
148	0xbf134866	-0.57532346
149	0xbeecf95f	-0.46284005
150	0xc00ccc92	-2.199986
151	0xbfe92bbd	-1.8216473
152	0xbf1076e3	-0.56431407
153	0xbf12cf97	-0.57348007
154	0xbee8dabf	-0.4547939
155	0xbf27b5d1	-0.65511805
156	0xbeffb51f	-0.49942872
157	0xbf413e32	-0.7548553
158	0xbf08f3df	-0.5349712
159	0xbf1d9422	-0.6155416
160	0xc013e8c1	-2.3110812
161	0x3ea7f8f5	0.32807127
162	0xbf1adf55	-0.6049703
163	0xbf0c35a0	-0.54769325
164	0xbf10aa0b	-0.56509465
165	0xbd55a12a	-0.05215565
166	0xbf0c27a9	-0.54748017
167	0xbfed1ea0	-1.8524971
168	0xbf3c5948	-0.7357373
169	0xbf9d9f97	-1.2314328
170	0xbf1af5b1	-0.60531145
171	0xc0f22ab1	-7.5677114
172	0xc00b3e8b	-2.1756923
173	0xbf0da31b	-0.55327004
174	0xc013d5e4	-2.3099298
175	0xbefbc466	-0.49173278
176	0xbe0fc7ea	-0.14041105
177	0xbf79b563	-0.975424
178	0xbf13b447	-0.57696956
179	0xbf254c84	-0.6456988
180	0xbf8654bd	-1.049461
181	0xbf9a0cd3	-1.2035164
182	0xbfccda0d	-1.6004044
183	0xc0397159	-2.8975432
184	0xbfa05dc3	-1.2528614
185	0xbf017529	-0.505694
186	0xbf0e757b	-0.5564801
187	0xbfeca0fc	-1.8486629
188	0xbf067d52	-0.52534974
189	0xbf9947f0	-1.1975079
190	0xbecf57e0	-0.4049673
191	0xbf191dd9	-0.5981117
192	0xbf0c057d	-0.54695874
193	0xbf127aec	-0.57218814
194	0xbeecbeb7	-0.46239254
195	0xbf0e18d5	-0.5550664
196	0xbf1c59dd	-0.6107462
197	0xbf1a5c10	-0.60296726
198	0xbf77a31c	-0.9673326
199	0xbee9f7a2	-0.4569674
200	0xbf0bac24	-0.5455954
201	0xbf1e10ec	-0.6174457
202	0xbf086f0e	-0.53294456
203	0xbf122b3c	-0.5709722
204	0xbf172831	-0.590457
205	0x3e2c7b7c	0.1684398
206	0xc0164ca0	-2.3484268
207	0xbf190732	-0.59776604
208	0xbf0a682c	-0.54065204
209	0xbf9db3bd	-1.2320477
210	0xc009a425	-2.1506436
211	0xbf02e569	-0.511313
212	0xbfd844f7	-1.6896046
213	0xbf12691b	-0.5719163
214	0xbf1230c2	-0.5710565
215	0xbf1265c5	-0.5718654
216	0xbffd5ec5	-1.9794546
217	0xbf9fe184	-1.2490697
218	0xc00defe8	-2.2177677
219	0xbe5234dc	-0.20527977
220	0xbf0bf043	-0.54663485
221	0xbf050a41	-0.5196877
222	0xbf0c6546	-0.5484203
223	0xbf1f50db	-0.6223275
224	0xbf037bfb	-0.51361054
225	0xbec022ee	-0.3752665
226	0xbf023ae3	-0.50871104
227	0xbf0ac099	-0.5420013
228	0xbfff2952	-1.9934485
229	0xbf2277b4	-0.634639
230	0xbf1bfe8e	-0.60935295
231	0xbe4c4567	-0.1994835
232	0xc0a09169	-5.0177503
233	0xbf0f43e4	-0.5596297
234	0xbf019dfb	-0.50631684
235	0xbf041f2b	-0.5161006
236	0xc08a9a75	-4.3313546
237	0xbef75836	-0.48309487
238	0xbfec5795	-1.8464228
239	0xc0cab3dd	-6.334456
240	0xbf2689a7	-0.6505379
241	0xbeee8952	-0.46589142
242	0xbf12ed5b	-0.57393426
243	0xbfae9d1e	-1.3641698
244	0xc011fff3	-2.281247
245	0xbf0cc13e	-0.54982364
246	0xbf86c9c4	-1.0530324
247	0xbef0c631	-0.47026208
248	0xbf1d05fe	-0.6133727
249	0xbef6ad17	-0.48178932
250	0xbfb28658	-1.3947248
251	0xbf0947e7	-0.5362534
252	0xc06509b6	-3.5787177
253	0xbed93a7a	-0.42427427
254	0xbf068b6c	-0.5255649
255	0xbf151c7a	-0.58246577

linear3.weight f4 [4, 256]
0	0x4112844e	9.157301
1	0xbed57276	-0.4168889
2	0xbed8cc8b	-0.42343554
3	0xbed367d5	-0.41290155
4	0x3f19ea63	0.6012327
5	0xbee0557a	-0.43815213
6	0xbf0c7d1a	-0.5487839
7	0x3f4431a2	0.76638234
8	0x3f3e24f4	0.74275136
9	0xbf29f8cc	-0.6639526
10	0xbf231b39	-0.63713413
11	0x3f1aecd7	0.6051764
12	0x3f5f157d	0.87142164
13	0x3f1861ae	0.5952405
14	0x3f1b1c71	0.60590273
15	0x3db59ddc	0.08868
16	0x3ee821cb	0.45338282
17	0x3f0fc6c2	0.56162655
18	0xc00899bb	-2.134383
19	0x3f17a7cc	0.5924041
20	0xbec1ddbe	-0.37864488
21	0x3f144cce	0.57929695
22	0xbea88d58	-0.32920337
23	0xbea00ea4	-0.3126117
24	0x3ef0035e	0.4687757
25	0x3f0bba7c	0.5458143
26	0x3f216f07	0.6306004
27	0xbc9bef2c	-0.019034944
28	0x3f1e90f6	0.6193994
29	0xba7c4100	-0.0009622723
30	0xbecff527	-0.40616724
31	0xbeb4ab56	-0.3528697
32	0x3f1fd9f4	0.62441945
33	0x3f0e8563	0.5567228
34	0x3f135bb2	0.5756179
35	0xbe944ef3	-0.28966483
36	0x3f1b7b85	0.6073535
37	0x3ded53cc	0.115882486
38	0x3f217359	0.6306663
39	0x3f1d6309	0.6147924
40	0x3ef86e55	0.48521677
41	0xbec514a8	-0.38492322
42	0x3f0eb991	0.557519
43	0xbf0df557	-0.55452484
44	0x3f103744	0.5633433
45	0x3f1926b5	0.5982469
46	0xbd0f1116	-0.034928404
47	0x3f1e6e5d	0.6188715
48	0x3c89d09c	0.016823106
49	0x3e6df4fc	0.23237985
50	0xbc9f7e1c	-0.019469313
51	0xbd79faf4	-0.061030343
52	0xbed31d51	-0.41233304
53	0x3f4e081b	0.8048112
54	0x3da77a83	0.08177664
55	0xbec35666	-0.38151854
56	0xbec72184	-0.38892758
57	0xbebf7193	-0.37391338
58	0xbf0d93b0	-0.5530348
59	0xbec1258d	-0.3772396
60	0x3f35460a	0.70809996
61	0x3f77c08c	0.9677818
62	0x3f13f149	0.57790047
63	0xbeccc1fd	-0.3999175
64	0xbf033195	-0.5124753
65	0x3ef85226	0.48500174
66	0xbf008867	-0.50208133
67	0xbebe8388	-0.37209725
68	0x40add5a5	5.4323297
69	0xbe1ffd91	-0.15624072
70	0x3f0d860f	0.5528268
71	0x3fd139d6	1.6345775
72	0xbf20634f	-0.6265153
73	0x3f0b2984	0.5436022
74	0x3f0b81e3	0.54495066
75	0x3f11e3f4	0.56988454
76	0x3efdec51	0.49594358
77	0xbfaac528	-1.3341417
78	0x3f518384	0.818413
79	0x3f15e7ca	0.5855681
80	0xbf55e61f	-0.8355426
81	0xbedb614e	-0.42847675
82	0x40ec50d3	7.384866
83	0x3f3ec0ad	0.7451275
84	0xbed11403	-0.4083558
85	0x3f1db626	0.6160606
86	0x3f149963	0.5804655
87	0xbebaf21a	-0.36512834
88	0x3fbea88a	1.4895184
89	0x3eed087f	0.46295545
90	0xbebd851e	-0.37015623
91	0xbe5f98dd	-0.21835656
92	0xbe5d0edb	-0.21587698
93	0x3f0f3cab	0.55951947
94	0x3f15f799	0.5858093
95	0x3eb3a75e	0.3508863
96	0xbec02719	-0.3752983
97	0x3f1beb91	0.6090632
98	0xbbe5f413	-0.0070176213
99	0x3f162872	0.58655465
100	0x3f0faeaf	0.5612592
101	0x3f5cc339	0.86235386
102	0x3f0dc270	0.55374813
103	0x3f11d625	0.56967384
104	0x3f0a214f	0.53957075
105	0xbebe26e4	-0.37139046
106	0x4005245e	2.0803447
107	0x3f103f36	0.5634645
108	0xbecfca0a	-0.4058383
109	0xbcf8d3f4	-0.030374505
110	0x3f0c67a1	0.54845625
111	0xbef586d2	-0.47954422
112	0xbef3b82b	-0.47601447
113	0x3d8195cd	0.063274
114	0x3eea85b7	0.4580514
115	0x3d21d790	0.039512217
116	0x3f999d9f	1.2001227
117	0x3f04a910	0.5182047
118	0x3fc98e83	1.5746616
119	0x413c9c56	11.788168
120	0x3f374a0b	0.71597356
121	0x4084aee0	4.146347
122	0x4024dc7b	2.575957
123	0xbee7c304	-0.45265973
124	0x3ef9211a	0.48658067
125	0x3f1f88a3	0.62317866
126	0xbf66f578	-0.90218306
127	0xbff317ed	-1.8991677
128	0xbd246a58	-0.04014048
129	0x3f1d2e2e	0.6139859
130	0xbeeb195b	-0.45917782
131	0xbec75251	-0.3892999
132	0x3f14f047	0.58179134
133	0xbffbd8df	-1.9675559
134	0x41015072	8.08214
135	0xc02acb69	-2.6686652
136	0xbecb5183	-0.39710626
137	0x3d3b50e2	0.045731433
138	0xbb4a6f20	-0.003088899
139	0x3f1ab49f	0.60431856
140	0xbe540720	-0.20705843
141	0x3f054372	0.5205604
142	0xbeaf940d	-0.3429264
143	0xbe5cf5f5	-0.215782
144	0x3f159813	0.5843517
145	0x3f49a8d1	0.7877322
146	0x3f750f44	0.9572642
147	0x3f177875	0.5916818
148	0x3f1d7b3b	0.6151616
149	0x3efb0e9e	0.4903459
150	0x3f6db4c9	0.9285398
151	0x3eb12b0a	0.3460315
152	0x3f14f453	0.5818531
153	0x3f1173c0	0.56817245
154	0xbeef535f	-0.46743295
155	0x3f1b897c	0.6075666
156	0xbed3eb9b	-0.4139069
157	0xbef16a46	-0.47151393
158	0xbead84db	-0.33890423
159	0x3f0a8718	0.54112387
160	0x3f4262cc	0.75932
161	0xbe49150a	-0.19636932
162	0x3d24a592	0.040196963
163	0x3ce48764	0.02789659
164	0x3f246ffd	0.6423338
165	0xbc65d838	-0.014028601
166	0x3f23a9e7	0.63931125
167	0x402e0d46	2.7195601
168	0x3c045408	0.008076675
169	0xbedf6fc2	-0.43639952
170	0x3f17bf06	0.59275854
171	0x40c2664d	6.074988
172	0x3f88868c	1.066606
173	0x3f0d66cb	0.55234975
174	0x3f50d894	0.8158047
175	0x3d5ee526	0.05441775
176	0xbe2e7959	-0.17038478
177	0xbe917f7a	-0.2841757
178	0x3f1b49d8	0.6065955
179	0x3f17af47	0.59251827
180	0xbeda341b	-0.42617878
181	0x3f90af6c	1.1303535
182	0x402b6c19	2.6784728
183	0x40fed599	7.963574
184	0xbe5150fe	-0.20441052
185	0xbef9e3a4	-0.4880649
186	0x3f132cef	0.5749044
187	0xbf06f5f5	-0.5271905
188	0x3d775910	0.06038767
189	0xc08b1706	-4.3465605
190	0xbed9dd0d	-0.4255146
191	0x3f142109	0.5786291
192	0x3efda527	0.49540064
193	0x3f1117bc	0.5667684
194	0x3f083233	0.532016
195	0xbefe0c02	-0.49618536
196	0x3f13c781	0.57726294
197	0xbdb18a5d	-0.08668969
198	0xbefeefd9	-0.49792364
199	0xbed7d4dd	-0.4215459
200	0x3f154bf3	0.58319014
201	0x3f1cdfa6	0.6127876
202	0xbec7d023	-0.39025983
203	0x3f10bf70	0.5654211
204	0xbe7ee6ad	-0.24892683
205	0xbd5fbb75	-0.054622132
206	0x3f34c9aa	0.70620215
207	0x3f14652a	0.57966864
208	0x3f0e006d	0.554694
209	0xbeb45825	-0.352235
210	0x3f76f2c1	0.96464163
211	0xbf009809	-0.5023199
212	0x3efbbe70	0.4916873
213	0x3f0d8d11	0.55293375
214	0x3f0e3729	0.5555292
215	0x3a8c13c0	0.0010687038
216	0x3c89725a	0.01677816
217	0x3f38dfdf	0.722166
218	0x3f464b28	0.7745843
219	0xbe28edc5	-0.16496952
220	0xbf059246	-0.5217632
221	0xbd305b8c	-0.043056056
222	0x3cc93e44	0.024565823
223	0x3f0eff83	0.5585863
224	0x3d199224	0.037492886
225	0xbed6bca2	-0.4194079
226	0x3ef3e0ea	0.47632533
227	0x3f0d0466	0.55084836
228	0x3fd6b5b3	1.67742
229	0x3f16a0fa	0.5883938
230	0xbf0a215d	-0.5395716
231	0xbe4ee6f9	-0.20205297
232	0x40a10fd4	5.033182
233	0x3f1b0004	0.605469
234	0xbed829f7	-0.42219517
235	0x3ce73d74	0.028227545
236	0x3e067182	0.13129237
237	0xbf086b1b	-0.5328843
238	0xbe6a508c	-0.22882289
239	0x40e2254c	7.067053
240	0x4039b808	2.9018574
241	0x3ca2dbbc	0.019880168
242	0xbe8d42e3	-0.27590093
243	0x3e19e938	0.15030372
244	0x3f377a72	0.7167121
245	0x3f17f29d	0.59354573
246	0x40300b72	2.7506986
247	0xbd420cde	-0.047375552
248	0x3f264154	0.6494343
249	0xbefac172	-0.48975712
250	0xbed04325	-0.40676227
251	0xbb103a40	-0.0022007376
252	0x4091fd1b	4.5621467
253	0xbec1790f	-0.37787673
254	0xbb2ac2e0	-0.0026056096
255	0x3f0fe7b2	0.56212914

linear3.bias f4 [4]
0	0xc07453e1	-3.8176196
1	0xc09500df	-4.6563563
2	0xc020584e	-2.5053897
3	0x3ff246e4	1.8927884
