models/model_city.bin (torch_old, 273540 bytes, 6 tensors)

linear1.weight f4 [256, 4]
0	0xc05581ef	-3.3360555
1	0xbeaac648	-0.33354402
2	0xbf81030d	-1.0079056
3	0xbef6d2b2	-0.48207623
4	0xbe9ea80e	-0.3098759
5	0xbee2ac98	-0.44272304
6	0xbe2e27d4	-0.1700738
7	0xbe8bb350	-0.27285242
8	0xc05786e8	-3.367609
9	0xc04291a7	-3.04014
10	0xc03986a9	-2.898844
11	0xbe8db404	-0.27676404
12	0xc0108960	-2.2583847
13	0xbfbd1a1a	-1.477359
14	0xc003b431	-2.057873
15	0xbdaf9d90	-0.085749745
16	0xbe928ce2	-0.2862311
17	0xc011f42e	-2.2805285
18	0xbe55e514	-0.20888168
19	0x3e290598	0.1650604
20	0xc0a2d19a	-5.088086
21	0xbf6aa3bc	-0.9165609
22	0xbf5aed7a	-0.8551861
23	0xc0402e70	-3.0028343
24	0x3d3b8a40	0.045786142
25	0xc00e27aa	-2.221171
26	0x3df7ae08	0.12093741
27	0xbe9df054	-0.30847418
28	0xc02185db	-2.523795
29	0xc02e3b68	-2.7223759
30	0xc05bf558	-3.4368496
31	0xbe87aaa0	-0.26497364
32	0xc058b6eb	-3.3861644
33	0xc050a75f	-3.2602155
34	0xc03604ab	-2.844035
35	0xbfa51c3a	-1.2899239
36	0x3d81aaa8	0.06331378
37	0xbd0722e2	-0.03299225
38	0xc01e602c	-2.4746199
39	0xc000e861	-2.0141833
40	0xc03e8b63	-2.9772575
41	0xc03ce073	-2.9511993
42	0xc04d6f7b	-3.2099292
43	0xbee4ffec	-0.44726503
44	0xbf203a66	-0.6258911
45	0xbf644601	-0.8916932
46	0x3f74606a	0.95459616
47	0xc04d70e7	-3.210016
48	0xbebd4998	-0.3697021
49	0xc0241f6f	-2.5644186
50	0xc0eab0c7	-7.3340793
51	0xbffd1431	-1.9771787
52	0x3ece5022	0.4029551
53	0x3f9885af	1.1915797
54	0xbf0b677c	-0.5445478
55	0x3f890436	1.070441
56	0xbefccb22	-0.49373728
57	0xc0322cca	-2.7839837
58	0xc002f000	-2.0458984
59	0xbef7f156	-0.48426312
60	0xc09c9a8d	-4.893866
61	0xc029585a	-2.6460176
62	0xc032da6b	-2.7945812
63	0xc051b11f	-3.2764356
64	0xbba7de00	-0.0051229
65	0xc0229413	-2.5402877
66	0xc0473cca	-3.1130853
67	0xbe4613fc	-0.19343561
68	0xc05648e3	-3.3481987
69	0xc0397bc9	-2.8981802
70	0xc063acb8	-3.557417
71	0xc0425bc2	-3.0368505
72	0xbfe06ade	-1.7532613
73	0xbec0e474	-0.37674296
74	0xbe315640	-0.17318058
75	0xbeee91e4	-0.4659568
76	0x3d8f1842	0.06987049
77	0xbeaf8120	-0.34278202
78	0x3e7623e8	0.24037135
79	0xbdd11f88	-0.10211092
80	0x3dad0ae6	0.08449344
81	0x3ec675a4	0.38761628
82	0xc006adf0	-2.1043663
83	0xbec26f54	-0.37975562
84	0xbebadc7c	-0.3649634
85	0xbdd0efe8	-0.102020085
86	0x3cf7c6a0	0.030246079
87	0xbfd547bb	-1.6662515
88	0x3da8da74	0.082447916
89	0xc01f7570	-2.4915428
90	0xbe1b23ec	-0.15150422
91	0xbfa79c9c	-1.3094668
92	0xbeab9a98	-0.33516383
93	0xc029433f	-2.6447294
94	0xc041bfc5	-3.0273297
95	0x3dc16588	0.09443194
96	0xbffe708e	-1.9878099
97	0xbfd5506d	-1.6665169
98	0xbfaf6c8d	-1.3705002
99	0xbf5b5862	-0.85681736
100	0xbecf3738	-0.40471816
101	0xbfa9c633	-1.3263611
102	0xc010d000	-2.2626953
103	0xbf9b736b	-1.2144598
104	0xbd0fb110	-0.03508097
105	0xbc3042c0	-0.010758102
106	0xc00e2512	-2.2210126
107	0xbe919d64	-0.28440392
108	0xc0292545	-2.6428998
109	0xbe87901c	-0.26477134
110	0xbd633ba0	-0.055476785
111	0xc029eddb	-2.6551425
112	0xc04e0b72	-3.2194486
113	0xc0419e1b	-3.025275
114	0xc02c1df9	-2.6893294
115	0xbfb600c4	-1.4218984
116	0xbdf7bf30	-0.12097013
117	0x3c9ca6a0	0.019122422
118	0x3d8376e8	0.06419164
119	0xbfd535dd	-1.6657063
120	0xbeafce4c	-0.3433708
121	0x3c7e27c0	0.015512407
122	0xbef5e5a8	-0.48026776
123	0xbf98c504	-1.1935124
124	0xc01340ac	-2.3008223
125	0xbdd84430	-0.10559881
126	0x3d9f3ee0	0.07775664
127	0xbe6a2c04	-0.22868353
128	0xbe634864	-0.22195584
129	0x3cbac1a0	0.022797406
130	0xbeb80c12	-0.3594671
131	0xbfac048e	-1.343889
132	0xc052dcc4	-3.2947245
133	0xc04902e2	-3.140801
134	0xc04203dc	-3.0314856
135	0xbfa800ed	-1.3125283
136	0xbcf51540	-0.02991736
137	0xc0309a89	-2.759432
138	0xbe1c1924	-0.15243965
139	0xbeeb3ea2	-0.45946223
140	0x3d7a2420	0.061069608
141	0x3b956880	0.0045595765
142	0xc011453d	-2.269851
143	0xbdfd8458	-0.12378758
144	0xbfdfdaf4	-1.7488694
145	0xbe074424	-0.13209587
146	0xbed16cb8	-0.40903258
147	0xbe811d50	-0.25217676
148	0xc0f53dcc	-7.6637936
149	0xc05d985a	-3.4624238
150	0xbfb35aa3	-1.4012035
151	0xc0ddc025	-6.929705
152	0xc0e5c8d7	-7.1807666
153	0xc09d1be5	-4.909655
154	0xbe3b4794	-0.18289024
155	0xc041165c	-3.0169897
156	0xbe502238	-0.20325553
157	0xc00bc009	-2.183596
158	0xbd9b8480	-0.07593632
159	0x3c5a0140	0.013305962
160	0x3cd708e0	0.02624935
161	0xbec6c164	-0.3881942
162	0x3e07021f	0.13184403
163	0x3d6821e0	0.05667293
164	0xbf842c48	-1.0326014
165	0xc098d47a	-4.775937
166	0xc050c225	-3.2618496
167	0xc0277755	-2.6166584
168	0xbf034900	-0.51283264
169	0xc083c4e5	-4.117785
170	0xc0410e9b	-3.0165164
171	0xbfe7b9cc	-1.8103576
172	0xbdc6f3e8	-0.0971449
173	0x3d848278	0.064701974
174	0x3c7dc2c0	0.015488327
175	0xc029572d	-2.6459458
176	0xc0141685	-2.3138745
177	0xc03a51d6	-2.9112449
178	0xc057d441	-3.37233
179	0xbe37e4ec	-0.1795842
180	0xc02063aa	-2.506083
181	0xbeef3798	-0.46722102
182	0x3e7b5408	0.24543774
183	0xbe8b397e	-0.271923
184	0xc08f2a8a	-4.4739428
185	0xbfac6b91	-1.3470327
186	0xbf1be520	-0.6089649
187	0xc0425a32	-3.036755
188	0xbfd7931c	-1.6841769
189	0x3e5012e4	0.20319706
190	0xbed85382	-0.4225121
191	0xbe763e14	-0.24047118
192	0xc09c28fb	-4.8800025
193	0xc0307180	-2.7569275
194	0xc02be7ec	-2.6860304
195	0xc052bb64	-3.2926874
196	0xbe898a23	-0.26863202
197	0xc042c01f	-3.0429761
198	0xc02e78b7	-2.7261178
199	0xc03a69da	-2.9127107
200	0x3e4a4204	0.19751745
201	0xbe99dbdc	-0.30050552
202	0xbda49b80	-0.08037472
203	0xbeaa57ea	-0.33270198
204	0xbe92a90c	-0.28644598
205	0xbe038ae4	-0.12845951
206	0xbed52c78	-0.4163549
207	0xbdce4190	-0.10071099
208	0xc067ca56	-3.6217246
209	0xc034f400	-2.8273926
210	0xc00bae9d	-2.1825325
211	0xc0456d4c	-3.084796
212	0xbec41bd6	-0.38302487
213	0xbea1c66c	-0.31596696
214	0xbe585d1c	-0.21129268
215	0xbef131b6	-0.4710824
216	0xbefb3c4c	-0.4906944
217	0xbef8e64c	-0.48613203
218	0xbecd6a20	-0.4012003
219	0xbdef1ce8	-0.11675435
220	0xbc747440	-0.014920294
221	0xbe851d52	-0.25998932
222	0xbd4693b0	-0.04848069
223	0xbef3947e	-0.47574228
224	0xbfd71568	-1.6803408
225	0xbe47ca6c	-0.19510812
226	0xbe8c3ede	-0.27391714
227	0xbdae7740	-0.08518839
228	0xc0391603	-2.8919685
229	0xc02c0a94	-2.6881456
230	0xbee1bcac	-0.44089258
231	0xc046444a	-3.097918
232	0xc03d038c	-2.9533415
233	0xbee104cc	-0.43948972
234	0xc045b54d	-3.0891907
235	0x3e39a37c	0.1812877
236	0xc0944626	-4.633563
237	0xbd13a50f	-0.036046084
238	0xbf2b9467	-0.6702332
239	0xbfdd5b8b	-1.7293562
240	0xbc324db8	-0.010882787
241	0xc0377fd5	-2.8671772
242	0xbb8ddc6e	-0.004329256
243	0xc098a9f3	-4.7707458
244	0xbd6d9560	-0.058003783
245	0xbe83e292	-0.25758797
246	0xbdd78ec8	-0.1052528
247	0xbed8f2f0	-0.42372847
248	0xc04bb0c3	-3.1826637
249	0xc0417694	-3.0228624
250	0xc03e41dd	-2.97277
251	0xbf9e6140	-1.2373428
252	0xbe584b1c	-0.21122402
253	0xbe854e9e	-0.26036543
254	0x3e824d36	0.25449532
255	0xbda3abc8	-0.07991749

linear1.bias f4 [256]
0	0xc082b302	-4.0843515
1	0xbe5918e0	-0.21200895
2	0xc10406cb	-8.251658
3	0xc07e0100	-3.968811
4	0xc0422f74	-3.0341463
5	0xc06887c4	-3.6332865
6	0xc0364f96	-2.8486075
7	0xc0c1beaf	-6.054527
8	0xc09cec49	-4.9038434
9	0xc0c8c103	-6.273561
10	0xc0d5ae76	-6.6775465
11	0xc12bbea6	-10.734045
12	0xc11e90b2	-9.910326
13	0xc25eaab4	-55.666702
14	0xc0bb172f	-5.84658
15	0xc0ac1faa	-5.3788652
16	0xc067443c	-3.6135397
17	0xc0c8860d	-6.2663636
18	0xc00b8a20	-2.1803055
19	0xc06b05c8	-3.6722279
20	0xc0732c42	-3.7995763
21	0xc07ad0e1	-3.918999
22	0xc09fa20e	-4.988532
23	0xc06f3f5b	-3.738242
24	0xc0f7fa14	-7.749277
25	0xc0d69cc1	-6.706635
26	0xbdf43733	-0.11924591
27	0xc049ac20	-3.1511307
28	0xc08bde80	-4.3709106
29	0xc07dad47	-3.963701
30	0xc0b429cf	-5.6301036
31	0xc050c717	-3.2621515
32	0xbff3c945	-1.9045798
33	0xc0a37967	-5.1085696
34	0xc07b1347	-3.9230516
35	0xc026ace1	-2.6043017
36	0xc01ccbee	-2.4499469
37	0xc14c83bb	-12.782161
38	0xc0e3fedd	-7.1248612
39	0xc04303a0	-3.0470963
40	0xc037b060	-2.87014
41	0xc11fd53a	-9.989557
42	0xc0afb034	-5.490259
43	0xc045b17b	-3.0889575
44	0xc08b729e	-4.3577414
45	0xc03b6978	-2.9283123
46	0xc072d4f4	-3.7942476
47	0xc0095b30	-2.1461906
48	0xc0a960ce	-5.293067
49	0xc077dcb1	-3.872845
50	0xc0848ebe	-4.1424246
51	0xbead733a	-0.33876973
52	0xc10c0919	-8.752221
53	0xbeba68f4	-0.36408198
54	0xbebc6341	-0.36794475
55	0xbb2e9100	-0.002663672
56	0xc0104525	-2.2542202
57	0xc0e334e1	-7.100205
58	0xc0b62605	-5.692141
59	0xc10f8751	-8.970536
60	0xc0af57cd	-5.479468
61	0xbed43ae6	-0.41451186
62	0xc092b50f	-4.584602
63	0xc063bd15	-3.5584157
64	0xbdfe7a81	-0.124257095
65	0xc08c0001	-4.3750005
66	0xc07d3dc7	-3.9568956
67	0xc08da66b	-4.4265647
68	0xbfef61f4	-1.8701768
69	0xc07a8001	-3.9140627
70	0xc0341f67	-2.8144166
71	0xc08e8b83	-4.4545302
72	0xc065d93e	-3.5913844
73	0xc044a975	-3.0728428
74	0xc08f6c85	-4.481997
75	0xc09cc68d	-4.899237
76	0xc0d16bf8	-6.54443
77	0xc10f61f0	-8.9614105
78	0xbeafe714	-0.34355986
79	0xc0ccb878	-6.397518
80	0xc05f2a20	-3.486946
81	0xc05328b0	-3.2993584
82	0xc04e526b	-3.2237804
83	0xc10d1c18	-8.819359
84	0xbf193554	-0.59847
85	0xc0fca048	-7.8945656
86	0xc0de9fb2	-6.956994
87	0xc0b6188a	-5.6904955
88	0xc0103b2c	-2.2536116
89	0xc0e32758	-7.0985527
90	0xc043eb78	-3.0612469
91	0xc0393a92	-2.8941998
92	0xc0870572	-4.2194147
93	0xbfef2a03	-1.8684696
94	0xc05dcc83	-3.4656074
95	0xc12c5528	-10.77079
96	0xc121049e	-10.063627
97	0xc076bbc2	-3.8552098
98	0xc0a488c0	-5.141693
99	0xc0caebed	-6.3412995
100	0xc258ad73	-54.169384
101	0xc0261165	-2.5948117
102	0xc0361440	-2.844986
103	0xbf86f023	-1.0542034
104	0xc09d4a53	-4.915323
105	0xc044bf8d	-3.0741913
106	0xc0c0f071	-6.0293508
107	0xc0b1ea67	-5.5598636
108	0xc0ade72e	-5.43447
109	0xc0604817	-3.5044
110	0xc0102dd4	-2.2527971
111	0xc0822ff3	-4.068353
112	0xc0bb1f25	-5.847552
113	0xbfeb84ae	-1.8399866
114	0xc0bda380	-5.9262085
115	0xc02bd4d0	-2.684864
116	0xc0ce393d	-6.444487
117	0xc07a2875	-3.9087193
118	0xc034fc93	-2.827916
119	0xc050034d	-3.2502015
120	0xc093574d	-4.604407
121	0xc02f6244	-2.7403727
122	0xc0373ae6	-2.8629699
123	0xc05ce32a	-3.451365
124	0xbebf2389	-0.373318
125	0xbfe4c3fb	-1.7872308
126	0xc0bfcf12	-5.994027
127	0xc014925a	-2.3214326
128	0xc056a83d	-3.3540184
129	0xc0a5755c	-5.170576
130	0xc0c4ddfa	-6.1520967
131	0xbfef7b36	-1.8709476
132	0xc20b6fa1	-34.859013
133	0xc09be77d	-4.872008
134	0xc02bb49f	-2.6828992
135	0xc0105b2e	-2.2555652
136	0xc0c070be	-6.0137625
137	0xc026ee19	-2.6082823
138	0xc0009573	-2.0091217
139	0xc0cfbce8	-6.49181
140	0xc05394fb	-3.305968
141	0xc25e6ba3	-55.605114
142	0xc0a1216a	-5.035329
143	0xc06dfda2	-3.7186055
144	0xbfd4eb38	-1.6634283
145	0xc0e49c5d	-7.1440873
146	0xc0a83994	-5.2570286
147	0xc0c0e034	-6.0273685
148	0xc0962e73	-4.69317
149	0xc058c44f	-3.3869817
150	0xc049a12a	-3.1504617
151	0xbef5a32c	-0.47976053
152	0xc09ca1bd	-4.8947434
153	0xc028a59d	-2.6351082
154	0xc00e27d2	-2.2211804
155	0xbee3a173	-0.44459113
156	0xc04af568	-3.1712284
157	0xc09effc8	-4.9687233
158	0xc09d64d6	-4.918559
159	0xc05dfeb9	-3.468672
160	0xc0e24af5	-7.07165
161	0xc0baa1fd	-5.832274
162	0xc0da2a7b	-6.8176856
163	0xc0dc9417	-6.8930774
164	0xc11abcaa	-9.671061
165	0xc111e87d	-9.11926
166	0xc077b328	-3.8703098
167	0xc02eb3e4	-2.7297297
168	0xc07aa32e	-3.9162097
169	0xc061ac90	-3.5261574
170	0xc0acca03	-5.3996596
171	0xc00f2c99	-2.237097
172	0xc0d285e6	-6.578845
173	0xc0b59aa6	-5.675128
174	0xbe58f70f	-0.21187995
175	0xc10f20ab	-8.945476
176	0xbf3e559d	-0.74349385
177	0xc0aa25f5	-5.3171334
178	0xc0f982a3	-7.797197
179	0xc05f3b73	-3.4880035
180	0xbfdb587b	-1.7136377
181	0xc09cb37a	-4.8969088
182	0xc07a4e90	-3.911045
183	0xc0dd2636	-6.9109144
184	0xc0513c8c	-3.2693205
185	0xc098fc47	-4.7807956
186	0xc060a570	-3.5100975
187	0xbecc0554	-0.39847815
188	0xbe43522c	-0.19074315
189	0xc0ce29a4	-6.442583
190	0xc02d0e67	-2.704004
191	0xc11c8e55	-9.784749
192	0xc0353e18	-2.831915
193	0xc0958704	-4.6727314
194	0xc02080e2	-2.5078664
195	0xc0380e8e	-2.8758883
196	0xbecc0022	-0.3984385
197	0xc0a6aa48	-5.2082863
198	0xc09a97fa	-4.831052
199	0xc060a1e6	-3.5098815
200	0xc0a97814	-5.295908
201	0xc09e963f	-4.9558406
202	0xc02ede95	-2.7323353
203	0xc11258a7	-9.146644
204	0xc0708f37	-3.7587411
205	0xc0c3fba4	-6.124468
206	0xc12375c0	-10.216248
207	0xbf055022	-0.520754
208	0xbf15e64a	-0.5855452
209	0xc1b04643	-22.034307
210	0xc064b2c5	-3.5734112
211	0xc0b4082b	-5.625997
212	0xc09f4ffb	-4.9785132
213	0xc0b49ec4	-5.6443806
214	0xbd7f1250	-0.062273324
215	0xbffeaa80	-1.9895782
216	0xbca81020	-0.020515501
217	0xc12f6202	-10.961428
218	0xc00f2b2a	-2.2370095
219	0xbf281e33	-0.6567108
220	0xc0a1d060	-5.0566864
221	0xc0ac4534	-5.3834476
222	0xc07ef3b2	-3.983624
223	0xbea38fd2	-0.31945664
224	0xc00a1d61	-2.1580431
225	0xc0137a30	-2.3043327
226	0xc0bed468	-5.9634285
227	0xc0836d96	-4.107127
228	0xc0d7b6ae	-6.74105
229	0xc0189024	-2.3837976
230	0xc0e7d023	-7.2441573
231	0xc0bdec34	-5.9350834
232	0xc121f066	-10.121191
233	0xc010b758	-2.2611904
234	0xc09cd77c	-4.9013042
235	0xc0ca1d91	-6.316109
236	0xc10b0fb3	-8.691333
237	0xbf64a91d	-0.89320546
238	0xc09b6deb	-4.8571677
239	0xc03ae31a	-2.9201112
240	0xc07960ae	-3.8965259
241	0xc0852d61	-4.1617894
242	0xc12992c0	-10.598328
243	0xc045cfe4	-3.0908136
244	0xbffc5d14	-1.9715905
245	0xc07918a7	-3.8921297
246	0xc001dcfe	-2.0291133
247	0xc04a192e	-3.1577868
248	0xc09c1452	-4.8774805
249	0xbf3aedbe	-0.73019016
250	0xc0d6a5a6	-6.7077208
251	0xc021a01c	-2.5253973
252	0xc0400d57	-3.0008142
253	0xc02c38e2	-2.6909719
254	0xc0300ba6	-2.750711
255	0xc0aebeda	-5.4607973

linear2.weight f4 [256, 256]
0	0x3d69ba0c	0.057062194
1	0xbf1b30fc	-0.6062162
2	0xbf1b94c6	-0.60773885
3	0xbd50af06	-0.050948165
4	0x3d48dfa2	0.049041398
5	0xbf2077e2	-0.62682927
6	0x3ccd624c	0.025071286
7	0xbcbe0040	-0.023193479
8	0xbd41a6ba	-0.047278143
9	0xbf0d3e54	-0.5517323
10	0xbc1e8360	-0.009674877
11	0xbf2341c1	-0.6377221
12	0xbd037d46	-0.032101892
13	0xbd5c2b7c	-0.053752407
14	0xbc3be1d0	-0.011467412
15	0x3cb64c94	0.022253312
16	0xbf0ed6ce	-0.55796516
17	0xbf152e2b	-0.5827357
18	0xbf0b415d	-0.5439661
19	0x3947c400	0.00019051135
20	0xbf0cd0da	-0.5500618
21	0xbf2088d0	-0.6270876
22	0xbf1532b1	-0.58280474
23	0xbf0d1b86	-0.5512012
24	0x3f7a95c7	0.9788479
25	0xbf2605f3	-0.6485283
26	0xbf209ca4	-0.62739015
27	0xbcec43d8	-0.028840944
28	0xbf1bf3f0	-0.60919094
29	0xbf0c8f32	-0.54906
30	0xbd179fbe	-0.037017576
31	0xbf1e29a1	-0.6178227
32	0xbf16d1d1	-0.58913904
33	0x3d47f164	0.048814192
34	0xbf0d3598	-0.551599
35	0xbc77a9a8	-0.015116133
36	0x3ca7aca8	0.020468071
37	0xbf2483a1	-0.6426335
38	0xbf211682	-0.6292497
39	0xbcdd088c	-0.026981615
40	0xbf2705c0	-0.6524315
41	0xbd54f586	-0.051991962
42	0x3c33ccd8	0.0109741315
43	0xbf13036d	-0.574271
44	0xbf13e515	-0.57771426
45	0xbcd31fb0	-0.025771946
46	0xbf0ad4c3	-0.542309
47	0xbf0a5366	-0.54033506
48	0xbd7d56e2	-0.061850436
49	0xbd355146	-0.04426696
50	0x3cbac4d0	0.022798926
51	0x3cf62dac	0.030051075
52	0xbf19bd08	-0.60054064
53	0xbc950574	-0.018191077
54	0xbf0cb347	-0.54961056
55	0xbd0fb1b2	-0.035081573
56	0xbf29ad81	-0.6628037
57	0x3c2c38d8	0.0105115995
58	0xbd7c3370	-0.061572492
59	0x3b2542c0	0.0025216788
60	0xbf0c8f06	-0.54905736
61	0xbf0c5d19	-0.54829556
62	0x3beed230	0.00728824
63	0xbd630660	-0.055426
64	0xbf2387bb	-0.63878983
65	0xbf1a5208	-0.6028142
66	0xbf1e9075	-0.61939174
67	0xbc511e20	-0.01276353
68	0xbf1b3e68	-0.606421
69	0xbf24cadf	-0.64372057
70	0xbf16e7fb	-0.58947724
71	0xbf13781e	-0.5760516
72	0xbf10ced1	-0.56565577
73	0xbf1f9613	-0.6233837
74	0xbf0f6037	-0.5600619
75	0x3d67cbf2	0.05659098
76	0xbf128da8	-0.572474
77	0x3cef2110	0.02919057
78	0x3d537254	0.051622704
79	0xbf0c5dfe	-0.5483092
80	0xbf1e1227	-0.6174645
81	0xbd10ac84	-0.035320774
82	0xbf25d8d7	-0.64783996
83	0x3c92f13c	0.017937295
84	0xbf0997e5	-0.537474
85	0xbf17784a	-0.5916792
86	0xbf185928	-0.5951104
87	0x3d7005a0	0.058599114
88	0xbf10d776	-0.5657877
89	0xbd350f8c	-0.04420428
90	0xbd5d3da8	-0.054013878
91	0x3d70583c	0.058677897
92	0xbd1e8648	-0.03870228
93	0xbf1aba13	-0.60440177
94	0x3cf5db7c	0.030011885
95	0x3cb01cb4	0.021498062
96	0x3cf37954	0.02972094
97	0xbd6084ba	-0.054814078
98	0xbf1b1254	-0.6057484
99	0xbf206a46	-0.6266216
100	0x3a2b3100	0.0006530434
101	0xbf21ee12	-0.6325389
102	0xbf197ba7	-0.59954304
103	0xbf1294a5	-0.57258064
104	0xbd5c03ae	-0.053714447
105	0x3d0e6e40	0.03477311
106	0xbf187d06	-0.5956577
107	0x3d044062	0.032287963
108	0xbf297b0a	-0.6620337
109	0x3d48d07c	0.04902695
110	0x3d7a1e72	0.06106419
111	0xbf16cf80	-0.5891037
112	0xbcfe9688	-0.031077638
113	0xbf0d7bd8	-0.55267096
114	0x3ce9875c	0.028506927
115	0x3d535fc0	0.051604986
116	0xbca4539c	-0.0200594
117	0xbf1d898d	-0.6153801
118	0xbf0bb2eb	-0.5456988
119	0xbf1c95af	-0.611659
120	0x3c931a68	0.017956927
121	0xbf1c6db2	-0.6110488
122	0xbd6d2c3c	-0.057903513
123	0xbf14adbf	-0.58077615
124	0xbf1d8ad9	-0.6153999
125	0x3d7099fc	0.0587406
126	0xbf1f61d7	-0.62258667
127	0x3be82f20	0.007085696
128	0xbf1b5d7d	-0.60689527
129	0x3d3417de	0.043968074
130	0xbc9efc9c	-0.019407563
131	0xbd6162f4	-0.05502601
132	0xbf14ca71	-0.581214
133	0xbf25b3d8	-0.64727545
134	0x3cf58ec8	0.02997531
135	0xbc774530	-0.015092179
136	0x3d3fed5e	0.04685723
137	0x3d577e9e	0.052610986
138	0xbf0a5d00	-0.54048157
139	0xbf0c273a	-0.54747355
140	0xbf0d2e6e	-0.5514897
141	0xbd33fd74	-0.043942884
142	0xbd52beac	-0.05145137
143	0xbf28214b	-0.656758
144	0x3d1ae882	0.037819393
145	0xbf0810ff	-0.53150934
146	0x3d726ff2	0.05918879
147	0xbf210e3c	-0.62912345
148	0xbf1eaffd	-0.61987287
149	0x3d43c9ba	0.047799803
150	0xbd482f6a	-0.048873343
151	0xbcf450b4	-0.029823638
152	0xbf21a3ee	-0.6314076
153	0x3c45e0e0	0.01207754
154	0xbcf3fbd4	-0.029783167
155	0xbf1e2c64	-0.61786485
156	0xbf14d32d	-0.5813473
157	0xbd6aca40	-0.057321787
158	0x3d314160	0.043275237
159	0xbf1b6656	-0.6070303
160	0xbf160dc5	-0.5861476
161	0xbf153962	-0.58290684
162	0xbd7d9a78	-0.06191489
163	0xbf212e9b	-0.6296174
164	0xbf0bdfd0	-0.54638386
165	0xbcf1620c	-0.029465698
166	0xbf12a297	-0.5727934
167	0x3d232648	0.03983143
168	0xbf245845	-0.6419719
169	0xbcffe0f0	-0.031235188
170	0xbf15fb76	-0.58586824
171	0xbcb157bc	-0.02164828
172	0xbf26cc74	-0.6515572
173	0x3d0ca658	0.034338325
174	0xbf0a0047	-0.53906673
175	0xc0477304	-3.116395
176	0xbf1d6935	-0.6148866
177	0x3d729cb4	0.059231475
178	0xbd3f2e7a	-0.046675183
179	0xbc608cd8	-0.013705455
180	0xbf1442df	-0.5791454
181	0x3b0f5080	0.002186805
182	0xbf2213ec	-0.6331165
183	0xbf251933	-0.64491576
184	0xbd6a1778	-0.057151288
185	0x3d4d6e7c	0.050154194
186	0xbf1a5ba6	-0.60296094
187	0x3c816238	0.015793905
188	0x3d01f676	0.031729184
189	0xbf23f29d	-0.64042073
190	0xbf1f79e1	-0.6229535
191	0xbcf82ea0	-0.03029567
192	0xbd41a998	-0.047280878
193	0x3cfc8580	0.030825377
194	0x3d05603e	0.032562487
195	0xbf1f8528	-0.62312555
196	0xbce4f8b8	-0.02795063
197	0xbf0ea4c1	-0.55720145
198	0x3d0f3dac	0.034970924
199	0xbf0d1a8b	-0.55118626
200	0xbf1aa317	-0.60405105
201	0xbca9fafc	-0.020749561
202	0xbd7feb4e	-0.062480263
203	0xbd55ecce	-0.052227788
204	0xbf1a72c8	-0.6033139
205	0xbf0a182f	-0.5394315
206	0xbb223500	-0.0024750829
207	0xbf2244db	-0.63386315
208	0xbf14096a	-0.57826865
209	0xbf24e3a8	-0.64409876
210	0xbd77786a	-0.06041757
211	0x3ce23b14	0.027616061
212	0xbf26ec74	-0.6520455
213	0xbc2f34b8	-0.0106937215
214	0x3b8c48b0	0.004281126
215	0x3cf7d3a8	0.030252293
216	0x3d718ace	0.058970265
217	0x3b257280	0.002524525
218	0xbf1d9065	-0.61548454
219	0xbf1e1aa1	-0.6175938
220	0xbd438dbc	-0.04774259
221	0xbcef04cc	-0.029177092
222	0xbf2683d4	-0.65044904
223	0xbd4e398a	-0.050347842
224	0x3d3d1d18	0.046170324
225	0x3c5fc970	0.013658866
226	0xbf153532	-0.58284295
227	0xbf1d0253	-0.6133167
228	0xbd3f5524	-0.046712056
229	0x3cb4f86c	0.022091113
230	0xbf22d68a	-0.6360861
231	0xbf12a354	-0.5728047
232	0xbf18ad4d	-0.59639436
233	0xbc083538	-0.00831347
234	0x3af83340	0.0018936172
235	0x3d6b57ce	0.057456784
236	0xbcea4100	-0.028595448
237	0xbf2636a7	-0.6492714
238	0x3d372268	0.044710547
239	0xbf102100	-0.56300354
240	0xbf160a94	-0.5860989
241	0xbf218cb1	-0.63105303
242	0xbf1687e1	-0.58801085
243	0x3c4a2678	0.012338273
244	0xbf1f572b	-0.6224238
245	0xbc83ddec	-0.016097032
246	0x3d6eb250	0.05827552
247	0xbf17f878	-0.5936351
248	0xbd0c27d0	-0.034217656
249	0xbf24e4e0	-0.64411736
250	0xbd01beea	-0.03167621
251	0xbf0b3a67	-0.5438599
252	0xbd27a1a0	-0.040925622
253	0xbf1f83d1	-0.6231051
254	0xbf1f808d	-0.6230553
255	0x3a96f180	0.0011516064

linear2.bias f4 [256]
0	0xc02c1019	-2.6884825
1	0xc13c1b0d	-11.756604
2	0xc0eab700	-7.334839
3	0xc07086d7	-3.75823
4	0xc1b272a9	-22.305986
5	0xc1ece94d	-29.613916
6	0xc167f7ed	-14.498029
7	0xc0bbb99d	-5.866408
8	0xc127fd59	-10.499352
9	0xc0a76bfd	-5.231932
10	0xc19691bb	-18.821157
11	0xc16bd957	-14.7405615
12	0xc05c20af	-3.4394948
13	0xc0de9d02	-6.956666
14	0xc16f4723	-14.954867
15	0xc12c5eb7	-10.773124
16	0xc0eb2f7a	-7.3495455
17	0xc1a3d84a	-20.48061
18	0xc18e61b8	-17.797714
19	0xc1bcab67	-23.583693
20	0xc10e1ad2	-8.881548
21	0xc17b160a	-15.692881
22	0xc11cde7d	-9.804318
23	0xc104f78e	-8.310438
24	0xc0d06a36	-6.512965
25	0xc1b1d1ee	-22.227505
26	0xc0f8e294	-7.7776585
27	0xc1918fe5	-18.195261
28	0xc11ac7c0	-9.673767
29	0xc17aa975	-15.666371
30	0xc14d2c15	-12.823262
31	0xc0be2529	-5.942036
32	0xc035e575	-2.84213
33	0xc111b7f0	-9.107407
34	0xc114d59a	-9.302149
35	0xc0dc948d	-6.8931336
36	0xc1587ab4	-13.529957
37	0xc181a06f	-16.203337
38	0xc0cf0932	-6.4698725
39	0xc1807383	-16.056402
40	0xc116dacf	-9.42842
41	0xc1006cbb	-8.026546
42	0xc19cfe94	-19.624306
43	0xc13c738d	-11.778211
44	0xc1a8a497	-21.080366
45	0xc121b206	-10.105963
46	0xc0c77e60	-6.2341766
47	0xc10b9d6f	-8.725936
48	0xc1788f61	-15.535005
49	0xc1614c3b	-14.081111
50	0xc117ba9e	-9.483061
51	0xc179d8d6	-15.615438
52	0xc0ee2036	-7.441432
53	0xc052aa64	-3.2916498
54	0xc1a21078	-20.258041
55	0xc11c0f4b	-9.753734
56	0xc10b8faa	-8.722574
57	0xbfe096fa	-1.7546074
58	0xc063abc5	-3.557359
59	0xc11e28eb	-9.88499
60	0xc1352537	-11.321586
61	0xc100e472	-8.055773
62	0xc14916ee	-12.568098
63	0xc0e53d03	-7.1636977
64	0xc221f965	-40.49355
65	0xc125e5a3	-10.368564
66	0xc1297c28	-10.592812
67	0xc11ffcc7	-9.999213
68	0xc0b2773b	-5.5770545
69	0xc1226450	-10.14949
70	0xc17deb4f	-15.869948
71	0xc1443fc7	-12.265571
72	0xc09aac6c	-4.8335476
73	0xc0a544f4	-5.164667
74	0xc17d541b	-15.833034
75	0xc1023380	-8.137573
76	0xc1ce756e	-25.807339
77	0xc120c336	-10.047659
78	0xc1b25ad6	-22.294353
79	0xc0c5d42c	-6.18215
80	0xc1d3214d	-26.39126
81	0xc0f97515	-7.7955422
82	0xc1334d36	-11.20635
83	0xc103aff9	-8.230462
84	0xc1ca76bc	-25.307976
85	0xc0deeb42	-6.966218
86	0xc135918b	-11.348033
87	0xc0c0faf2	-6.030633
88	0xc12e5468	-10.895607
89	0xc0f685bd	-7.7038255
90	0xc10c86ed	-8.782941
91	0xc07bbd46	-3.9334273
92	0xc184e7e8	-16.613235
93	0xc101f04b	-8.121165
94	0xc0bcc59d	-5.8991227
95	0xc18b647a	-17.42406
96	0xc11a93d8	-9.661095
97	0xc0b8615b	-5.761884
98	0xc116a8b7	-9.41619
99	0xc1d93746	-27.151989
100	0xc1003084	-8.011845
101	0xc0d82d2a	-6.755513
102	0xc188af73	-17.085669
103	0xc1062966	-8.385107
104	0xc1226c60	-10.151459
105	0xc11e078e	-9.876844
106	0xc1266690	-10.40004
107	0xbed236bf	-0.41057393
108	0xc1002d76	-8.011099
109	0xc1be4514	-23.78373
110	0xc1a141d9	-20.157152
111	0xc14ee767	-12.931495
112	0xbe2074d2	-0.15669563
113	0xc1bf84ba	-23.939808
114	0xc15f9ba4	-13.975498
115	0xc18a2fe7	-17.27339
116	0xc08f2099	-4.472729
117	0x41fd4f0e	31.6636
118	0xc096b9e7	-4.710193
119	0xc1749589	-15.286508
120	0xc102cc1a	-8.1748295
121	0xc0c78c17	-6.235851
122	0xc1c4665e	-24.549984
123	0xc0cf9a3f	-6.487579
124	0xc07e2589	-3.971041
125	0xc194669f	-18.550108
126	0xc1aac4ab	-21.34603
127	0xc14092b8	-12.03582
128	0xc354b1a2	-212.69388
129	0xc0ae5af2	-5.4486017
130	0xc06de96c	-3.717372
131	0xbf20ef25	-0.62864906
132	0xc1188690	-9.532852
133	0xc1800ad6	-16.005291
134	0xc19fced5	-19.975992
135	0xc071b846	-3.7768722
136	0xc11d6f3c	-9.839657
137	0xc0af22a8	-5.4729805
138	0xc007b6ae	-2.120525
139	0xc0ad24f5	-5.4107614
140	0xc1840180	-16.500732
141	0xc1c7658d	-24.924585
142	0xc07176de	-3.77288
143	0xc0dd1304	-6.9085712
144	0xc1badbe6	-23.357372
145	0xc0df0455	-6.969279
146	0xc15d14dc	-13.817593
147	0xc150ada5	-13.042394
148	0xc1acbf40	-21.593384
149	0xc1867b70	-16.810272
150	0xc0f9462d	-7.7898164
151	0xc0a412e0	-5.127304
152	0xc0b1f58a	-5.561223
153	0xc293931d	-73.78733
154	0xc09c1cad	-4.8785005
155	0xc102b793	-8.169818
156	0xc193a5b3	-18.455908
157	0xc199248d	-19.142847
158	0xc15e98d1	-13.912309
159	0xc1d88e03	-27.069342
160	0xc1bd8cca	-23.693745
161	0xc101914b	-8.097972
162	0xc13f5762	-11.958834
163	0xc0a6f754	-5.2176914
164	0xc0d42b50	-6.630287
165	0xc1115453	-9.083087
166	0xbfcc65a6	-1.5968521
167	0xc0d34842	-6.6025705
168	0xbe88e63f	-0.26738164
169	0xc14b6e23	-12.714389
170	0xbfbd7044	-1.4799886
171	0xc153a9f7	-13.228995
172	0xc130ccd6	-11.050009
173	0xc1ad560c	-21.667015
174	0x449d0dfb	1256.4369
175	0x41f00ee7	30.007277
176	0xc1909406	-18.072277
177	0xc0ec741a	-7.3891726
178	0xc11da270	-9.852158
179	0xc0bcb880	-5.897522
180	0xc191beb4	-18.218117
181	0xc1b1e130	-22.234955
182	0xc1045ac9	-8.272164
183	0xc1b0a622	-22.08112
184	0xc126822f	-10.406783
185	0xc1aec192	-21.844517
186	0xc10e26ed	-8.884503
187	0xc11acbd8	-9.674767
188	0xc0888926	-4.2667418
189	0xc18a5467	-17.291212
190	0xc11d4add	-9.830777
191	0xc1943dd1	-18.530184
192	0xc10b3ce2	-8.702364
193	0xc1804929	-16.035723
194	0xc052f91e	-3.296455
195	0xc0e68715	-7.2039895
196	0xc096cb78	-4.7123375
197	0xc0dcbeca	-6.8982897
198	0xc0cef66b	-6.4675803
199	0xc11b8cd3	-9.721881
200	0xc13d411e	-11.828398
201	0xc13f1c8b	-11.9444685
202	0xc0e4a312	-7.144906
203	0xc10af14c	-8.68391
204	0xc1c68fa1	-24.820131
205	0xc39df816	-315.93817
206	0xc1048949	-8.283517
207	0xc173f1db	-15.246547
208	0xc130e2ad	-11.055341
209	0xc1a9f03b	-21.2423
210	0xc1b3d1c6	-22.477428
211	0xc149a2c8	-12.6022415
212	0xc196d8e9	-18.855913
213	0xc02356e7	-2.552179
214	0xc11d7b9e	-9.84268
215	0xc150cd77	-13.050162
216	0xc181e552	-16.236973
217	0xc0a1c31a	-5.055066
218	0xc115b831	-9.357469
219	0xc1cc2487	-25.517836
220	0xc1d1d8c1	-26.230837
221	0xc1035e14	-8.210468
222	0xc0d0c6d4	-6.524271
223	0xc0d8c4d4	-6.774027
224	0xc0cf9f8d	-6.4882264
225	0xc0e639d7	-7.1945605
226	0xc0cb7c03	-6.358888
227	0xc1010a54	-8.0650215
228	0xc0a7b7a3	-5.2411666
229	0xc1a7e7ce	-20.988186
230	0xc0698b5e	-3.6491313
231	0xc0fe0cb4	-7.9390507
232	0xc117805a	-9.468836
233	0xc15af521	-13.684846
234	0xc0f68180	-7.703308
235	0xc1562a43	-13.385318
236	0xc0aef7d4	-5.4677525
237	0xbf92da6f	-1.1472911
238	0xc184f654	-16.620277
239	0xc14ef65c	-12.935146
240	0xc175faa8	-15.373695
241	0xc16335a9	-14.200601
242	0xc072e264	-3.7950678
243	0xc1abc221	-21.46979
244	0xc033ea8b	-2.8111904
245	0xc0ede671	-7.43438
246	0xc10b2589	-8.696664
247	0xc11f7ab1	-9.967454
248	0xc0be4d5f	-5.9469447
249	0xc1aad736	-21.355083
250	0xc11fe418	-9.993187
251	0xc18c3142	-17.524052
252	0xc0ad88fc	-5.4229717
253	0xc0e06292	-7.0120325
254	0xc1abb039	-21.461046
255	0xc1c49869	-24.574419

linear3.weight f4 [4, 256]
0	0x402dfe27	2.7186372
1	0x404db9fb	3.2144763
2	0xc0010ab7	-2.016279
3	0xc0282ef3	-2.6278656
4	0xc0dffb84	-6.9994526
5	0x40da1d13	6.816049
6	0x4060ec0f	3.5144079
7	0x3f464c0e	0.774598
8	0x4038de92	2.8885846
9	0xbf72eca4	-0.94892335
10	0xbf9e2451	-1.2354833
11	0x3fbca3a1	1.4737436
12	0x3faaf492	1.3355887
13	0xc0264545	-2.5979779
14	0xc02135fa	-2.5189195
15	0xc014c79d	-2.3246834
16	0x3fa551f9	1.2915641
17	0xc06dfbcd	-3.7184937
18	0x4091e262	4.5588846
19	0x4031ce82	2.7782292
20	0xbf9b59bb	-1.2136759
21	0x3f909773	1.1296219
22	0x3ee67238	0.45009017
23	0xbfdfeb6e	-1.7493722
24	0x3e872fc3	0.26403627
25	0xc1078097	-8.468894
26	0xc07c745d	-3.9446023
27	0xbfa622db	-1.2979387
28	0x4001f42b	2.0305278
29	0x3e12f317	0.14350544
30	0xc0039545	-2.0559857
31	0x3ef4f18e	0.47840542
32	0xc0312ed5	-2.7684834
33	0xc08e1dfe	-4.441161
34	0xc023d4f3	-2.5598724
35	0x3f260adc	0.6486032
36	0x40443708	3.0658588
37	0x409e49bc	4.946501
38	0xbfc518cd	-1.5398194
39	0xc0680a66	-3.6256347
40	0xbf10903d	-0.5647009
41	0x4097c16f	4.7423625
42	0xc01d4ade	-2.4576945
43	0x406c38c7	3.6909654
44	0xc07659cb	-3.8492305
45	0x400849cc	2.1295042
46	0xbdf9702b	-0.121795975
47	0xc000d2b9	-2.0128615
48	0xbff509f5	-1.9143664
49	0xbfcd5494	-1.6041436
50	0x40bb5df8	5.855221
51	0xc0066bba	-2.100325
52	0x3fcee594	1.6163812
53	0xc1122024	-9.132847
54	0x3cdf55b5	0.027262548
55	0xbfe72c70	-1.8060436
56	0xc09c2598	-4.879589
57	0x40cce8ab	6.403402
58	0x3e3ba24e	0.18323633
59	0x402c8ff7	2.696287
60	0x404488ae	3.0708423
61	0xbcacba2c	-0.021084867
62	0xbfa4082d	-1.2814995
63	0xbf99f3ca	-1.2027524
64	0x41a4a62b	20.581137
65	0x40c6c280	6.2112427
66	0xbfd2bd2c	-1.6463981
67	0xc0d24a95	-6.5716043
68	0x40c8bd82	6.2731333
69	0xc03a229c	-2.9083624
70	0x3f52c74d	0.8233536
71	0x406dd2d2	3.7159925
72	0xbfcd6971	-1.6047803
73	0x3f8254c8	1.0182123
74	0xc032f264	-2.7960443
75	0x3f9090e6	1.129422
76	0xbfd413ab	-1.6568502
77	0x3f2ea426	0.6821922
78	0xc073c78c	-3.8090544
79	0x3ec5eb23	0.38655958
80	0xc0638b06	-3.5553603
81	0xbf7765d4	-0.9663975
82	0x402b77c9	2.679186
83	0xc0150815	-2.3286183
84	0x3fbf5857	1.4948834
85	0x411134d6	9.075399
86	0x3f892eb7	1.0717381
87	0x407199b5	3.7750065
88	0x40b4b2e9	5.6468396
89	0xc0576edc	-3.3661413
90	0x4019fc8a	2.4060388
91	0xc14dfdb8	-12.874443
92	0xbe973c0c	-0.29538
93	0xbfda197e	-1.703903
94	0x3f0417d7	0.51598877
95	0x4096e68f	4.7156444
96	0x3f12fca9	0.5741678
97	0x3f8a5deb	1.0809911
98	0xc0ac86a7	-5.391437
99	0x40c932c4	6.287447
100	0x40b377fa	5.6083956
101	0xc0d327e4	-6.5986195
102	0x3f8f0af8	1.1175222
103	0x3f9b38aa	1.2126667
104	0x3f1f09a0	0.6212406
105	0x3f6abd06	0.91694677
106	0x40223e81	2.535065
107	0x40340c6a	2.8132577
108	0xc0e7ddad	-7.24581
109	0xc0029bb2	-2.040753
110	0xbf83fe7f	-1.0312041
111	0xc02d059d	-2.7034676
112	0x41e37c4e	28.435696
113	0x400747a8	2.1137486
114	0xbfd4fcce	-1.663965
115	0xc087a0e5	-4.2383904
116	0xc02c4c38	-2.692152
117	0xc1743d24	-15.264927
118	0x40045f6f	2.0683248
119	0xbe33fa35	-0.17575915
120	0xc1134803	-9.205081
121	0xbfd53538	-1.6656866
122	0x4123f0ce	10.24629
123	0x3fd397b5	1.6530672
124	0xc0297ee3	-2.6483696
125	0xbf694068	-0.911139
126	0x40a94f34	5.2909184
127	0x40228f1f	2.5399854
128	0x423b65cd	46.849415
129	0x3fd12296	1.633868
130	0x40329dc8	2.7908802
131	0xbf80eae6	-1.0071685
132	0x402041c4	2.504014
133	0xc094a262	-4.644822
134	0xc1058537	-8.345023
135	0xc027f2a3	-2.6241844
136	0x3effe90c	0.49982488
137	0x3fd6ec7d	1.679092
138	0xc0729315	-3.7902272
139	0x404aaf84	3.1669626
140	0xc0c881f7	-6.265865
141	0x3feeafbe	1.8647382
142	0xc0249847	-2.5717943
143	0x404771cf	3.1163213
144	0x3e047c4d	0.12938042
145	0x40dc7f4a	6.890538
146	0xc027c5cb	-2.6214473
147	0xc01e61f9	-2.4747298
148	0xc09a58ef	-4.823356
149	0x408c4cff	4.384399
150	0x3ef84c62	0.48495775
151	0xc07dd8c7	-3.966356
152	0x40257984	2.5855417
153	0xc0707a0e	-3.7574496
154	0x40149f61	2.3222277
155	0xbfa36312	-1.2764609
156	0xc1093cb5	-8.577321
157	0xbf84eaeb	-1.0384191
158	0xbf981820	-1.1882362
159	0x4029bf2f	2.652294
160	0x3f3cfec7	0.7382626
161	0x4101853f	8.095031
162	0x3fcaba9e	1.5838201
163	0x3f4ee4e5	0.80818015
164	0x409d5144	4.91617
165	0x3fb09f54	1.3798623
166	0xbfdfb3b5	-1.7476717
167	0x3f3bfc25	0.7343162
168	0xc0f8440e	-7.7583075
169	0xc078becd	-3.8866456
170	0x40aeeffa	5.466794
171	0x3f82bd1f	1.0213965
172	0xc0071945	-2.1109173
173	0x3efbf94e	0.49213642
174	0xc285385b	-66.61007
175	0x42497006	50.359398
176	0xc0c4b238	-6.146755
177	0x409c3e9e	4.8826437
178	0xbf067046	-0.52515066
179	0xbf14827f	-0.5801162
180	0xc0648f66	-3.5712523
181	0x3efe20ed	0.49634495
182	0x4025fa8d	2.5934174
183	0x407f6406	3.99048
184	0x402cefd5	2.7021382
185	0xc0371e69	-2.861231
186	0x3f9cf155	1.2261149
187	0x4038d6f7	2.8881204
188	0x402e701e	2.725593
189	0x40d5a233	6.6760497
190	0x401dcd4e	2.4656558
191	0xc04d1c6e	-3.2048602
192	0x3fde064c	1.7345672
193	0x409b465f	4.85234
194	0x40aae667	5.3406253
195	0x3f13b1eb	0.57693356
196	0x40b43707	5.631717
197	0x40dd467e	6.914855
198	0xc08f1188	-4.47089
199	0x403a0640	2.9066315
200	0x402dc4f2	2.7151456
201	0xbfe67e68	-1.8007326
202	0xbd824a5e	-0.06361841
203	0x3f04565f	0.5169429
204	0x40807e42	4.0154123
205	0x4283c93e	65.89305
206	0xbf68b1ce	-0.9089631
207	0x40b90da7	5.7829165
208	0x4086af0f	4.2088695
209	0xc05f2ac0	-3.4869843
210	0xc0506145	-3.2559369
211	0xc0f50db3	-7.6579223
212	0xbf7be1b5	-0.98391277
213	0xbfce9b7e	-1.6141202
214	0x40b7c27c	5.742491
215	0x40532d7b	3.299651
216	0x40ae8d98	5.4547844
217	0x3eca6130	0.39527273
218	0xbed68ea2	-0.41905695
219	0x40021939	2.0327895
220	0x40fc811b	7.89076
221	0x408f16e9	4.4715466
222	0xbf171df8	-0.59030104
223	0x3f44c74f	0.7686662
224	0x41b14f95	22.163858
225	0xbfdafe40	-1.7108841
226	0xbf21ed4b	-0.63252705
227	0xbfd5659b	-1.6671633
228	0xc0496278	-3.146635
229	0xc087aa52	-4.239541
230	0x3f027890	0.50965214
231	0x400ca790	2.1977272
232	0x3f0f5d0d	0.5600136
233	0x3dc76f9e	0.09738086
234	0x3e26165b	0.16219465
235	0xbe3b018f	-0.18262313
236	0x3fcf1751	1.6178991
237	0x401a4af6	2.4108253
238	0xbf9c761c	-1.2223544
239	0x3fa63245	1.2984091
240	0x3fb0ff04	1.3827825
241	0xbf3629d5	-0.7115758
242	0x3f1d77c8	0.61510897
243	0x406fd455	3.7473347
244	0x40974fac	4.7284756
245	0x3fb0cf4c	1.3813262
246	0x3fd8a1a3	1.6924328
247	0x3e05acca	0.13054195
248	0x403f3fef	2.9882772
249	0xc08854e7	-4.260364
250	0xbfa26efd	-1.2690121
251	0xbfd03e51	-1.6269017
252	0x3fcef080	1.6167145
253	0x402ea712	2.7289472
254	0xc05f97b1	-3.4936335
255	0xbff8ee8c	-1.9447799

linear3.bias f4 [4]
0	0xc2d79484	-107.79007
1	0xc2a95de0	-84.68335
2	0xc2a97a8d	-84.73936
3	0xc2c15f56	-96.6862
