models/model_city1_3.bin (torch_old, 290890 bytes, 6 tensors)

linear1.weight f4 [256, 21]
00000000: 114b 113e f407 a6bd fa6d d43d ee27 f73d
00000010: 2782 233e da79 20be eecb 24be c53d 5e3e
00000020: 1284 12be 1345 1e3e ec4c 03be 0697 9e3d
00000030: 3b47 febd 690f 22be 5209 03be 63f1 c9bd
00000040: 24d1 18be 4fcf 313e bebf 8cbd cae7 b2bd
00000050: 8968 35bf 1016 fe3c 4898 a1bc 0654 a3bd
00000060: 3806 e43c 2f6c 263e d88c 39be eea5 36be
00000070: 80f3 b53b 7ae3 b83d aa71 0bbe 5a1f febd
00000080: e840 02be ce24 33be 023d f8bd 1a7d 04be
00000090: 827e 4cbe b017 eb3c 5551 553e 8bea 063e
000000a0: 7ddd 13be 343b 07bd 0adc 17be 153f bebe
000000b0: 5f69 edbe 45c1 173e 3856 7cbd fc68 1e3d
000000c0: c0a1 5abd 291e 463e 9368 83be f565 7ebe
000000d0: 2800 b93c aa4e b7bd fc67 0fbe a229 b63d
000000e0: 1f86 58be b041 4dbc b7db ecbd c0ba fd3c
000000f0: e9b8 c2be 1c82 75bd 4d21 49bf 311d 01be
00000100: 56f1 16bf 4cac 1bbf 1696 843d 17ce 363e
00000110: 809f 0fbb 40ce 823b e606 9ebd 867f 0dbf
00000120: d7ba 0fbf d7a9 3ebe fc84 273d 1812 78bd
00000130: 364d 5fbe ed78 47bf eb2d 023e 7710 443e
00000140: 80b7 a83c f8a6 18bf 40c8 833b a309 31bf
00000150: 90d2 c1bd 8029 f13a 95c7 32bf b166 22bf
00000160: 3409 0d3d 7454 203d e4af 45bf 4089 bbbe
00000170: 8bb4 f5be 7e2e a93d 44f7 7fbd 14b8 bcbe
00000180: 2cd8 bebe a750 d9be b550 3abf 59f6 2a3e
00000190: 1b3d 17bf 8799 f5be 2d07 35bf f224 a03d
000001a0: 9274 f5be 902d f53c 8286 2ebf b09d aebe
000001b0: 541f e2be 1694 49be 9d6d d6bd 9ed0 29bf
000001c0: 57a2 debd 259a 1abf 5040 203c cb9a 293e
000001d0: f742 333e 0ff9 acbe 2e23 14be b44b 28bf
000001e0: 727e e03d ce49 0dbe 07ea 3fbf af94 a8be
000001f0: 2f1e efbd 7350 ebbe 3811 bbbc fe94 a0be
00000200: 6c8c c6be 4529 223e 0c71 0d3d 6f77 cdbd
00000210: 705b 98bd 0763 dbbd 09c9 09bf c653 23bf
00000220: 877f 483e 5fcc 1cbe d0a7 db3c 46dd b63d
00000230: 452e 03bf 6416 02bd fd9c 2f3e f69e 55be
00000240: d653 b4be 714d 333e f410 2fbf b421 0ac0
00000250: fce2 9dbf 0be4 f7bf 14bb e2bf f294 7a40
00000260: 491a ba3f 851e 0ac0 e7a2 8940 6504 84be
00000270: 0a40 313f 9377 cbbf 2a10 baba 58a6 593e
00000280: f000 07c0 48a6 a6bf 1c3b 95bf 967d 1d3f
00000290: 60cd 3a3f 0630 0b40 3023 95bf 5446 8bc0
000002a0: 21c9 12be 74a1 04bd 8165 05bf ad9b 16bf
000002b0: 2f23 57be 2ec7 df3d 2f7d 01bf c054 26bf
000002c0: 8cf0 20bf f900 3ebe f877 22bd 50e4 febe
000002d0: 0b6d 05bf 32e3 1cbf 8539 dcbe 02cd ad3d
000002e0: 636a bdbe 0e71 2cbf 74f2 34bf 8ede 973d
000002f0: 8d95 eebe 3251 72be 17f3 edbf bce2 a8bf
00000300: cf6f c5bf 0703 19bf 00fe 8cbf e24e 1fbf
00000310: 37f6 f53d 8b39 02bf 2ab9 65bf 0af6 ffbf
00000320: 413e 67bf 4bfa 8fbf e5ca d7bf 7f46 86bf
00000330: 096a 3ebf 6e7a 49bf 3c15 a4bf 0db5 94bf
00000340: 3e70 08c0 ae11 d8bf 5f29 323e 74a9 4cbe
00000350: e24d eebe 2cf6 fabe dd9e 3f3e 56b4 9abd
00000360: 6c0e 30bf 0845 16bf 4717 fcbe d5fc 42be
00000370: 7229 883d 64d2 19bf 2ae0 e3be ec79 e4be
00000380: 6659 11bf 1fa4 14be 1240 1ebf 0ab8 26bf
00000390: 0c6c 0fbf 5892 92bc b206 e0be e089 1bbc
000003a0: 5bdc 9ebe 81c3 11bf 67e2 2f3e 6a23 a8bd
000003b0: 8019 54be 66f7 df3d 8aa2 ae3d 8590 1fbf
000003c0: 866f afbe 6609 b7bd b2cb a53d 8801 3ebe
000003d0: 2445 2d3d 5c3a a2be 5cef 62bd b1f6 0fbe
000003e0: a427 073d 0625 37bf d578 48be 7bd6 55be
000003f0: 850a fabe 103b dfbe 5955 56bf 9c51 38be
0.14188792 -0.08106986 0.10372539 0.12068163 0.15967618 -0.15671483 -0.16093418 0.2170325
-0.14308193 0.15456037 -0.12822312 0.07743649 -0.1241593 -0.15826191 -0.12796524 -0.09860494
-0.14923531 0.17364238 -0.068725094 -0.087356165 -0.70862633 0.03101638 -0.019725934 -0.079750106
0.027834997 0.16252206 -0.18120134 -0.17836735 0.005552709 0.09027763 -0.13617578 -0.124083236
-0.12720072 -0.17494509 -0.12121011 -0.12938347 -0.19970134 0.028697819 0.20831807 0.13175409
-0.1443996 -0.033015445 -0.14830032 -0.37157503 -0.46369454 0.1481982 -0.061605662 0.03867434
-0.053376913 0.19347443 -0.2566572 -0.24843581 0.022583082 -0.08950551 -0.1400451 0.088946596
-0.21144913 -0.012527868 -0.11565345 0.030972838 -0.380317 -0.059938535 -0.7856644 -0.12608792
-0.58962 -0.6080978 0.06473939 0.17852055 -0.0021915138 0.003991872 -0.077161595 -0.5527271
-0.5614447 -0.18619476 0.04089831 -0.06056413 -0.21806797 -0.77918893 0.12712829 0.19146906
0.020595312 -0.59629774 0.0040216744 -0.6915533 -0.0946399 0.0018399209 -0.6983579 -0.63437945
0.034432605 0.03914304 -0.7722151 -0.3662815 -0.47989306 0.08260821 -0.06249167 -0.3685919
-0.372743 -0.42444345 -0.727794 0.16695537 -0.59077615 -0.47968695 -0.70714074 0.07819547
-0.479405 0.029928952 -0.6817399 -0.3410468 -0.44164526 -0.19685397 -0.10470126 -0.6633395
-0.108708076 -0.60391456 0.009780958 0.16562955 0.17506014 -0.33783767 -0.14466545 -0.65740514
0.109616175 -0.13797686 -0.7496647 -0.32925937 -0.11675679 -0.45959815 -0.022835359 -0.31363672
-0.38779008 0.15836056 0.034531638 -0.10032546 -0.07439315 -0.10712247 -0.5382238 -0.63799703
0.19579898 -0.15312336 0.026813418 0.08928923 -0.51242477 -0.031759635 0.1714973 -0.2086142
-0.35220212 0.1751001 -0.68385243 -2.158307 -1.2334895 -1.9366468 -1.7713342 3.915341
1.4539272 -2.1581128 4.3011355 -0.25784603 0.6923834 -1.5895866 -0.0014195491 0.21254861
-2.1094322 -1.3019495 -1.1658664 0.61519754 0.7296963 2.174806 -1.1651363 -4.352335
-0.14334537 -0.032380536 -0.5210801 -0.5883129 -0.21009515 0.109266624 -0.5058164 -0.6497307
-0.62867045 -0.18555059 -0.039665192 -0.49783564 -0.5211951 -0.6128417 -0.43012634 0.08486368
-0.3699523 -0.6736001 -0.70682454 0.07415496 -0.46598473 -0.23663786 -1.858981 -1.3194194
-1.5424746 -0.59770244 -1.1015015 -0.6222974 0.120098524 -0.50869054 -0.8973566 -1.999696
-0.90329367 -1.1248258 -1.6858793 -1.0490264 -0.74380547 -0.7870244 -1.281898 -1.1617752
-2.1318507 -1.6880395 0.17398594 -0.19986516 -0.46543795 -0.4901594 0.18712945 -0.075539276
-0.68772006 -0.58699083 -0.4923651 -0.1904176 0.0664853 -0.60086656 -0.4450696 -0.4462427
-0.56777036 -0.14515732 -0.61816514 -0.6512457 -0.5602424 -0.017892048 -0.43755108 -0.009493321
-0.31027493 -0.5693894 0.1717621 -0.0820988 -0.20712852 0.109358594 0.085270956 -0.62329894
-0.34264773 -0.089373395 0.080954924 -0.18555272 0.042302266 -0.3168515 -0.055404052 -0.14058949
0.03299679 -0.7154087 -0.19577344 -0.20882599 -0.4883615 -0.4359975 -0.8372398 -0.17999882

linear1.bias f4 [256]
00000000: 0212 2fbf bd69 f4bd 9dac 10bf b4a3 eabe
00000010: 4c6d 5bbf 8b4f 30bf d367 24bf 13e2 dfc0
00000020: 3c0e 2ebf 6c6f dcbf a369 46bf 9778 19bf
00000030: 7fbc 3bbf 17a9 18c0 c29a 98bf a414 bcbf
00000040: 4734 60bf f8eb 16bf e3bc e6c0 10e5 34bf
00000050: ad33 6cbf 8adb e9bf 9037 4bbe e051 20bf
00000060: b739 0abf 21b7 80bf f73f 01bf 1a32 12bf
00000070: a8ae 38c0 0e83 2bbf 5f27 2bc0 2d6e 2341
00000080: 72b5 5740 0671 6bbf 4da5 8dbf 6c18 8dbf
00000090: 4b9e 00c0 fc14 14bf 7ab4 26bf c927 bd40
000000a0: f73d 753f 39f8 a4bf 547b 49bf 4650 0fbf
000000b0: 2298 dabf 6c5d 80bf 1c9f 09c0 90d6 eabf
000000c0: 8525 14c0 036f 52c0 9ea8 2ebf 8790 24bf
000000d0: 440e febf bd9a ebbe cc29 aa40 48fd 1440
000000e0: 3756 95bf e9b3 17bf 70b9 cabf 695c 3abf
000000f0: 9c0f 49c0 ee66 27bf 6dde 61bf 4d8e d7be
00000100: 0464 00c1 5d85 31bf 9a86 f1be a45a 4cc0
00000110: 8e31 e6be 3524 18bf 2f55 ad3f 19de b0be
00000120: 267c 84c0 500f 0cbf c931 e8bf 8213 9dc0
00000130: f7d6 f8bf be3b 48c0 ef84 03c0 b165 cdbe
00000140: 51a0 d8be 490c 9bbf 61f6 9cbf 76ee 76c0
00000150: 2386 19bf d63d f9be a9e9 0bc0 cb11 24bf
00000160: dff0 3abf 7cc7 96bd 4801 37bf 3647 bebe
00000170: 7737 69bf a1a5 40c0 9db3 2fbf aeb6 24c0
00000180: 2aaf 4abf 9f14 51bf 981e 54bf 5fc9 49bf
00000190: 2e61 03c0 2e30 84bf 8c62 7cbf 6db7 39bf
000001a0: 334b 08c0 9c42 83be 1e11 b7bf 49ea 15c0
000001b0: fbc2 50bf 7ff2 97bf 0a5a 8cbe 7e1e 0dc0
000001c0: ed27 76bf 1273 52bf ad55 013f 62c8 8abf
000001d0: 16d0 b2bf 311a 16bf c5d7 1cc0 e045 e040
000001e0: 525d 85bf fbb0 46c1 4ddb c540 158c 12bf
000001f0: 139e 9fbf 56e5 2abf d1d5 fdbf 65f9 35c1
00000200: 1058 febe 8580 58c0 7076 7bbf ec2f 3dbf
00000210: ccb3 4abf 7ad5 bbbf 4c10 a3bf 2d2e 25c0
00000220: 6e91 edbe 8ef9 fcbe 2122 ccbe 09d3 34c1
00000230: 80b2 50c0 a923 e1bf d6e3 23c0 4050 98bf
00000240: 6702 a2bf 82fb 66bf 2d3a 65bf 8093 95bf
00000250: adff ddbf ff24 cfbf 29ce c2bf 0733 c1c0
00000260: 3175 94bf 5bc3 46c0 e583 87bf 49c7 b9be
00000270: 4b9f 35c0 0685 71c0 a736 d4be e892 13c1
00000280: 26ce 42c0 d5fe eabe 43f7 07bf bb0c 8bbf
00000290: b052 fabf 3a82 3abf bfb7 48bf 2a0a 2e41
000002a0: 0012 66c1 9384 3bbf 477a 04bf 9f41 bcbf
000002b0: 106b 1cbf 8787 f7bf 638c 00c1 278a ebbf
000002c0: cb16 2ec0 c229 17c0 01c3 813f df15 33c0
000002d0: ea3d 18bf dc3d ffbe 5435 53bf 3817 cebe
000002e0: 69f0 13bf 3d51 03c0 9a6b 24bf bbc3 f5be
000002f0: 0da9 a3c0 6142 b3be a3d9 d9bf 6e1e 52c0
00000300: 6c95 b4bf 88cd 8bbf b176 2bbf a0a5 f4bf
00000310: 6f50 8cbf 12ad c9bf 282c 6041 98fe eabf
00000320: bb42 69bf 2f44 dfbe b1ed 64c0 735d 4ec0
00000330: c9fb ecbf 09f6 a3bf 085f 14c0 f813 05c0
00000340: 340c 30bf c50f 9abf 26d9 1dbf aca2 e2bf
00000350: a940 2cc0 a95e 1dc0 98b9 bfc0 1d35 45c0
00000360: 00a0 babf 1106 0fbf c226 39c1 959d 3ac0
00000370: 0487 c4bf 859a 29bf 8e3f 77c0 d7c6 d0c0
00000380: 96e1 e3c0 e60e 06c0 e2a9 5cc0 13a5 4bc0
00000390: 1f29 1dc1 ab71 fcbe d1a3 78bf d5c5 71c0
000003a0: 7526 62bf a34e 8fbf 96a3 44bf 0397 83bf
000003b0: af14 bbbf ee1d a7bf c454 dcbf b900 c540
000003c0: 28b1 48c0 579c 34bf f009 10be 90f8 71bf
000003d0: 087b 52be 3166 82c0 e08c 0abf b988 75bf
000003e0: 499a 1abf 9df5 1abf c7ee 05c1 5bff d6be
000003f0: 0037 d2bf e10b 2ac1 39ca 93be 70db a9bf
-0.6838685 -0.119342305 -0.56513387 -0.4582802 -0.8571365 -0.6887137 -0.64220923 -6.996347
-0.6799047 -1.7221503 -0.7750494 -0.5994963 -0.733345 -2.3853204 -1.1922228 -1.4693799
-0.8757977 -0.5895381 -7.2105575 -0.7066202 -0.9226635 -1.8270123 -0.19845414 -0.6262493
-0.53994316 -1.0055887 -0.5048823 -0.571077 -2.8856602 -0.6699685 -2.674278 10.214398
3.3704495 -0.91969335 -1.1066071 -1.1023078 -2.0096614 -0.5784452 -0.65119135 5.9111066
0.95797676 -1.2888252 -0.7870381 -0.5598186 -1.7077677 -1.002851 -2.1503363 -1.8346729
-2.31479 -3.2880256 -0.6822604 -0.6428303 -1.9848104 -0.46016493 5.317602 2.327959
-1.1666936 -0.59258896 -1.5837841 -0.72797257 -3.1415777 -0.65391433 -0.8823002 -0.42100754
-8.024418 -0.6934412 -0.47173005 -3.1930323 -0.44959682 -0.5943025 1.3541621 -0.34544447
-4.140155 -0.54710865 -1.8140193 -4.9086313 -1.9440602 -3.1286464 -2.0549886 -0.40116647
-0.42309812 -1.2113124 -1.2262689 -3.8583045 -0.599703 -0.4867999 -2.1861365 -0.6408965
-0.7302379 -0.073622674 -0.7148633 -0.37163705 -0.9110026 -3.0101092 -0.68633443 -2.57365
-0.7917353 -0.8167209 -0.8285918 -0.7882289 -2.0528064 -1.0327203 -0.9858787 -0.7254551
-2.1295898 -0.25636756 -1.4302099 -2.3424246 -0.81547517 -1.1870879 -0.27412444 -2.204986
-0.9615467 -0.82206833 0.50521356 -1.0842402 -1.3969753 -0.58633715 -2.4506695 7.0085297
-1.0419104 -12.418208 6.18302 -0.57245 -1.2470115 -0.6675619 -1.9830877 -11.373387
-0.4967656 -3.3828442 -0.98227596 -0.7390125 -0.791806 -1.4674523 -1.2739348 -2.5809433
-0.46400017 -0.49409145 -0.39869788 -11.301522 -3.2608948 -1.7589008 -2.560781 -1.189949
-1.2656983 -0.9022752 -0.89541894 -1.1685638 -1.7343651 -1.6183165 -1.5219165 -6.037479
-1.1598264 -3.1056736 -1.0587126 -0.36284855 -2.8378475 -3.773744 -0.41447946 -9.223366
-3.0438323 -0.45897546 -0.53111666 -1.086326 -1.9556484 -0.7285496 -0.78405374 10.877481
-14.379395 -0.7324917 -0.5174908 -1.4707526 -0.61100864 -1.9338235 -8.034274 -1.8401536
-2.7201412 -2.3619237 1.0137635 -2.79821 -0.59469473 -0.49851882 -0.8250325 -0.4025209
-0.5778871 -2.0518334 -0.64226687 -0.48000893 -5.114386 -0.3501158 -1.7019542 -3.2831073
-1.41081 -1.0922098 -0.66977984 -1.9113045 -1.0962046 -1.5755942 14.01078 -1.8358946
-0.9111745 -0.43606707 -3.5770075 -3.2244537 -1.8514339 -1.2809459 -2.3183002 -2.0793438
-0.6876862 -1.2036062 -0.6165947 -1.7705894 -2.6914465 -2.4589026 -5.9914055 -3.0813668
-1.4580078 -0.5586863 -11.571962 -2.915868 -1.5353703 -0.66251403 -3.863254 -6.5242724
-7.1212873 -2.0946593 -3.4478688 -3.1819503 -9.822539 -0.49305472 -0.97124964 -3.7776997
-0.8833993 -1.1195873 -0.7681211 -1.028046 -1.4615687 -1.3056009 -1.7213368 6.156338
-3.1358128 -0.70551056 -0.14066291 -0.945199 -0.20554745 -4.0749745 -0.5412121 -0.9591175
-0.6039167 -0.60531026 -8.370795 -0.41991696 -1.6423035 -10.6279 -0.2886522 -1.3270092

linear2.weight f4 [256, 256]
00000000: a038 603d b008 4e3d 00a2 d93b f224 29bd
00000010: 908b d9bb c646 5dbd 64dd 133d 6f45 11bf
00000020: 70e8 e33c 805e 213d 4014 16bd 6ec3 31bd
00000030: d722 2a3f 1ca7 a4bc 447b 09bd 4c69 5c3d
00000040: 30cb 5dbc 6042 36bd 0684 18bf a6b1 2f3d
00000050: d69b 723d b1b6 1cbe c817 613c 6c78 393d
00000060: 60b2 733c a0a3 69bc 0028 18ba f8b9 2cbc
00000070: 1852 2d3d 200a d3bc 589d f23c 7f69 3abf
00000080: 4f9e 6cbf 500e 6f3d 8c00 b53c 1837 5cbc
00000090: de28 71bd 5032 843b e66f 033d 2e4d 2bbe
000000a0: 21a7 e43c 2c3e 94bc b098 f3bc f048 ffbb
000000b0: d0c5 47bd acc8 51bd 8ca9 f73c ae6c 383d
000000c0: ec9b 69bd 906c 6abc 1016 d7bc 6cae b0bc
000000d0: 4408 643d 007e 15bc 8b33 c5bf c853 523d
000000e0: b658 033d f001 04bd 10b3 c43b 2c74 473d
000000f0: 0049 8f3a 3432 b33c 6477 e2bc 8827 12bd
00000100: 58cf 60be b0d6 9a3b 5e75 133d 3817 1c3d
00000110: 6c0e e83c 08c8 bf3c 5b85 d5bf 3497 d53c
00000120: eb41 42bf 5e5f 063d f1c7 1abf 5c98 88be
00000130: 2e3c 3c3d 2d85 62bf 40ff 063b 8000 493b
00000140: 167e 613d 584d 053c 1f45 25bf 9079 58bf
00000150: 40ba 0bbd d07d 933b f480 c23c f83c 2f3d
00000160: 88b7 263c 2892 683c 321b 09bd 9cde 243d
00000170: 3cbd debc 3859 14bd bccb cbbc 9452 6dbd
00000180: e0b6 dabb 1227 6e3d ac23 5c3d c01e bd3b
00000190: 68ca 743d b669 62bd 62db 743d 3884 d3bc
000001a0: 0edf 57bd 86ee d53f 0c8c 0a3d 4069 dbbc
000001b0: c828 45bc 4812 30bf 20fd a1bc e898 d73c
000001c0: dc23 dc3c 7c27 39bd 9493 aebe 24e2 b13c
000001d0: 0fe9 333f 10dc ee3c 50cb e8bc 3841 a1bf
000001e0: 003d 653a 3c62 4bbd 271d 113f 6025 aebb
000001f0: e0f1 ebbc 7052 9b3b 2cf8 ce3c 20b9 80be
00000200: 48e0 67bd 50d6 7cbc 62b1 513d 921b 2abd
00000210: 42c9 7abd 1cde c43c d45d 71bf 10f2 eebb
00000220: ecae 9ebc 1c1d 503d 54cf 9e3c 06bd 64bd
00000230: 3ce2 6dbd c824 b63c 5c6d 56bd 3821 253c
00000240: ae14 753d c8d7 d5bc 54b3 9dbc 0e57 393f
00000250: 8cb0 5b3d 15ab 70be c87a 833c 8cfb a6bc
00000260: 287b b43c 7a93 61bd cf18 76bf eee8 5cbd
00000270: a23f 69bd 7847 67bf c68d 1bbd 00d6 fb3b
00000280: c09c b03c 24f3 263d 7097 47bd a0ff 7dbd
00000290: e44c 58bd f8da e6bc 8e2c 37bf b2c8 aebe
000002a0: 884d 083c 7437 1cbd fcd4 21bd fe82 493d
000002b0: 5cef 223d bb57 0cbe c56e 793f 80e8 833c
000002c0: 1882 1f3c 3830 f5bc 7cff 7ac0 62da 3cbd
000002d0: d44c 32bd 70e2 ad3c 800c adba d401 23bd
000002e0: d4a8 15bd 245d d33c 583e 0f3d 36e4 34bd
000002f0: f0d1 4c3d 9641 50bd 160f 54bd 70d3 07bd
00000300: eafd 2c3d 125a 0c3d 6042 a93b 4ebb c1bd
00000310: 7616 bebe 503d f53b 8cc4 5f3e cee7 47bd
00000320: b406 033d c62d 023d a7c5 79be 20db c03c
00000330: c085 fdba eb64 2abf 41b7 b4be 702b 233f
00000340: d099 463c f896 2bbc ea5d 7c3d 42cf 453d
00000350: 1090 07bc 1c0a e7bc 96c0 2d3e ce0d 09bd
00000360: b0bb ebbc f47e 7d3d e807 e9bc 1df2 6cbf
00000370: 2dfc 10be be3e 063d 0345 b23d 9257 2d3d
00000380: 2e3b 51bd 7808 a5bc d8ef 233d a021 3bbb
00000390: b0c5 acbc b0da 273d 9e62 19bd ec64 52bd
000003a0: 9cc3 d8bc 50c9 373c cca3 edbc 1c9f d83c
000003b0: 7855 2d3d f8b0 5cbd 18f4 ca3c 22e0 983f
000003c0: d4ed 533d 5606 32bd 0482 fb3c 003d ab3c
000003d0: d01b eebc f7f1 73be e8bf 24bc 40a4 a13b
000003e0: f04a 9e3b ccc0 1cbd 88ad d03c 10cc ffbc
000003f0: 557d 47bd f49a f9bc 4451 a3bc f0ea 00bc
0.0547415 0.050301254 0.0066416264 -0.041295 -0.0066389516 -0.054022573 0.036099806 -0.5674657
0.027820796 0.039396763 -0.036640406 -0.043399267 0.6645941 -0.020099215 -0.03356482 0.053811356
-0.013537213 -0.044496894 -0.5957645 0.042894028 0.059230648 -0.15304066 0.01373858 0.04528086
0.014874071 -0.014260203 -0.00058043003 -0.010542385 0.04231462 -0.025761664 0.029616043 -0.72817224
-0.9242906 0.05836326 0.022094987 -0.01344087 -0.058876865 0.004034318 0.032089137 -0.1672866
0.027911725 -0.018096052 -0.029735893 -0.0077906772 -0.048772633 -0.051216766 0.030232213 0.04502552
-0.057033464 -0.01430811 -0.026255637 -0.021567546 0.055671945 -0.009124279 -1.5406355 0.05134943
0.032067023 -0.03222841 0.006002791 0.048694775 0.001093179 0.021874525 -0.02764482 -0.03568223
-0.21954095 0.0047253 0.036000602 0.03810808 0.02832719 0.023410812 -1.6681322 0.026073076
-0.7588183 0.032805793 -0.60461336 -0.2667874 0.04595583 -0.8848446 0.0020598918 0.0030670464
0.055051886 0.008136116 -0.64558595 -0.8456049 -0.03411317 0.004501082 0.02374313 0.042782754
0.010175593 0.014195003 -0.0334732 0.04025136 -0.027189843 -0.036217898 -0.024877422 -0.05794008
-0.0066746324 0.05814273 0.053744957 0.005771488 0.059763342 -0.055276595 0.059779532 -0.025819883
-0.052702956 1.6713417 0.033824965 -0.026783586 -0.012033649 -0.68777895 -0.01977402 0.026318029
0.026872568 -0.04520367 -0.34096968 0.021714278 0.70277494 0.029157668 -0.02841726 -1.2598028
0.00087447464 -0.04965423 0.5668511 -0.005314514 -0.028801858 0.004740052 0.025264822 -0.2514124
-0.056610376 -0.015431955 0.051194556 -0.0415302 -0.06122709 0.024031691 -0.94283795 -0.0072920397
-0.019370519 0.05080901 0.019385971 -0.05584433 -0.058077082 0.022234336 -0.052350387 0.010078721
0.059834175 -0.02610387 -0.01925055 0.7239846 0.053635165 -0.23502763 0.016049758 -0.020383619
0.022031382 -0.055072285 -0.96131605 -0.053933077 -0.05694545 -0.9034343 -0.037977003 0.007685423
0.02155912 0.04075922 -0.048728406 -0.06201136 -0.052807704 -0.028180584 -0.7155236 -0.34137493
0.008319266 -0.03813882 -0.03950976 0.04919719 0.039779052 -0.13705342 0.97434646 0.016102076
0.009735607 -0.029930219 -3.9218435 -0.046106704 -0.0435303 0.021226138 -0.0013202578 -0.039796665
-0.03653796 0.025801249 0.034971565 -0.04416295 0.0500049 -0.050843798 -0.0517722 -0.033160627
0.04223434 0.034265585 0.005165383 -0.09459554 -0.3712651 0.0074841157 0.2185232 -0.04880505
0.031988814 0.031781934 -0.24391805 0.023541987 -0.0019342229 -0.6656024 -0.35296062 0.63738155
0.012121633 -0.0104730055 0.061613 0.04829336 -0.008274093 -0.028203063 0.16967997 -0.03346043
-0.02877602 0.06188865 -0.028446153 -0.92556936 -0.14158697 0.03277468 0.08704569 0.04231984
-0.05108183 -0.02014564 0.040023655 -0.0028553978 -0.021090358 0.04098004 -0.037447564 -0.051365778
-0.026460461 0.01121743 -0.029008768 0.026443057 0.042317837 -0.053879708 0.024774596 1.19434
0.051740482 -0.043463074 0.030701645 0.02090311 -0.029065996 -0.23822771 -0.01005552 0.00493291
0.0048307106 -0.038269803 0.025473371 -0.031225234 -0.04870351 -0.030469395 -0.019936211 -0.007868513

linear2.bias f4 [256]
00000000: ba78 b3bf 935f 1abf c2ac 95c0 8771 94c0
00000010: 38ea 23c0 7727 51c0 03e1 cebf f805 f1c0
00000020: 4b40 a9bf 78f0 f3bf 314d 1cbf debf f5bf
00000030: c274 0bbf c80a 01c0 e262 16bf c5d3 b1c0
00000040: ed76 07c0 c9a1 09bf c6de 85c0 9ec3 a4c0
00000050: 98ad 4ac0 d32a 0ebf caae 99bf f03c 41c0
00000060: 8396 14bf 3031 0bbf 2dc6 e7c0 9f7b adbe
00000070: 3667 19bf 64fa ebc0 9be9 1dc0 21a6 40c0
00000080: 8140 0abf f26b efbf 1922 5bbf 3dae a0bf
00000090: ae69 55c0 9bb9 0bbf f2ea 8b3f 60b9 f6bf
000000a0: 43d4 34c0 7ceb 74bf 56e2 fbbe aceb f7bf
000000b0: afc5 7fbf 9d21 3bbf a039 95bf 8431 d0bf
000000c0: a15a fcbf b39d 0bbf 55b3 0abf de0c 24bf
000000d0: ed5d 0dc1 6fa1 aabf 284e 15bf f10c fcc0
000000e0: 53c7 43c0 f0dc 0dbf 8c93 1fc0 aa8f f3c0
000000f0: ed22 06bf d536 77c0 f643 f2be 5f2d 523f
00000100: 954b e9c0 b4b6 20bf e594 d7c0 6870 81bf
00000110: f99e 93c0 c5e4 a4bf 3807 c9bf 47b4 89bf
00000120: a51a 46be c9d3 16bf d903 1ac1 c421 1ebf
00000130: 44f9 d6bf 94f1 3dc0 2b10 5440 feb4 efbf
00000140: 1012 0bbf e6b5 93bf c722 51c1 a0d3 adbf
00000150: a98f 16bf ad1e 0dc0 d451 5ec0 30b2 17bf
00000160: 51ce 15bf 965a 0bbf 1823 11bf c9ce 1ec0
00000170: 64f3 16c0 2b86 12c0 f1a4 b5bf 11da 0abf
00000180: 6953 0dc0 3900 1fbf 9881 f7bf 5ff4 553f
00000190: 1706 b4bf 8ed3 09bf cd70 04c1 da6e 12bf
000001a0: 5a16 32bf 820c 20c0 e920 87bf ef3f dbbf
000001b0: ed8e 06bf 5560 14bf 87da 11bf b1c8 85bf
000001c0: a9bb f7bf 96e4 cdbf 8fc3 a2bf 5288 0cbf
000001d0: 9992 3a40 0e02 6dc0 50a8 0fc0 880d 5ac0
000001e0: 54e9 27bf 83ee 47c0 40b3 0bbf f0ec dcbf
000001f0: 89f5 c4c0 2606 0fbf 2ab7 94bf abff 0ac0
00000200: 98c3 0cbf 669d 13c0 403f dcbf d713 18bf
00000210: 609c c4c0 4f93 9bbf 9be5 cfbf 7b62 04bf
00000220: 1562 17bf 1a87 e9c0 8fd0 1dc0 cf3d f7bf
00000230: 751a 43c0 34e7 0bbf 48bb dabf 6b10 b6c0
00000240: 6aa6 15c0 fbfe 2bc0 216f acbf 1a8a 84c0
00000250: dc34 62c0 f668 b6bf 2d26 35c0 9d1b 6fc0
00000260: fca2 d6bf fee8 05bf 559e 1ec0 d503 0dc0
00000270: 2cb8 25bf 53ed 69bf 1f83 0cc0 6382 febe
00000280: 674a 0cbf dd2c 2240 b785 e5bf 2476 3cc0
00000290: 6e69 18bf 4012 0cbf f338 05bf 51b0 10bf
000002a0: d63a 0abf f402 90c0 273a 4ac0 4ae0 4cc0
000002b0: 828d 50c1 cf74 08c0 e68f 99bf b8c5 50c0
000002c0: 35fb 21c0 9bc0 b2be 602f 1ac0 a7bf 0ebf
000002d0: 7f3f 1dbf ad03 25c0 2c00 96c0 b942 48bf
000002e0: 7c00 10bf cc07 3ec0 cb39 1dbf ba2b e6be
000002f0: 5ad8 22c0 0e44 ccc0 b10e dcbf d1dc 01bf
00000300: 175b 4fbf e3ad 4bc0 269b 3dc1 59fa 0bbf
00000310: 22d5 84bf b09b 20bf 6687 d2bf 2244 c3bf
00000320: 02f0 53c0 34cc 44bf 6202 46c0 f2bd b9bf
00000330: 8f70 2ec0 672d 40c0 2ae8 f4bf ff28 fabf
00000340: d917 0ebf 8431 01c0 a10a 20c0 d7bb 0bc0
00000350: 53f3 e2bf ffbf f43e 2bed 95bf e5dc 19c0
00000360: 2003 65bf 9c30 97c0 545c 1bbf dfa1 1ec0
00000370: 0746 be40 efe3 9cc0 4971 1fc0 ebe6 e9bf
00000380: 57bf 10bf aee4 17c0 669a 09c0 ef20 18c1
00000390: ba72 0dbf 4137 61c0 281b a6bf 548c cfc0
000003a0: 5145 0bbf a82f 0fbf 10f5 87bf 62f7 b43e
000003b0: 03d5 a9bf 8ed3 babf 3834 d9bf f6bc 1fbf
000003c0: a8db 09bf b065 fcbf 1626 c7c0 db60 b4be
000003d0: 40eb 11bf 5618 03c0 2d23 1bc0 1171 1ec0
000003e0: 5ac2 0dc0 2812 21c0 36b1 99c0 6cc3 39c0
000003f0: 117c 52c0 4257 f7bf 0234 0cbf 19c0 fdbf
-1.4021218 -0.60302085 -4.6773386 -4.6388583 -2.5611706 -3.2680337 -1.6162418 -7.5319786
-1.3222746 -1.905776 -0.61055285 -1.9199178 -0.54475033 -2.016283 -0.58744633 -5.557101
-2.1166337 -0.5376249 -4.183444 -5.148879 -3.1668453 -0.55534095 -1.2006466 -3.0193443
-0.5804216 -0.5437193 -7.2429414 -0.33883378 -0.5992311 -7.3743153 -2.4673831 -3.0101397
-0.54004675 -1.8704817 -0.85598904 -1.2553173 -3.3345752 -0.54580086 1.0931075 -1.9275322
-2.8254554 -0.9567182 -0.49196118 -1.9368796 -0.99911016 -0.73098165 -1.1658211 -1.6265111
-1.9715158 -0.54537505 -0.5417989 -0.64082134 -8.835431 -1.3330516 -0.5832238 -7.8765798
-3.0590408 -0.5541525 -2.4933805 -7.611287 -0.5239704 -3.8627217 -0.47317475 0.8210048
-7.2904763 -0.6277878 -6.7369256 -1.0112429 -4.613156 -1.2882315 -1.5705328 -1.0758141
-0.19346102 -0.5891691 -9.625939 -0.6177027 -1.679482 -2.9678698 3.3134868 -1.872711
-0.54324436 -1.1539886 -13.070991 -1.3580208 -0.5881296 -2.2049973 -3.4737444 -0.5925627
-0.5851794 -0.544351 -0.56694174 -2.4813712 -2.3586054 -2.289439 -1.4190961 -0.5423899
-2.208216 -0.62109715 -1.9336424 0.83576006 -1.4064358 -0.5383843 -8.277539 -0.57200396
-0.69565356 -2.5007634 -1.0556918 -1.7128886 -0.5256184 -0.5795949 -0.5697407 -1.0451871
-1.9354144 -1.6085384 -1.271593 -0.5489551 2.9151976 -3.7032504 -2.244648 -3.407076
-0.65590405 -3.1239326 -0.5457039 -1.7259808 -6.1549726 -0.55868757 -1.1618397 -2.1718547
-0.5498595 -2.3064818 -1.7206802 -0.59405273 -6.1440887 -1.215433 -1.6241945 -0.5171277
-0.59134036 -7.297742 -2.4658544 -1.9315737 -3.0484898 -0.5464966 -1.7088404 -5.689504
-2.338282 -2.6874378 -1.3471414 -4.141858 -3.5344763 -1.4250782 -2.830455 -3.7360604
-1.6768489 -0.5230864 -2.4784138 -2.203359 -0.6473415 -0.91377753 -2.195503 -0.49708852
-0.5480103 2.5339882 -1.7931432 -2.9447107 -0.5953587 -0.5471535 -0.5204002 -0.5651904
-0.53996027 -4.5003605 -3.1597993 -3.2011895 -13.034548 -2.1321294 -1.1997039 -3.2620678
-2.5309575 -0.3491257 -2.4091415 -0.5576119 -0.6142501 -2.5783494 -4.687521 -0.7822681
-0.5625074 -2.969226 -0.6141631 -0.44955236 -2.544455 -6.3833075 -1.7191983 -0.50727564
-0.8099837 -3.1824882 -11.850378 -0.54678875 -1.0377543 -0.6273756 -1.644757 -1.5255167
-3.311524 -0.7687409 -3.0938954 -1.4511092 -2.72562 -3.0027711 -1.9133351 -1.9543761
-0.5550514 -2.0186472 -2.5006487 -2.1833398 -1.7730507 0.4780273 -1.1713003 -2.4041073
-0.89457893 -4.724684 -0.60687757 -2.4786298 5.9460483 -4.902824 -2.4912894 -1.8273596
-0.5654196 -2.3733325 -2.1500487 -9.50804 -0.55253184 -3.5189974 -1.2977037 -6.48588
-0.54402643 -0.5593209 -1.0621662 0.35344988 -1.3268131 -1.4595811 -1.6969061 -0.62397707
-0.53850794 -1.9718533 -6.223399 -0.35230145 -0.5699959 -2.0483603 -2.424022 -2.475651
-2.2149873 -2.5167332 -4.802882 -2.9025526 -3.2888224 -1.9323504 -0.5476686 -1.9824249

linear3.weight f4 [4, 256]
00000000: bdcd 43bd 69cc 093f 9c8f 25bf 53d4 013f
00000010: 8725 cb3f ff1d 0940 b072 873f 6d04 4540
00000020: 70d3 1cbd 1634 173f 3fd7 0e3f dc40 adbe
00000030: b741 183f e980 35be 8782 113f e437 1dbf
00000040: e499 0640 12a9 2abd 0285 2940 526e 87c0
00000050: 52c3 c6bf 3932 143f b80c a8be ff35 1bc0
00000060: cb03 0e3f 2802 01bf d7a0 383f b0c4 b9be
00000070: bdb8 153f e02f 513f 9c4c 1d3d 185c 02c0
00000080: 7bdf 183f 82c9 debd 35f9 223f 1047 c1bd
00000090: d8d3 043d 819f 0c3f 11ba 1040 038e 9dbe
000000a0: 0888 04bf 6f3d b4be 759f d5be fb6f 4ebf
000000b0: 8aed bd3e 825b 68bd 802b abbe e519 f73d
000000c0: 73f4 b6be 54b0 143f 243d 0d3f 630f 0b3f
000000d0: 2da1 da3e aed5 3f3f 4db3 183f 7a8a 033f
000000e0: 54c8 2c3f 779d 103f fb8c c1bf 960c 29bc
000000f0: 5e57 753d 0894 52bc 6164 a8be 7eb8 953f
00000100: de05 8d3f a452 103f fa60 61bf df2f 163d
00000110: ddf6 07c0 7789 26be 0db5 87bf 9787 bbbe
00000120: a982 20be a353 0f3f 7ec0 cec0 7ba3 0d3f
00000130: 228d 9abe 079d 3d40 ef3c 5c40 d194 6ebe
00000140: c019 73bd 2e05 09be 4383 01bf b045 4d3d
00000150: a551 94be 8c05 97be 4465 97bf 0ddf 203f
00000160: 3241 123f 5516 0a3f 227d 08bf 2beb 5fba
00000170: c807 913f 9326 adbe 60da a8bc 1963 0d3f
00000180: b596 02c0 dfb5 0e3f 7216 9cbf 0403 4fc0
00000190: e92d 253f 839a 273f d880 f63e 9053 1e3f
000001a0: bef4 9e3f b4cb aabf 0257 193f a676 243e
000001b0: 369b 7ebd fef8 1b3f 2a03 0e3f 7668 a7bf
000001c0: 42a3 003f 158b bb3f a78a 40be b28c 0b3f
000001d0: 8c8c 07c1 af17 0140 98b5 6e3f 6073 acbb
000001e0: 15c5 113f f634 fe3f e805 0e3c 96ba 2cbe
000001f0: c577 fa3d fc0c 1f3f 3466 2d3f 8d48 55c0
00000200: 93b2 143f 83ba a9be 8f9a 15bf b7cd 1b3f
00000210: 2a99 033f e8f7 c83e d31d eabf 1a00 6fbd
00000220: 0a4a febe 830d 693f 5896 7840 d8e4 9abf
00000230: 424c df3f 73fd 203f 6490 793f 71c0 eebd
00000240: f378 4ebe a078 99bf 73f0 81be c531 923e
00000250: c525 e640 2521 85be 8c12 693e 082c 32bf
00000260: d883 133f 8b2a 343f 9bb6 f93f ac46 7c3f
00000270: 2421 0f3f 73c8 383e 830e f6bf 0a5a 143d
00000280: ab60 0d3f b573 09c0 3c1f 183f 4101 76c0
00000290: 5c09 153f c790 1e3f 361d 3d3d 4d08 0a3f
000002a0: 714d 203f 3465 193f 8154 cb3e a101 3ac0
000002b0: df88 17be 1f8e bebf bec6 05bf 6a92 f03f
000002c0: 74ce 40c0 1e74 cabe e0aa 04bf 6bda 103f
000002d0: 8f18 123f e307 2a3e 073f 53c0 76a2 97be
000002e0: 8a0b 5abd ada1 e9be 79c9 0b3f 1345 1dbe
000002f0: c9df efbf a8b0 3240 e78b 11bf 944d 2440
00000300: 5cdf ba3f d16c 88bf 4adb 5340 1182 193f
00000310: 7f6e 733f de4b 0f3f 5aba 28be 8ff1 553d
00000320: 1ba5 e83f 3385 403f 7618 403f bddf 5b3f
00000330: e431 2f3f 5c55 32c0 0c7c dc3d cddd 193f
00000340: 5c3d 113f 6ee0 b13f f924 003f c9c5 9abe
00000350: 1368 9fbe 1711 79be 83c5 e93e 4f57 45bf
00000360: f044 9cbe 88cf 9640 3cbb 133f 4d87 1840
00000370: c8d0 6fc0 34c1 0fc0 f42a a2bf 630d 04c0
00000380: 4e46 103f 76c0 543e 460e 05c0 04b8 9e3d
00000390: 4bc7 1c3f 97e5 e93f f8e4 0e3f 0118 2740
000003a0: 79e6 1e3f c0e2 093f 2c1a 07bf eb9b 3640
000003b0: 96e3 9fbf 1042 dbbf ecb3 b7bd 4bfa 0e3f
000003c0: 3408 0d3f 1e88 48be 8033 82c0 c9f5 15be
000003d0: 7850 b33c db13 03c0 534f f3bf 5663 abbf
000003e0: 976e 09c0 5bf2 abbf 65fa 793f ff18 f53e
000003f0: 462e f83e 21a4 9cbe f22e 62be 0796 b3bd
-0.04780363 0.5382753 -0.64672256 0.50714606 1.5870827 2.1424558 1.0581875 3.0783951
-0.03828758 0.5906385 0.5579719 -0.33838546 0.5947527 -0.17724957 0.56839794 -0.6141341
2.1031427 -0.041665144 2.6487432 -4.232217 -1.5528357 0.57889134 -0.32822204 -2.4251707
0.5547454 -0.50393915 0.7212042 -0.36282873 0.58485013 0.81713676 0.03840314 -2.036871
0.59716004 -0.10878278 0.6366151 -0.09437382 0.032428592 0.54930884 2.2613566 -0.3077241
-0.5177007 -0.3520312 -0.4172322 -0.8063962 0.3709529 -0.056727894 -0.33431625 0.12065486
-0.35733375 0.58081555 0.5517142 0.54320353 0.42701092 0.74935424 0.5964859 0.51383173
0.67493176 0.5649027 -1.5121149 -0.010317942 0.059897773 -0.012852676 -0.32889083 1.1696928
1.1017416 0.563761 -0.880386 0.036666747 -2.1244423 -0.16263376 -1.0602127 -0.36626884
-0.15674843 0.55986995 -6.4609976 0.55327576 -0.301858 2.9627092 3.441219 -0.23298956
-0.05935073 -0.13380882 -0.50590914 0.050115287 -0.2896854 -0.2949642 -1.1827779 0.6284035
0.5713073 0.53940326 -0.5331594 -0.00085418177 1.13305 -0.33818492 -0.020611942 0.55229336
-2.0404484 0.55746263 -1.219435 -3.234559 0.6452318 0.6547014 0.48145175 0.61846256
1.2418439 -1.3343415 0.5989839 0.16060886 -0.06215974 0.60926807 0.5547358 -1.3078754
0.5024911 1.465182 -0.18802892 0.5451156 -8.471813 2.0170705 0.9324584 -0.005262777
0.5694135 1.9859912 0.0086684 -0.16868052 0.122298755 0.6212919 0.67734075 -3.3325531
0.5808498 -0.3315011 -0.5843896 0.6086077 0.51405585 0.39251637 -1.8290352 -0.058349706
-0.49665862 0.9103624 3.8841763 -1.2101088 1.7445147 0.6288673 0.9748595 -0.11657799
-0.20163326 -1.1989937 -0.2537876 0.28553596 7.1921105 -0.2600185 0.22760981 -0.69598436
0.5762305 0.70377415 1.9508852 0.98545337 0.55909944 0.18045215 -1.9223179 0.03621868
0.5522563 -2.1476872 0.5942266 -3.8438265 0.58217406 0.6193966 0.046170436 0.53918916
0.62618166 0.5992005 0.3971291 -2.9063494 -0.14798306 -1.4887122 -0.5225638 1.8794682
-3.012601 -0.39541715 -0.51823235 0.5658328 0.57068723 0.16604571 -3.300722 -0.29616135
-0.05323366 -0.4563116 0.546043 -0.15358381 -1.8740169 2.7920322 -0.568541 2.567235
1.4599414 -1.0658208 3.3102593 0.5996409 0.9509048 0.5597514 -0.16477337 0.05223232
1.8175386 0.75203246 0.75037324 0.8588827 0.684355 -2.78646 0.107658476 0.60104066
0.5673425 1.3896616 0.50056416 -0.30229023 -0.3113409 -0.24322926 0.45658502 -0.7708635
-0.30521345 4.7128334 0.5770757 2.383258 -3.747118 -2.2461672 -1.2669358 -2.063317
0.56357276 0.20776543 -2.0789962 0.07749942 0.61241597 1.827319 0.5581813 2.61084
0.62070423 0.5386162 -0.5277431 2.8532665 -1.2491329 -1.7129536 -0.08969864 0.55850667
0.5509064 -0.19583175 -4.0687866 -0.14644541 0.021888956 -2.048087 -1.9008583 -1.338969
-2.1473749 -1.3433336 0.97647697 0.47870633 0.48472804 -0.3059397 -0.2208822 -0.0876885

linear3.bias f4 [4]
00000000: c08a 6e41 3181 3fc0 d879 41c0 dc87 40c0
14.9088745 -2.9922602 -3.0230618 -3.0082922
