models/model_city1_2.bin (torch_old, 274506 bytes, 6 tensors)

linear1.weight f4 [256, 5]
0	0xbf147637	-0.5799288
1	0xbed277ec	-0.41107118
2	0xbf81d17c	-1.0142055
3	0xbe4707ee	-0.19436619
4	0xbf79e8ec	-0.97621036
5	0x3d2a5aff	0.041590687
6	0xbfc5c711	-1.5451375
7	0xbf0c6fc5	-0.54858047
8	0xbf160c52	-0.5861255
9	0xbff50c85	-1.9144446
10	0x3f492fdc	0.7858865
11	0xbfa5302c	-1.2905326
12	0xc01528be	-2.3306117
13	0xbdeb9428	-0.11502868
14	0xbecf5b34	-0.4049927
15	0xc0e0d89d	-7.026442
16	0xbffb62d9	-1.9639541
17	0x3f9fc16e	1.2480905
18	0xc0305d7b	-2.7557056
19	0x40baee8e	5.8416204
20	0xbf5e6ffa	-0.8688961
21	0xbf6c254a	-0.922444
22	0xbecabac8	-0.39595628
23	0xbf0595dc	-0.5218179
24	0xbf1fcb40	-0.6241951
25	0xbeffb9fe	-0.49946588
26	0xbef60df3	-0.48057517
27	0xbf2de531	-0.67927843
28	0xbf19ee14	-0.60128903
29	0xbe8a6580	-0.27030563
30	0xc0da238c	-6.816839
31	0xbfcfeb8a	-1.6243756
32	0x405eca4a	3.4810967
33	0xc124bf19	-10.296655
34	0xbfdd35f2	-1.7282088
35	0x3d55c598	0.052190393
36	0xbf0cb713	-0.5496685
37	0xbdfdf44c	-0.124001116
38	0xbea32d08	-0.31870294
39	0xbf49a305	-0.78764373
40	0xbfff3f7c	-1.9941249
41	0xc02c5510	-2.6926918
42	0xc035fae8	-2.843439
43	0x3f83d567	1.02995
44	0xbf489103	-0.7834627
45	0xbed58e1c	-0.41709983
46	0xbeaececa	-0.34142143
47	0xbf0d0837	-0.5509066
48	0xbe8bc73a	-0.27300435
49	0xbe883c39	-0.26608446
50	0xbf285568	-0.6575532
51	0x3b5927e2	0.0033135344
52	0xbfe028e5	-1.751248
53	0xbd6689c3	-0.056283724
54	0xc00870ae	-2.1318774
55	0xbf4de5f8	-0.8042903
56	0xc03160be	-2.7715297
57	0xbe268398	-0.16261137
58	0x3e952c47	0.29135343
59	0xc00b8b01	-2.1803591
60	0xbe98ba16	-0.29829472
61	0xbf4ec85a	-0.8077446
62	0xbe26b598	-0.1628021
63	0xbd1516f0	-0.036398828
64	0xbeca8150	-0.39551783
65	0xbe7a73eb	-0.24458282
66	0xbf85c1f8	-1.044982
67	0xbf817960	-1.0115166
68	0xbed3c518	-0.41361308
69	0xbf6fe3b4	-0.9370682
70	0xbf4ae108	-0.7924962
71	0xbef85eb6	-0.4850976
72	0x405e33e4	3.4719172
73	0xbfad906f	-1.3559703
74	0xbfaf2b93	-1.3685173
75	0x3cb128b0	0.021625847
76	0xbf09c7be	-0.5382041
77	0xbed7555c	-0.42057312
78	0xbe537120	-0.20648623
79	0xbebee3d2	-0.37283188
80	0xc073ce61	-3.8094714
81	0xbf22685c	-0.6344049
82	0xc01ced5f	-2.451988
83	0xbfac41ef	-1.3457621
84	0x40e1988b	7.049871
85	0xbf0f165d	-0.558935
86	0xbfd7a73d	-1.6847912
87	0xbf4ae8fd	-0.7926176
88	0xbeecfa89	-0.46284893
89	0xc002c92c	-2.0435286
90	0xbe1f3542	-0.1554766
91	0xbf8369fc	-1.0266719
92	0xbe898fa6	-0.26867408
93	0xbeb42060	-0.3518095
94	0xbf4175fe	-0.75570667
95	0x3d485740	0.048911333
96	0xbf14b894	-0.58094144
97	0x3da2736d	0.07932172
98	0xbe843e07	-0.25828573
99	0xbf757c15	-0.9589246
100	0xbf139c93	-0.5766079
101	0xbfe11cdd	-1.7586933
102	0xbff87081	-1.9409333
103	0x3e955629	0.29167297
104	0xbf204cee	-0.62617385
105	0xc0dfc1fe	-6.9924307
106	0xc1047df9	-8.280755
107	0x40f211ac	7.564657
108	0x3f6b0446	0.91803396
109	0x3f1af0b4	0.60523534
110	0xbe09bc41	-0.1345072
111	0xbe5b1842	-0.21395972
112	0xbf7b6d79	-0.98213917
113	0xbf2547b8	-0.6456256
114	0xbf5192d6	-0.8186468
115	0xbda3bc8c	-0.07994947
116	0xbea75d9b	-0.32688603
117	0xbeb69e71	-0.35667756
118	0xbecc378a	-0.39886123
119	0xbe5f1dcf	-0.21788715
120	0x3bb57e40	0.005538732
121	0xbe99ab38	-0.30013442
122	0xbec175d3	-0.37785205
123	0xbeadcdfe	-0.33946222
124	0xbe230b36	-0.15922245
125	0xbeb0d71a	-0.3453911
126	0xbf2aabf4	-0.6666863
127	0xbf8ab04d	-1.0835053
128	0xba998900	-0.0011713803
129	0x3b9bbfd2	0.0047530914
130	0xbecd2f3a	-0.40075094
131	0xc01f85ec	-2.492549
132	0xc01e0047	-2.468767
133	0xc0105282	-2.2550359
134	0xbec48cd9	-0.38388708
135	0xbd07cbf0	-0.033153474
136	0xbda42b74	-0.080161005
137	0xbee0e08e	-0.43921322
138	0xbea9cab0	-0.3316245
139	0xbe4da98c	-0.20084208
140	0x409ff41d	4.998549
141	0xc1bbcfee	-23.476528
142	0x3fb12635	1.3839785
143	0x400d2c8f	2.2058446
144	0xc0aa4d13	-5.3219085
145	0xbee113e1	-0.4396048
146	0xbf20530c	-0.6262672
147	0xbe92b185	-0.28651062
148	0xbea5bf35	-0.32372442
149	0xbf6862a9	-0.90775543
150	0xbee99dff	-0.45628354
151	0xbf75e20e	-0.9604806
152	0xbf3044b5	-0.6885484
153	0xbef18e40	-0.4717884
154	0xbeb3033d	-0.34963408
155	0xbe8092e4	-0.2511207
156	0xbeb25b98	-0.34835505
157	0xbe51d3f1	-0.20491005
158	0x3b74b680	0.0037340224
159	0xbe4d8c62	-0.20073083
160	0xbfbd56e8	-1.4792147
161	0xc00f7797	-2.2416742
162	0xc01be41b	-2.4357975
163	0xbfd24d4c	-1.6429839
164	0xc006c5ae	-2.1058154
165	0xbfc93f7f	-1.5722502
166	0xbfac319d	-1.3452641
167	0xbe72b4f7	-0.23701845
168	0xbf9bd536	-1.2174442
169	0xbed8f491	-0.4237409
170	0x3dbfd450	0.09366667
171	0xbed5897a	-0.4170645
172	0xbe877d50	-0.26462793
173	0xbdf57a7c	-0.11986253
174	0xbedda425	-0.43289295
175	0xbf12cafa	-0.5734097
176	0x3e8f8d08	0.28037286
177	0xbfd6b9ca	-1.6775448
178	0x3d00da69	0.031458292
179	0xc057f123	-3.3740928
180	0xbe7a5c1b	-0.24449198
181	0x3cc6f8dc	0.024288587
182	0xbeb74d32	-0.35801083
183	0xbf976fb7	-1.1830968
184	0xbf607faf	-0.8769483
185	0xbedf97b1	-0.4367042
186	0xbbbdeac0	-0.0057958066
187	0xbebac9f3	-0.364822
188	0xbea92954	-0.33039343
189	0xbe8b3c2e	-0.2719435
190	0x3cd2e32f	0.025743095
191	0xbf22f91f	-0.6366138
192	0xbee74219	-0.45167616
193	0xbe876cd2	-0.2645021
194	0xbf811028	-1.0083055
195	0xc00a73a8	-2.163309
196	0xbe700101	-0.23437883
197	0xbea4124f	-0.32045218
198	0xbfeaa9f4	-1.8333116
199	0xbffb60fe	-1.9638975
200	0xbdeb2f4f	-0.11483633
201	0xbf396b76	-0.724296
202	0xbf763dcf	-0.9618806
203	0xbe9add16	-0.302468
204	0xbe4401c9	-0.19141306
205	0xbfa505ac	-1.2892356
206	0xc00ed0d9	-2.231497
207	0xc00eff2e	-2.234325
208	0xc0006cc7	-2.0066392
209	0xc00d6b0f	-2.2096593
210	0x3e250a50	0.16117215
211	0xbf8e5304	-1.1119084
212	0xbf961c1a	-1.1727326
213	0xbe7bcdd7	-0.2459024
214	0xc0430866	-3.0473876
215	0xbed0565d	-0.4069089
216	0xbe57c938	-0.21072853
217	0xbe83ad48	-0.2571814
218	0xbeb22b2c	-0.34798563
219	0xbe8c0f45	-0.273554
220	0xbf94575d	-1.1589161
221	0xbf5dea39	-0.8668552
222	0xbfed8aec	-1.855802
223	0xbf84304e	-1.0327241
224	0xbffe9d9c	-1.9891849
225	0xbecfef88	-0.40612435
226	0xbe94be94	-0.2905165
227	0xbe96a31a	-0.29421312
228	0xbe9e7a61	-0.30952743
229	0xbe63e04b	-0.2225353
230	0xc096ffb6	-4.7187147
231	0xc056dfcc	-3.3574095
232	0xbf9c3b67	-1.2205628
233	0x4045ae63	3.0887687
234	0xc132a6d6	-11.165731
235	0x3cbc7d40	0.023008943
236	0xbf2e4405	-0.6807254
237	0xbe994a8e	-0.29939693
238	0xbeaf6192	-0.34254128
239	0xbecb2b1e	-0.39681333
240	0xbd493088	-0.04911855
241	0xbeb14734	-0.34624636
242	0xbebcdec8	-0.3688872
243	0xbd8602ac	-0.06543478
244	0xbe79acf3	-0.24382381
245	0xbe0fc27e	-0.14039037
246	0xbf91f9bc	-1.1404338
247	0xbe9eefd4	-0.3104235
248	0xbdaa642c	-0.083198875
249	0xbf4b302a	-0.7937037
250	0xbddc3355	-0.10751978
251	0xbed01e76	-0.4064824
252	0xbf4c6cc6	-0.79853475
253	0xbf7608ea	-0.9610735
254	0xbf93228a	-1.1494915
255	0xbec70b42	-0.38875777

linear1.bias f4 [256]
0	0xbfe25960	-1.7683525
1	0xc06abedb	-3.667899
2	0xc0f28b16	-7.5794783
3	0x40b1c95c	5.55583
4	0xbfcb1aca	-1.586755
5	0xbf95dc47	-1.1707848
6	0x41401e68	12.007423
7	0xbf08af60	-0.533926
8	0xc139726b	-11.590434
9	0xbf6ad585	-0.91732055
10	0xc06be5e1	-3.6859057
11	0xc033369a	-2.8002076
12	0xbf0afb8b	-0.54290074
13	0xbeff7bfe	-0.49899286
14	0xc125bd42	-10.3587055
15	0xbf54ba69	-0.8309694
16	0xc0892924	-4.286272
17	0xbf9aeace	-1.2102907
18	0xbf69401b	-0.9111344
19	0xbeecf5f0	-0.46281385
20	0xc127ecaf	-10.495284
21	0x41332ba1	11.198152
22	0xbf32de1b	-0.69870156
23	0xbf750b5f	-0.95720476
24	0xbb1cf980	-0.0023952425
25	0xbf73ab0c	-0.9518287
26	0xc0265da0	-2.5994644
27	0xbeba56f4	-0.36394465
28	0x3fff3ef8	1.9941092
29	0xbf8de6f3	-1.1086105
30	0xbfb5e898	-1.4211607
31	0xbf18a5a0	-0.59627724
32	0xc0046cde	-2.0691447
33	0xc0024178	-2.035246
34	0xbf13ff85	-0.57811767
35	0xc0982d7a	-4.7555513
36	0xbf39a96e	-0.72524154
37	0xbeb39564	-0.35074914
38	0xbf95c14d	-1.1699616
39	0xc0259fd3	-2.58788
40	0xbf8dface	-1.1092165
41	0xc01fde3b	-2.4979389
42	0xc07fa08b	-3.9941738
43	0xbf4ce254	-0.8003285
44	0xbfd85263	-1.6900142
45	0xbf139507	-0.5764927
46	0x40aa1841	5.3154607
47	0xbee851a6	-0.45374793
48	0xbf2bbf94	-0.670892
49	0xbf27298c	-0.6529777
50	0xbfe46035	-1.784186
51	0xbf6b0ae5	-0.918135
52	0xc083f4cf	-4.123634
53	0xbecb6612	-0.3972631
54	0xbfb9bc31	-1.4510556
55	0xbf4d5d79	-0.8022075
56	0xbf3254e2	-0.6966077
57	0xc08cb6ba	-4.3973055
58	0x41a9abb1	21.208834
59	0xbfc2ea1b	-1.5227693
60	0xbf856edf	-1.042446
61	0xc003d00c	-2.0595732
62	0xbffdbbbd	-1.9822918
63	0x408122a6	4.0354795
64	0xc12ce0d5	-10.804891
65	0xc1ac1d2c	-21.514244
66	0xc1aad964	-21.356148
67	0xbfb1568c	-1.3854537
68	0xbf38983e	-0.72107303
69	0xbfab38a4	-1.337666
70	0xbf5e7b2e	-0.8690671
71	0xc08c341b	-4.3813605
72	0xbfdb7f62	-1.7148249
73	0xc0894a07	-4.2902865
74	0xbf526864	-0.8219054
75	0xbf859f97	-1.0439328
76	0xc079aa2d	-3.9010117
77	0xbf71b2f7	-0.94413704
78	0xbf38e672	-0.7222663
79	0xbf88b955	-1.0681559
80	0xc09d5bfd	-4.917479
81	0xbf1014a4	-0.56281495
82	0xc1548071	-13.281358
83	0xbed44b4f	-0.41463706
84	0xc039cc43	-2.9030921
85	0xc0ab0c31	-5.345238
86	0xc06fa11a	-3.7442079
87	0xc10d3a4f	-8.8267355
88	0xc04163c6	-3.0217147
89	0xc1627815	-14.154317
90	0xc13edaef	-11.928451
91	0xbfa08542	-1.2540667
92	0xbe559330	-0.20856929
93	0xbf222d6f	-0.63350576
94	0xbf9998ac	-1.1999717
95	0xbfb9f9d7	-1.452937
96	0x3fcacf4c	1.5844512
97	0xc07e76b0	-3.975994
98	0xbd4c9216	-0.049944006
99	0xbf2ef887	-0.6834797
100	0xbe561765	-0.20907362
101	0xbfcc78fc	-1.5974422
102	0xc104d946	-8.303045
103	0xc06ff9da	-3.7496247
104	0xc0a79d64	-5.2379627
105	0xc0c9c6ca	-6.3055162
106	0xbf9a6a3f	-1.2063674
107	0xbffdaef0	-1.9819012
108	0xc1b73f7c	-22.905998
109	0xc05d5338	-3.4582043
110	0xbf061bb3	-0.52386016
111	0xbf5789d9	-0.84194714
112	0xc117a98f	-9.478896
113	0xc063e14d	-3.5606263
114	0xc0770256	-3.8595176
115	0xbface8d5	-1.3508555
116	0xc11bb43c	-9.731503
117	0xbeff6249	-0.49879673
118	0xc0886629	-4.2624707
119	0xc09464d0	-4.637306
120	0xbf574015	-0.84082156
121	0xc06a445a	-3.6604218
122	0xbfa5f9e3	-1.2966884
123	0xc0372866	-2.8618407
124	0xbf63cf4b	-0.8898818
125	0xc0fd53d6	-7.916484
126	0xbfddae6f	-1.7318858
127	0xbf8ee36c	-1.1163154
128	0xbf89af75	-1.075667
129	0xc16d4a91	-14.830705
130	0xbf9cbea2	-1.2245677
131	0xc0119346	-2.2746139
132	0xbf4c4202	-0.7978822
133	0xc00ea729	-2.2289526
134	0xbf5be704	-0.85899377
135	0xbf0f5526	-0.559893
136	0xbfc9532d	-1.5728508
137	0xc1878826	-16.941479
138	0xc0d35bb1	-6.604943
139	0xc0882147	-4.254062
140	0xc02f4791	-2.738743
141	0xc0fdd5df	-7.9323573
142	0xbf603107	-0.8757481
143	0xbf71e44b	-0.9448897
144	0xbf735663	-0.9505369
145	0xc0f79a61	-7.737595
146	0xc08ab98b	-4.3351493
147	0xbf80c59b	-1.0060304
148	0xbf3229b7	-0.695949
149	0xbe2c17d6	-0.16805968
150	0xbf866ddb	-1.0502275
151	0x40bb51f7	5.8537555
152	0xc04010a7	-3.0010164
153	0xc080e782	-4.02826
154	0xc0567139	-3.3506606
155	0xbf250816	-0.64465463
156	0xc036bc21	-2.8552325
157	0xc01e3687	-2.472078
158	0xc04a7a22	-3.1637044
159	0xbf1930d9	-0.5984016
160	0xbf194b16	-0.598802
161	0xc085861d	-4.1726213
162	0x40c46afe	6.1380606
163	0xbf533d8e	-0.825158
164	0xc1a6e095	-20.85966
165	0xbf0ae9a6	-0.5426277
166	0xbfb8c5d3	-1.4435371
167	0xbf9e5972	-1.2371047
168	0xc0938445	-4.609896
169	0xbf84aa3b	-1.036445
170	0xc00ae593	-2.170262
171	0xbed5d995	-0.41767564
172	0xbf6f0401	-0.93365484
173	0xbf2d458e	-0.6768426
174	0xc06bcde3	-3.6844413
175	0xbff806fa	-1.9377129
176	0xc01f50e7	-2.489313
177	0xbf976792	-1.1828482
178	0xbff6d2a1	-1.9283029
179	0xc0129ff6	-2.2910132
180	0xbf8733d0	-1.0562687
181	0xc05f5441	-3.4895175
182	0xbf4b2500	-0.7935333
183	0xc00aba80	-2.167633
184	0xbee284e9	-0.44242027
185	0xc074de68	-3.8260746
186	0xbf3edeb7	-0.74558586
187	0xc1101550	-9.005203
188	0xc0153b7a	-2.3317552
189	0xc187d1d3	-16.977453
190	0xbf6cd00d	-0.9250496
191	0xc157e1e2	-13.492647
192	0xc12d9dff	-10.851073
193	0xbf880369	-1.0626041
194	0xc15dad72	-13.854845
195	0xbf0db002	-0.5534669
196	0xbfc96037	-1.5732487
197	0xbf8c35a6	-1.0953872
198	0xbf83b1d3	-1.0288643
199	0xbf8055e0	-1.0026207
200	0xc06f4f78	-3.7392254
201	0xbfa33e61	-1.2753412
202	0xc0a557b7	-5.1669574
203	0xc0e462a2	-7.13704
204	0xc088cc4c	-4.2749386
205	0xc093e1de	-4.6213217
206	0xbde96334	-0.113958746
207	0xc08a433a	-4.3207064
208	0xbf860bc2	-1.0472338
209	0xbefdd99d	-0.49580088
210	0xbe08c250	-0.13355374
211	0xc033393c	-2.8003683
212	0xbfecdeae	-1.8505456
213	0xbfcf2d93	-1.6185783
214	0xc096706f	-4.701225
215	0xbf4e3765	-0.80553275
216	0x4088af95	4.2714334
217	0xbf8f8d0d	-1.121492
218	0xc080a005	-4.0195336
219	0xc01863d9	-2.3810942
220	0xbf0b89f8	-0.545074
221	0x406d2504	3.7053843
222	0xbf33d581	-0.70247656
223	0xbfb45c69	-1.4090701
224	0xbf308d83	-0.6896593
225	0xbf2012b0	-0.62528515
226	0xc06c4905	-3.6919568
227	0xc15a841e	-13.657255
228	0xbf3dae70	-0.74094296
229	0xbef2e459	-0.4743984
230	0xbebb8ecc	-0.36632383
231	0xbf57cf92	-0.843011
232	0xbff0f397	-1.8824338
233	0xc1448508	-12.282478
234	0xc1970b96	-18.880657
235	0xbfbbb201	-1.4663697
236	0xbe8f5e7e	-0.2800178
237	0xc000aef3	-2.010678
238	0xc0226bcf	-2.53783
239	0xc0a85122	-5.259904
240	0xc10db331	-8.856248
241	0xbf984ab0	-1.1897793
242	0xc133aaf2	-11.229235
243	0xbf2699ba	-0.6507832
244	0xbfafb4f9	-1.3727103
245	0xbfa19bc0	-1.2625656
246	0xc00ff526	-2.2493377
247	0xc00d0d52	-2.203938
248	0xbf24b81c	-0.6434343
249	0x40a4336d	5.1312776
250	0xc13dac29	-11.854531
251	0xbf2cf443	-0.67560214
252	0xbf6ac5df	-0.9170818
253	0xbeb2d0a8	-0.34924817
254	0xbf0abf56	-0.54198205
255	0xbf82104a	-1.0161221

linear2.weight f4 [256, 256]
0	0xbd297f9c	-0.041381463
1	0xbf52bd0e	-0.82319725
2	0x3f13522d	0.57547265
3	0xc1851a0e	-16.637722
4	0xbf157f0e	-0.58396995
5	0xbd31b818	-0.043388456
6	0xc1c76a31	-24.926851
7	0xbc84b670	-0.016200274
8	0xc01ab9cc	-2.4175901
9	0x3d297920	0.04137528
10	0xbeb343e4	-0.35012734
11	0xbd5a2434	-0.053257182
12	0xbcb7360c	-0.022364639
13	0x3f076d60	0.5290127
14	0xc071aac5	-3.776048
15	0x3f07dde9	0.53072983
16	0xc11f6276	-9.961538
17	0x3cd8d150	0.026466995
18	0xbd553918	-0.052056402
19	0xbcc3b24c	-0.02388873
20	0xc020c2f6	-2.5118995
21	0xc07bdc03	-3.9353034
22	0xbeb1ed82	-0.34751517
23	0xbce01bd4	-0.02735702
24	0xbd2e5ace	-0.042567067
25	0xbd5fe472	-0.05466122
26	0x3d79f88e	0.061028056
27	0x3ba29b50	0.0049623623
28	0x3e29ae22	0.16570333
29	0xbf36e73f	-0.71446604
30	0xbd525d60	-0.05135858
31	0x3cc2b7a8	0.023769215
32	0xbd32ef52	-0.043685265
33	0xbd15d15a	-0.036576606
34	0xbd368cc8	-0.044567853
35	0xbf1d8ffc	-0.6154783
36	0x3ecc744f	0.39932486
37	0xbb969e70	-0.004596524
38	0xbf108bbd	-0.56463224
39	0x3c9cb1a4	0.019127674
40	0xbcfd21cc	-0.030899905
41	0xb9a90300	-0.00032236427
42	0x3cd9c800	0.026584625
43	0xbd5fb4d6	-0.054615818
44	0x3c164828	0.009172477
45	0x3b3b65e0	0.0028594658
46	0x40396ee0	2.8973923
47	0xbc5c4ab8	-0.013445549
48	0x3c118008	0.008880623
49	0xbd00430c	-0.03131394
50	0x3bd214d0	0.0064111724
51	0xbe8eb8eb	-0.27875456
52	0xbed34301	-0.41262057
53	0x3c664338	0.014054112
54	0x3e9d8ac8	0.30769944
55	0x3f106a5b	0.56412286
56	0x3a783c80	0.00094694644
57	0xbccfb271	-0.025353642
58	0xc02cd6a9	-2.7006018
59	0xbd601718	-0.054709524
60	0xbf467cf2	-0.775344
61	0xbd07b5ac	-0.03313224
62	0xbf1a405f	-0.6025447
63	0x3fadba75	1.3572527
64	0xc0018eda	-2.024344
65	0xc177a459	-15.477624
66	0x3fd38cfc	1.65274
67	0xbf1f94bf	-0.62336344
68	0xbd379b9c	-0.044826135
69	0xbee64803	-0.44976816
70	0xbf4bd325	-0.79619056
71	0x3ccc6c54	0.024953999
72	0xbea6c5f7	-0.3257291
73	0x3f54480b	0.8292243
74	0x3ce636bc	0.028102271
75	0xbed42f47	-0.4144232
76	0x3bb09910	0.00538934
77	0xbf355bd4	-0.70843244
78	0x3d14404c	0.03619413
79	0x3d6287f2	0.05530543
80	0x3f03b8b5	0.51453716
81	0xbceb7268	-0.028741077
82	0xc106b1ef	-8.418441
83	0xbcde8cd0	-0.027166754
84	0x3fff225c	1.9932361
85	0xc0138ef5	-2.3056004
86	0x3f0b6142	0.5444528
87	0xc0b686fb	-5.703977
88	0xc14666be	-12.400084
89	0xbfc7ea60	-1.56184
90	0x4111746a	9.090921
91	0xbd1c9d32	-0.03823585
92	0xbd795d18	-0.060879797
93	0x3c840ca4	0.016119309
94	0xbf6d6136	-0.9272646
95	0xbed73ae2	-0.42037112
96	0xbfc736ce	-1.55636
97	0x3efbe530	0.49198294
98	0x3f50e9ca	0.81606734
99	0x3cebb10c	0.028770946
100	0x3c82328c	0.015893243
101	0xbce6a2fc	-0.028153889
102	0xbaa0ed80	-0.0012277812
103	0xbf3372e3	-0.7009718
104	0xbf4622fe	-0.77397144
105	0xc08bcc55	-4.368693
106	0xbd31414c	-0.043275163
107	0xbc8fbcd0	-0.017546088
108	0xc0cb666d	-6.356253
109	0xbcb30b58	-0.021855995
110	0x3b444a20	0.0029951409
111	0x3d3ac604	0.045599
112	0x401b77df	2.4291914
113	0x3ea8dff4	0.32983363
114	0xbf2832a6	-0.65702283
115	0x3f45e011	0.77295023
116	0x40085be3	2.1306083
117	0x3c121f88	0.00891865
118	0xbd63c1c8	-0.055604726
119	0xbebafdcc	-0.36521757
120	0xbd45b004	-0.048263565
121	0x3ea717dc	0.3263539
122	0xbd162980	-0.03666067
123	0xbf234e67	-0.6379151
124	0x3c9f2034	0.019424535
125	0xc0f0868a	-7.516423
126	0x3d00fa48	0.031488687
127	0xbf315276	-0.6926645
128	0x3d06f5bc	0.032949194
129	0xc19c90ef	-19.570768
130	0xbd6b96dc	-0.057516918
131	0x3d785368	0.060626417
132	0xbf28fe4b	-0.6601302
133	0xbd2ecaa4	-0.042673722
134	0x3d2458f4	0.040123895
135	0xbd67be08	-0.056577712
136	0xbf0e2d86	-0.55538213
137	0xbf98ebd4	-1.1946969
138	0x41f858bd	31.04333
139	0xbf0414b5	-0.51594096
140	0x3d50336c	0.05083029
141	0xbf0d7b1e	-0.55265987
142	0x3cb7f37c	0.02245497
143	0x3cd55fa4	0.026046582
144	0x3d0b0fa4	0.033950463
145	0x3f02dffd	0.5112303
146	0xbf3cae97	-0.737039
147	0xbc03c408	-0.008042343
148	0xbefdbe39	-0.4955919
149	0xbc777ed0	-0.015105918
150	0x3f0fca69	0.5616823
151	0xc0ac3e92	-5.382638
152	0xbccbe504	-0.024889477
153	0xbcad8c14	-0.021184959
154	0xbf1c4f98	-0.6105895
155	0xbee6874e	-0.45025104
156	0xbf467563	-0.7752287
157	0xbea2e40b	-0.31814608
158	0xbd78dc0e	-0.060756736
159	0xbb8e26a0	-0.0043381006
160	0x3f082cce	0.53193367
161	0xbea88e40	-0.32921028
162	0x3fa560f4	1.2920213
163	0xbd5f351a	-0.054494
164	0xc162ccec	-14.17503
165	0xbc136528	-0.0089962855
166	0x3b7065a0	0.0036681667
167	0x3d17bc36	0.037044726
168	0xbed98c1c	-0.42489707
169	0x3d404fe8	0.046951205
170	0x3cbb971c	0.022899203
171	0xbc9acfe8	-0.018897966
172	0xbc2d8d18	-0.010592721
173	0xbd709fae	-0.058746032
174	0x3e8ddd6a	0.27707988
175	0xbd61c72a	-0.05512158
176	0x3cf0ac48	0.029379025
177	0xbf1c76e3	-0.61118907
178	0xbf307471	-0.68927675
179	0xbd6ca8bc	-0.057778105
180	0x3d727afc	0.05919932
181	0x3d078764	0.033088103
182	0x3cfcea1c	0.03087335
183	0xc037529d	-2.8644173
184	0x3d30e27e	0.04318475
185	0xc187ff3b	-16.999624
186	0xbd14fe26	-0.036375187
187	0xbfe71b10	-1.8055134
188	0xbb3cb8e0	-0.0028796718
189	0xc103a5cf	-8.227981
190	0xbeff6401	-0.49880984
191	0xbfed750a	-1.8551342
192	0xc07dbdb1	-3.9647028
193	0x3ef8677d	0.48516455
194	0x400e6378	2.224821
195	0x3d0a59c6	0.03377702
196	0x3d1b0c1c	0.037853345
197	0xbf0e97cb	-0.5570037
198	0xbcad9c44	-0.021192677
199	0xbe1be6cc	-0.15224761
200	0x3cdf161c	0.027232222
201	0x3d62c31c	0.055361852
202	0xbf3b06ec	-0.73057437
203	0xbf26e6a1	-0.6519566
204	0xbfb84bb2	-1.43981
205	0xbf164095	-0.58692294
206	0xbb4f1bc0	-0.0031602234
207	0xbebc9ce3	-0.36838445
208	0x3d481ee8	0.0488576
209	0xbcf98844	-0.030460484
210	0xbc8dbd28	-0.01730211
211	0x3f0a3c04	0.53997827
212	0x3c7d1fa8	0.015449442
213	0xbea25241	-0.3170338
214	0xbf043e9c	-0.51658034
215	0xbd78e9aa	-0.060769714
216	0x3ee41384	0.4454614
217	0xb85c2000	-5.248189e-05
218	0xbf333e01	-0.70016485
219	0xbba7f770	-0.0051259324
220	0xbd380d3e	-0.044934504
221	0x3fae96b9	1.3639747
222	0x3cc57468	0.024103358
223	0x3d72280c	0.059120223
224	0xbcb60c60	-0.022222698
225	0xbd4437aa	-0.047904648
226	0xbf093aef	-0.5360555
227	0xc064da5d	-3.5758278
228	0xbf5d0714	-0.86338925
229	0x3d36c8ae	0.044624977
230	0xbd48a8ac	-0.048988983
231	0xbc367a40	-0.011137545
232	0xbece98a8	-0.40350842
233	0xbfc01ef5	-1.5009447
234	0xc084f00c	-4.1543026
235	0x3d4bf640	0.04979539
236	0x3bb421d0	0.005497195
237	0xbd2195ee	-0.039449625
238	0xbbea3120	-0.0071469694
239	0x3cdb7a74	0.026791789
240	0xc12827ee	-10.509748
241	0xbc1b7de8	-0.009490468
242	0x409b3036	4.849635
243	0xbf591efe	-0.84812915
244	0x3e78e85d	0.2430739
245	0xbf017ed4	-0.5058415
246	0xbd1d8bd0	-0.038463414
247	0x4008ff9b	2.140601
248	0xbd1105ce	-0.035405926
249	0x40e32b2e	7.099021
250	0xbfc89450	-1.5670261
251	0x3f074d70	0.52852535
252	0x3d321abe	0.043482535
253	0xbd285a84	-0.041101947
254	0xbd7433bc	-0.05961965
255	0xbeff39ff	-0.49848935

linear2.bias f4 [256]
0	0xc16bf3fc	-14.7470665
1	0xbf6a57e0	-0.91540337
2	0xbeccc484	-0.3999368
3	0xbf1b75ff	-0.6072692
4	0xc02d0867	-2.7036378
5	0xc03627ff	-2.8461912
6	0xc02eecb4	-2.7331972
7	0xbf1018c3	-0.56287783
8	0xbf07e640	-0.5308571
9	0xbf190583	-0.59774035
10	0xbf43022e	-0.761752
11	0xbfd4226f	-1.6573008
12	0xbf667d67	-0.900351
13	0xc04dca40	-3.2154694
14	0xbf1519d6	-0.5824255
15	0xbf1505e8	-0.5821214
16	0xc004d734	-2.075635
17	0xbf2450ce	-0.641858
18	0xbf0a84a5	-0.5410865
19	0xc0350ac2	-2.8287816
20	0xc03d4d3a	-2.9578385
21	0xbf2c8c34	-0.67401433
22	0xbf133ce6	-0.575148
23	0xbf0ebc1f	-0.557558
24	0xbf081cf9	-0.5316921
25	0xbf195308	-0.5989232
26	0xc07f76d4	-3.9916277
27	0xbf249f32	-0.6430541
28	0xbf45e593	-0.7730343
29	0xbf12e607	-0.57382244
30	0xbf157a5d	-0.58389837
31	0xc03b0f94	-2.9228258
32	0xbedb69ca	-0.42854148
33	0xbf1f7589	-0.6228872
34	0xbf206eab	-0.62668866
35	0xbf1dee6c	-0.6169193
36	0xc088db53	-4.276773
37	0xbf141150	-0.57838917
38	0xbf10ea02	-0.5660707
39	0xc0619397	-3.5246332
40	0xbfd70433	-1.6798156
41	0xc060d02c	-3.5127058
42	0xbf020a50	-0.50796986
43	0xbf596111	-0.84913737
44	0xc05c0224	-3.4376307
45	0xc07715ab	-3.8606975
46	0xbf6d423e	-0.926792
47	0xc0adc9c7	-5.430881
48	0xbf756c6f	-0.9586858
49	0xc09c4073	-4.8828673
50	0xbfa3ee3e	-1.2807081
51	0xbea9393c	-0.3305148
52	0xc03cbed2	-2.9491467
53	0xbf1a5c68	-0.6029725
54	0xc0a7710d	-5.23255
55	0xc072a0eb	-3.7910717
56	0xc001ab06	-2.0260634
57	0xc0182009	-2.3769553
58	0xbf0fbc0f	-0.5614633
59	0xc03883f6	-2.8830543
60	0xbedce770	-0.43145323
61	0xbf0e1b65	-0.5551055
62	0xbf07735c	-0.529104
63	0xbf18d20d	-0.5969551
64	0xbf11f1ec	-0.5700977
65	0xbf23c1f3	-0.6396782
66	0xc02ab0e1	-2.6670458
67	0xc0aa580e	-5.323249
68	0x407b13b9	3.9230788
69	0xc0ae1826	-5.440448
70	0xc07bfe06	-3.9373794
71	0xbeccb8f7	-0.39984867
72	0xc07a839a	-3.9142823
73	0xc0391032	-2.8916135
74	0xbf0e39c9	-0.55556923
75	0xbf04f03b	-0.5192906
76	0xc0829f5f	-4.0819545
77	0xc086e94e	-4.2159796
78	0xc010d70d	-2.2631257
79	0xbf137d1d	-0.5761278
80	0xc08bea8d	-4.3723817
81	0xbf0e9a15	-0.5570386
82	0xbfd01a78	-1.6258078
83	0xbf19a397	-0.60015243
84	0xbf291f58	-0.6606345
85	0xbf310909	-0.6915441
86	0xbf99dddd	-1.2020832
87	0xbf00241d	-0.50055104
88	0xbf1db266	-0.6160034
89	0xbfc5573a	-1.5417244
90	0xbf25d74c	-0.6478164
91	0xc09b1369	-4.8461194
92	0xc13ba9bb	-11.728938
93	0xc00d4556	-2.207357
94	0xbf1d729f	-0.6150302
95	0xbf145faa	-0.5795847
96	0xbf1efbfc	-0.6210325
97	0xbff12229	-1.883855
98	0xbf2c8d92	-0.6740352
99	0xbf265a87	-0.64981884
100	0xbf0254d8	-0.5091071
101	0xc0848b85	-4.142031
102	0xbf71015f	-0.9414272
103	0xbfc53076	-1.5405414
104	0xbf26b51e	-0.6512011
105	0xbf0feeb4	-0.5622361
106	0xc09fce76	-4.9939528
107	0xbf211f6e	-0.6293858
108	0xbf1e74db	-0.6189706
109	0xc09fbc28	-4.9917183
110	0xbf157420	-0.5838032
111	0xc13ddceb	-11.866435
112	0xc0507151	-3.2569163
113	0xbf9fc1ef	-1.2481059
114	0xc0a8951d	-5.2682023
115	0xc072c0f0	-3.793026
116	0xbf94ff7e	-1.164047
117	0xbffe45cc	-1.986505
118	0xbf28e4f1	-0.65974337
119	0xc0546e2b	-3.319224
120	0xbf1fbcf3	-0.6239769
121	0xbf119dca	-0.5688139
122	0xbf1c1a29	-0.6097742
123	0xbfac3730	-1.3454342
124	0xc094b4db	-4.647077
125	0xc0527275	-3.288236
126	0xc068b792	-3.6362042
127	0xbf7b2f8c	-0.98119426
128	0xbf6dbb29	-0.9286371
129	0xc01ecbe3	-2.4811943
130	0xc07d2091	-3.9551127
131	0xc06afbf0	-3.671627
132	0xbf20cb5e	-0.62810314
133	0xbf1e0e66	-0.6174072
134	0xbf2423e7	-0.6411728
135	0x3f5498a1	0.83045393
136	0xc08301de	-4.093978
137	0xbf1aeec2	-0.60520566
138	0xc06d0af8	-3.7037945
139	0xbf1cdafd	-0.6127165
140	0xbfebff1e	-1.843723
141	0xc01d762d	-2.4603379
142	0xbf247bb5	-0.6425126
143	0xbeea9d29	-0.4582303
144	0xbf21c328	-0.6318841
145	0xc0601b97	-3.501684
146	0xc0230899	-2.5473998
147	0xbf18d846	-0.5970501
148	0xbfcbe13e	-1.5928113
149	0xbf17f0c2	-0.5935174
150	0xbec149ba	-0.3775156
151	0xbf134572	-0.5752784
152	0xc056b36e	-3.3547015
153	0xbf150a10	-0.5821848
154	0xbf7a38bf	-0.9774284
155	0xbf10f54a	-0.5662428
156	0xbef7933c	-0.48354518
157	0xbca9601d	-0.020675713
158	0xbf0ee355	-0.5581563
159	0xbf143d3d	-0.5790594
160	0xbf0c60b6	-0.5483507
161	0xc0603b21	-3.503609
162	0xc0edaec2	-7.4275827
163	0xc092dc61	-4.5894017
164	0xc01941e2	-2.3946462
165	0x410b35cd	8.700635
166	0xbf1c3b59	-0.6102806
167	0xbf63fe63	-0.8906004
168	0xbf0b6917	-0.5445723
169	0xbffba42e	-1.9659479
170	0xbf1a1acf	-0.60197157
171	0xbfcf1a32	-1.6179869
172	0xbfebfeb3	-1.8437103
173	0xbef960e9	-0.4870675
174	0xbf2170ae	-0.6306256
175	0xbf0fd008	-0.56176805
176	0xbfb06d7b	-1.3783411
177	0xbf0e0c68	-0.5548768
178	0xbeef1fbb	-0.46703896
179	0xbf0cea66	-0.55045164
180	0xc17a296d	-15.635114
181	0xbf21e3c7	-0.63238186
182	0xbf1e6b78	-0.61882734
183	0xbef9b4de	-0.48770803
184	0xbf0f4410	-0.5596323
185	0xc01e8aae	-2.4772143
186	0xbf097a63	-0.5370237
187	0xc00c098c	-2.1880827
188	0xbf2277d8	-0.6346412
189	0xc0106c6d	-2.2566178
190	0xc05db5a3	-3.4642112
191	0xc02494dc	-2.5715857
192	0xbf12cf1d	-0.5734728
193	0xc05aa9cd	-3.4166138
194	0xbf00ea55	-0.5035756
195	0xbf2601c2	-0.6484643
196	0xbffd2167	-1.9775819
197	0xbf065419	-0.5247207
198	0xbf15eeb8	-0.5856738
199	0xc04c604c	-3.1933775
200	0xbf184bf9	-0.59490925
201	0xbf1e4b25	-0.6183341
202	0xc06bc301	-3.683777
203	0xc06ca8ed	-3.6978104
204	0xbf0a8b79	-0.5411907
205	0xbf7c35f8	-0.9851985
206	0xbf07d0b1	-0.5305281
207	0xbf277274	-0.65409017
208	0xbf00152f	-0.50032324
209	0xbf14c81f	-0.5811786
210	0xbf13e47b	-0.5777051
211	0xc12a8d33	-10.659472
212	0xc0482094	-3.1269884
213	0xc0852875	-4.1611886
214	0xbf241599	-0.64095455
215	0xbf1b79eb	-0.6073291
216	0xbf22ac3b	-0.6354405
217	0xc04a4e1a	-3.161017
218	0xbef1f547	-0.47257444
219	0xbf16c956	-0.58900964
220	0xc0e64a8f	-7.1966014
221	0xbf5d0019	-0.86328274
222	0xc00c4eaa	-2.1923013
223	0xbf1aa077	-0.604011
224	0xbf21795a	-0.6307579
225	0xbf08d928	-0.53456354
226	0xbf333562	-0.7000333
227	0xbf101a59	-0.56290203
228	0xbf0e20cb	-0.5551879
229	0xbf2392ab	-0.6389567
230	0xc04982e2	-3.1486135
231	0xbf033787	-0.51256603
232	0xc0079811	-2.1186564
233	0xbf0bd94a	-0.5462843
234	0xc01487be	-2.320785
235	0xbf0bdf48	-0.54637575
236	0x4095e911	4.6847005
237	0xbf0bdab9	-0.5463062
238	0x417a5c59	15.647546
239	0xc02fbb82	-2.7458196
240	0xbf1a9e1c	-0.60397506
241	0xc1542d60	-13.261078
242	0xbf161317	-0.5862288
243	0xbf0c9d8e	-0.5492791
244	0xbf1fbdf9	-0.6239925
245	0xbf14d2a6	-0.58133924
246	0xbedc1925	-0.42987934
247	0xbf05e50a	-0.5230261
248	0xbfb5c926	-1.4202011
249	0xbfe58994	-1.793261
250	0xc045dca4	-3.0915918
251	0xbfceae4e	-1.6146944
252	0xc02c28ea	-2.6899972
253	0x40bc6afa	5.8880587
254	0xc05fdf74	-3.4980135
255	0x4113c05a	9.234461

linear3.weight f4 [4, 256]
0	0x40de01fd	6.9377427
1	0xbeb80cf4	-0.35947382
2	0xbd909b20	-0.07060838
3	0x3f0da7ce	0.55334175
4	0xc02ebc93	-2.7302597
5	0xbe51965c	-0.20467514
6	0xbf02310d	-0.50856096
7	0x3f1aea33	0.6051361
8	0xbeec77e4	-0.4618522
9	0x3f1bf1e9	0.60916
10	0xbec8d26d	-0.39223042
11	0xbf15525a	-0.58328784
12	0xbee0078b	-0.43755755
13	0x407d6579	3.9593184
14	0x3f0f0b69	0.55876786
15	0xbf03a04a	-0.51416457
16	0xbee748d5	-0.45172754
17	0x3f176d4c	0.5915115
18	0x3f25a387	0.6470265
19	0xbc8b858e	-0.017031457
20	0x406bfd05	3.687318
21	0x3eba019e	0.3632936
22	0x3f1f186e	0.6214665
23	0xbef8e687	-0.48613378
24	0xbd59f432	-0.0532114
25	0x3f0b64a5	0.54450446
26	0xbfae38d4	-1.3611093
27	0x3f1ff167	0.62477726
28	0xbe9cd6e7	-0.30632707
29	0x3efee51a	0.49784166
30	0xbf0a906a	-0.5412661
31	0xbcbca0e4	-0.023025937
32	0x3efeed7c	0.4979056
33	0x3f0ed984	0.5580065
34	0x3f15459c	0.5830934
35	0x411b91af	9.723067
36	0x3ee55795	0.44793382
37	0x3f0f1e7f	0.5590591
38	0x3f0fc555	0.5616048
39	0x3fdb80de	1.7148702
40	0xbe9df69a	-0.30852205
41	0x402764c3	2.615525
42	0xbf0877ba	-0.5330769
43	0xbeec0f33	-0.46105346
44	0xc0d5d02b	-6.681661
45	0x40424923	3.035714
46	0xbe872b1d	-0.2640008
47	0x4044fe54	3.078023
48	0xbe3046a2	-0.17214444
49	0xc0d00e22	-6.501725
50	0xbf9ec132	-1.2402709
51	0x3edbf390	0.4295926
52	0xc00a52a5	-2.1612942
53	0x3f0f78f6	0.56043947
54	0x3fa7700e	1.3081071
55	0x3ec08d3a	0.37607747
56	0x3ec05118	0.3756187
57	0xc015dc0d	-2.3415558
58	0x3c89e944	0.016834863
59	0xbefd5705	-0.49480453
60	0x3eead3dc	0.4586476
61	0x3f263a51	0.64932734
62	0x39ab2a00	0.00032646954
63	0x40184577	2.3792398
64	0x3f0d1e3c	0.5512426
65	0xbec35233	-0.3814865
66	0x3e9b494f	0.30329368
67	0x3f3f06c4	0.746197
68	0x4080d65a	4.026166
69	0x407ed334	3.9816408
70	0xbe6073a8	-0.2191912
71	0xbee94ece	-0.45567936
72	0x401baa4f	2.4322698
73	0x3fc6ea2c	1.5540214
74	0x3f18bbb6	0.59661424
75	0x3efe4c87	0.4966776
76	0xbfb0d009	-1.3813487
77	0x401a6903	2.4126594
78	0xbe95e203	-0.29273996
79	0xbea7d7d0	-0.3278184
80	0x40e0ff39	7.031155
81	0x3f178d47	0.5919995
82	0xbeb9ccfa	-0.36289197
83	0x3f0e05e1	0.5547772
84	0x3f1bac3e	0.60809696
85	0xbea7419a	-0.32667238
86	0xbec01295	-0.37514177
87	0x3f0d5914	0.5521405
88	0x3f0bb713	0.54576224
89	0xbf03e875	-0.51526576
90	0x3f224934	0.6339295
91	0x40951af1	4.6595387
92	0xc12d8d39	-10.846978
93	0xbf82b5d7	-1.0211743
94	0x3d5dd188	0.054154903
95	0x3f0b595d	0.5443323
96	0x3f0e079a	0.5548035
97	0xbe6331bc	-0.22186941
98	0x3d480db4	0.048841193
99	0x3f0db307	0.553513
100	0x3d4b77a6	0.049674653
101	0x3fbf9680	1.4967804
102	0xbedeb090	-0.43494081
103	0xbfada5af	-1.3566188
104	0x3f0ec251	0.55765253
105	0xbeaa7e5f	-0.33299538
106	0x3e6da58f	0.23207687
107	0x3f19736b	0.5994174
108	0x3f15d818	0.5853286
109	0x3ff12f2d	1.8842522
110	0xbf03f45c	-0.5154474
111	0xc05f97a2	-3.49363
112	0x3fe26790	1.7687855
113	0x3ea6c300	0.32570648
114	0x3fbe509f	1.4868354
115	0x3fd83f35	1.6894289
116	0xbee72547	-0.45145628
117	0x3efc3216	0.49256963
118	0x3f1375d6	0.5760168
119	0x3fcc309e	1.5952337
120	0x3f1c0f91	0.6096125
121	0xbefef71d	-0.49797907
122	0x3f1cc744	0.61241555
123	0xbe7307da	-0.23733464
124	0x4020e4e2	2.51397
125	0x4033fa91	2.8121684
126	0x3ff308f0	1.8987103
127	0x3f26f255	0.6521352
128	0xbee8e3d3	-0.45486316
129	0xbefad270	-0.48988676
130	0x4002e00e	2.0449252
131	0x3f9c4398	1.2208128
132	0x3f19ae70	0.60031796
133	0x3f0fd77b	0.5618817
134	0x3f0adc4e	0.5424241
135	0x400f42fc	2.2384634
136	0xbf78f55e	-0.972494
137	0x3f0bd637	0.5462374
138	0x3fcf85a8	1.6212664
139	0xbf092bb6	-0.5358232
140	0xbfeee671	-1.8664075
141	0xbf83feff	-1.0312194
142	0x3f154372	0.5830604
143	0x3d4e0b4e	0.05030375
144	0x3f16324f	0.58670515
145	0x40206095	2.505895
146	0xbfcc28e0	-1.5949974
147	0x3f161205	0.58621246
148	0xbf054619	-0.52060086
149	0x3f244595	0.64168674
150	0xbeb4e303	-0.35329446
151	0x3f06b84e	0.52624977
152	0x3fda5e2f	1.7059993
153	0x3f0f770c	0.56041026
154	0x3ebc7a02	0.36811835
155	0x3f171c54	0.590276
156	0x3efed95c	0.49775207
157	0xbec87933	-0.39154968
158	0x3f21bdf6	0.6318048
159	0xbf080740	-0.5313606
160	0x3f2054ab	0.62629193
161	0x40028761	2.0395129
162	0xc0ff80ab	-7.9844565
163	0x3f72f799	0.94909054
164	0xbff39497	-1.9029721
165	0xc0a85fb4	-5.2616825
166	0xbea3f006	-0.3201906
167	0xbeded036	-0.43518227
168	0x3f0a1791	0.5394221
169	0xbe5c532c	-0.21516103
170	0x3f17798e	0.5916985
171	0xbeee8bc8	-0.4659102
172	0xbf1926f7	-0.5982508
173	0xbefa68b6	-0.48908013
174	0x3f10e71f	0.5660266
175	0x3f118f5b	0.5685937
176	0x3e98f132	0.29871517
177	0x3eda7136	0.42664498
178	0xbef78555	-0.48343912
179	0x3f139512	0.5764934
180	0x409467cb	4.63767
181	0xbea55253	-0.3228937
182	0x3f1e1f13	0.61766165
183	0x3efb8c84	0.49130642
184	0x3f0a1e86	0.53952825
185	0x3ea88a62	0.32918078
186	0x3f049911	0.5179606
187	0xbe5fc7db	-0.21853583
188	0xbd050a2c	-0.032480404
189	0x3fe09f78	1.7548666
190	0x40276789	2.6156943
191	0xc0269d31	-2.6033442
192	0x3f1c772f	0.6111936
193	0x3fd9776e	1.6989572
194	0xbd6afd06	-0.05737021
195	0x3f11acb2	0.5690414
196	0xc00b6339	-2.177931
197	0x3f04e7b7	0.5191607
198	0x3f0ee7d9	0.5582252
199	0xbff5a1c6	-1.9189994
200	0xbea9f6ee	-0.33196205
201	0x3f146635	0.57968456
202	0x4024ce90	2.5751076
203	0x3fe69f80	1.8017426
204	0xbf09c1ee	-0.5381154
205	0xbef6d2a3	-0.48207578
206	0xbf0c4169	-0.5478731
207	0xbef993ce	-0.4874558
208	0xbea3a5d7	-0.31962463
209	0x3f114222	0.56741536
210	0xbc92c0c4	-0.017914183
211	0xc0beac84	-5.958559
212	0x3fcd1ecc	1.6025023
213	0x3feb4955	1.8381754
214	0x3f1c8325	0.6113761
215	0x3f0e4cd1	0.5558596
216	0x3f142f26	0.5788444
217	0xbfd91a67	-1.6961182
218	0xbeeb732f	-0.45986316
219	0x3f17517b	0.59108704
220	0x401174b7	2.2727487
221	0xbebbff1d	-0.36718073
222	0x3f033544	0.5125315
223	0x3f0fc54d	0.5616043
224	0x3f1362e7	0.5757279
225	0xbf09754e	-0.5369462
226	0xbcbbfa10	-0.022946388
227	0x3f0d12ec	0.55107
228	0x3efe5683	0.49675378
229	0x3f1b098b	0.60561436
230	0x3fdc44f5	1.7208544
231	0xbd011e5a	-0.031523086
232	0x3eb5fb89	0.3554347
233	0xbef68b01	-0.48152927
234	0xc02fc96c	-2.7466688
235	0x3f0bb8bf	0.54578775
236	0xc005c3a0	-2.090065
237	0x3f15fd88	0.58589983
238	0xc0a7a577	-5.2389483
239	0x401c47b6	2.441877
240	0x3f1870eb	0.595473
241	0xc02dd263	-2.715966
242	0xbefd649e	-0.49490827
243	0xbf003f21	-0.5009633
244	0x3f15ccf7	0.58515877
245	0x3f1187a7	0.56847614
246	0xbea3f22e	-0.32020706
247	0xbcba2740	-0.022723794
248	0xbf035e12	-0.51315415
249	0xc0487218	-3.1319637
250	0xbebae2a6	-0.36501044
251	0x3fe635b6	1.7985141
252	0x3f8659c1	1.0496141
253	0xbf036b98	-0.5133605
254	0x3fecceaf	1.8500575
255	0x41253a31	10.326707

linear3.bias f4 [4]
0	0xbf82f57d	-1.0231167
1	0xc1178642	-9.470278
2	0x4155af5a	13.35531
3	0xbfd8e68e	-1.694536
