models/model_city1.bin (torch_old, 273482 bytes, 6 tensors)

linear1.weight f4 [256, 4]
00000000: 59d7 e5c0 70d2 acc0 1565 87c0 537e 1340
00000010: a665 1bbf e649 29bf 05df 33be a0ae 18be
00000020: 3c21 6abf c222 05bf 0ae3 a1be 859d 88be
00000030: 80e1 89bc c637 c6be 70d0 12bd e6d7 97be
00000040: a910 36bf f5ee d6be d4f5 c4be 18f2 7fbe
00000050: 6abe 33c0 d7ff b8bf b469 03c0 b7f8 ebbf
00000060: 4554 9bbe d925 11be a40e 34be d89f cebd
00000070: 3bec 10bf 1631 7ebf f30b b7be ead6 c1be
00000080: e36b 88bf bf95 3cbf 5e27 adbf 65a7 c8bf
00000090: 78f9 c6be fc07 c8be c80f 27bf 38db 2bbf
000000a0: 35ac 18c0 86bd d2be 00b4 79be 1801 0bbe
000000b0: f2ad 29c0 80ce 0ec0 9e1e 28c0 779c 98be
000000c0: c392 dcbf 37cc 1ebf f671 82bf d02d fa3c
000000d0: a147 0f41 2a47 a5be be8f 123f 965c 21c1
000000e0: 5167 34be f27b 5ebf 180f 1bbf 6cca 28bf
000000f0: d0de 84c0 a241 18c1 1f2b 5bc0 c2af 7940
00000100: a8cf 78be ca02 9dbe b853 54be 06b5 87be
00000110: 898a d4be 1a59 a4be b9de bebe 0f12 dfbe
00000120: 38aa 073e 301c 8bbf e1bc 73be a9ed 57be
00000130: 69e7 70bf a0a6 fabd 80fc 68bf c639 93bf
00000140: 404e 11c1 53a0 893f 5ce7 2840 2872 aac0
00000150: f2bd 45be e017 abbe d819 aebd 9e07 6cbe
00000160: 8485 76be a606 abbe 8ef6 edbe 074c b7be
00000170: f6ac 17be 2e4d b7be 67b3 83be a632 25bf
00000180: 2a55 38bf a075 cf3c 945e 0ebf b870 a4be
00000190: 0849 08bf 048a 58bf ef4e a0bf b12c 3cbf
000001a0: 608e 49bf c391 bcbe 9c05 cfbe 6ee2 36be
000001b0: 920b e9be 1cdf 3ebe ca2b 89be daae d8be
000001c0: 4e83 8cbe 7017 a7be 6072 49be a08b 6dbd
000001d0: 189c 8cbe 1fd5 83be 6dcd 3abf 4ce8 16bf
000001e0: 4bf5 36bf 3024 28bd 10df ffbe 73fa 03bf
000001f0: efca 9ebf ea19 fdbe dd3c 78bf fee9 dcbf
00000200: a088 93bf 1389 63bf 05ea 3ebf ee1b 18bf
00000210: 1517 19bf 33f5 7fbe ab08 91be 46a0 debe
00000220: afbc 37bf 7056 24be 8eba 9fbe 0760 f3be
00000230: c3e1 44be 949e 3ebe ecaa 89be a055 6fbe
00000240: 4cb8 96be f46c 0dbe 849d 05be f3ca d9be
00000250: 42e4 e5c0 bd9c a6bf 591a 22c0 7051 95c0
00000260: 258c 30bf 0811 b7be d438 8cbe dcae c8bd
00000270: 88ed 40be a064 14be 8adb cebe c995 ffbe
00000280: 10b5 65bd 0066 583b 3060 07be 8f69 08bf
00000290: 50fe 5e3d 4eba c1be 8827 b4be 64af a7be
000002a0: 3016 cebe c018 b9bc d8cd b3bd 8c6e 5abe
000002b0: 5b87 343f 4320 1a40 b772 413f a3cb e3be
000002c0: 9f50 b1be 6259 20bd 6475 f2be 1e1e e8be
000002d0: b1b5 0ebf 2f12 8fbe 599f 2dbe e767 09c0
000002e0: a4ad 93bf 9f67 23bf 9499 4dbf c01c 2f3d
000002f0: 0020 bb39 4844 c8be 4044 84bc 4067 9ebe
00000300: d899 e1bf 273d c3c0 7d4c d63e fad6 48c0
00000310: 6689 c9be 1a30 a8be 506c 403d 6825 c5bd
00000320: 2864 eebe 3ba8 00c0 c1c4 f2bf ec08 28be
00000330: f871 f1bd e377 28c0 88d1 4ac0 0db3 46c0
00000340: e885 24bf feea febe 8be4 2ebf 5cff aabd
00000350: 038b d13f 4933 5dc0 730a 1140 7136 a03f
00000360: 15f8 58be 48e9 3bbf 85b2 04be 00a7 e5bc
00000370: afe7 aebf da9f f3be 6d4f 86bf 4efd c9bf
00000380: b6dd d8be 4bed 1abf 34f9 a9bf e62b 73bf
00000390: 08b8 ccbe 62d0 11bf 2a32 15be 5b4e a5be
000003a0: dfdc 6d40 505a 9f3f ab9a 2b3e c8bd 16c0
000003b0: 91f2 babf afc0 69bf dc30 16bf c727 d8be
000003c0: f1f7 d5be 13ed 53bf a6d5 c1be 3cc2 e4be
000003d0: c7da 13c0 2248 28c0 6618 ebbf 51f4 27c0
000003e0: 601c 26c0 4a5d 2e40 4847 b63d c2b1 d43e
000003f0: 27cb e2be 2ecf 40bf b2e6 99be 30f2 16bd
-7.1825376 -5.400688 -4.231089 2.3045852 -0.6070198 -0.66128385 -0.17565544 -0.14910364
-0.9145696 -0.5200616 -0.3161853 -0.26682678 -0.01683116 -0.38714427 -0.035843313 -0.29656905
-0.7111917 -0.41979185 -0.38468802 -0.24994695 -2.808497 -1.4453076 -2.0533266 -1.8435277
-0.3033773 -0.14174594 -0.1758371 -0.100890815 -0.5661046 -0.9929365 -0.35751304 -0.3785928
-1.0657924 -0.73665994 -1.3527639 -1.5676085 -0.38862205 -0.39068592 -0.65258455 -0.67131376
-2.3855107 -0.4116022 -0.24385071 -0.13574636 -2.6512418 -2.2313538 -2.6268687 -0.29806873
-1.7232288 -0.6203036 -1.0191028 0.030539423 8.954988 -0.32280856 0.57250583 -10.085104
-0.17617537 -0.86907876 -0.60569906 -0.6593387 -4.152199 -9.516024 -3.424507 3.9013524
-0.24297965 -0.3066619 -0.20735061 -0.26505297 -0.41511944 -0.3209923 -0.372793 -0.43568465
0.13248527 -1.0867977 -0.2380252 -0.21086754 -0.94103104 -0.122388124 -0.91010284 -1.1502006
-9.081604 1.0752052 2.639121 -5.326435 -0.1931074 -0.33416653 -0.08501023 -0.2304978
-0.2407437 -0.3340351 -0.4647717 -0.35800192 -0.14812073 -0.3580107 -0.2572281 -0.6453041
-0.7200495 0.025324643 -0.55613065 -0.32117248 -0.53236437 -0.84585595 -1.2524089 -0.73505694
-0.7873287 -0.36829957 -0.40433967 -0.17859814 -0.4551664 -0.18639797 -0.2679122 -0.423209
-0.27443928 -0.3263507 -0.19672537 -0.057994485 -0.2746284 -0.25748536 -0.72969705 -0.58948207
-0.7146804 -0.041050136 -0.4997487 -0.5155403 -1.240568 -0.49433833 -0.9696787 -1.7258909
-1.152607 -0.88881034 -0.74575835 -0.5941762 -0.59800845 -0.2499588 -0.28326926 -0.43481654
-0.71772283 -0.16048598 -0.31197017 -0.475342 -0.19226746 -0.1861518 -0.26888216 -0.23372507
-0.29437482 -0.13811094 -0.13048369 -0.4253765 -7.1841135 -1.3016583 -2.5328581 -4.666191
-0.68963844 -0.3575518 -0.27387106 -0.09798977 -0.18840611 -0.1449151 -0.4040187 -0.49918965
-0.056080878 0.003301978 -0.13220286 -0.5328607 0.05444175 -0.37837452 -0.3518641 -0.32751
-0.40251303 -0.02259481 -0.08779496 -0.21331233 0.70519036 2.408219 0.75565666 -0.444913
-0.34631822 -0.039147742 -0.47355187 -0.45335478 -0.5574599 -0.2794356 -0.16955318 -2.1469667
-1.1537366 -0.6382999 -0.80312467 0.042752028 0.0003569126 -0.39114594 -0.016145825 -0.30938148
-1.7625074 -6.101215 0.4185523 -3.1381211 -0.3936264 -0.328492 0.046978295 -0.09626275
-0.46560788 -2.010268 -1.8966295 -0.16409653 -0.11789316 -2.6323173 -3.1690388 -3.1046784
-0.64266825 -0.4978866 -0.6831748 -0.08349487 1.6370548 -3.4562552 2.2662628 1.2516614
-0.21188386 -0.73402834 -0.12958725 -0.028033733 -1.3664454 -0.47582895 -1.0492989 -1.5780427
-0.42356652 -0.6051833 -1.3279176 -0.9498886 -0.39984155 -0.5695859 -0.14569917 -0.32286343
3.716606 1.2449436 0.1675822 -2.3553333 -1.4605275 -0.91309637 -0.58668303 -0.42217848
-0.41790727 -0.8278362 -0.37858313 -0.4467944 -2.310228 -2.6294026 -1.8366821 -2.624287
-2.5954819 2.724444 0.089003146 0.41541868 -0.44295618 -0.7531613 -0.3005882 -0.03685206

linear1.bias f4 [256]
00000000: 4118 8ac1 a71a 2abf 68d8 09bf d4c0 44bf
00000010: a1a5 59bf 8628 0bc1 6a47 53bf 6ade 38be
00000020: 4a95 16c0 13cc 83bf e5b2 3ec0 35be 59c0
00000030: c9ab 3bc1 0be2 da41 13db c0bf b9cc 37c0
00000040: 64a5 b5be b27a 36bf d7a2 febf 4436 edbf
00000050: 5606 81c1 ff14 85bf 498e 70bf 5159 4bbf
00000060: cf53 80bf e142 40c1 542b 7dbf f349 02bf
00000070: 6d7d eebe 4b46 a9bf db87 97be 185c e8bf
00000080: c38c 37c1 f704 94bf d212 40bf 3b8f 62bf
00000090: a21b 5ebf 67f6 38c0 a718 2bbf 66ad 30bf
000000a0: 6a0c cebf 6402 3abf 12f0 1bbf a162 cdc1
000000b0: c085 36bf b01c fec0 46f9 19c1 f881 61bf
000000c0: f4b8 cac0 d12f 35bf 909d 06c0 c1a4 5fc0
000000d0: 974d 68bf a2c9 b4c1 4134 0dbf 22b7 3abf
000000e0: a22a c4bf 8eb3 97bf 2210 f9c1 502d 3bc1
000000f0: 1dca 9bbe 3b62 26c0 8168 44c1 d97f 09bf
00000100: 2ae9 edbe 4096 17bc 9116 fdbe 6fcd 15bf
00000110: 582c 7cbf 017e e1bf 3adf 6dbf f081 36c0
00000120: af2f 65bf 19b0 95bf f16c 29bf f4f3 6cbf
00000130: b3b4 c0bf 08c6 73c0 9e03 e3bf 67c3 81bf
00000140: 71fb 3cc1 03d8 0141 c0e3 10bf 3cd7 23c1
00000150: f0f2 24c1 671d c4bf f4a2 35bf 4051 aac1
00000160: 5a80 e9c0 31a5 66bf 437a bfbf 43ed b7bf
00000170: b76c f0bf 2b5f 44c1 d636 c5be 488c 6ebf
00000180: c134 87bf 57ce 22bf 5007 c4bf 7999 4bc0
00000190: a3de e8bf dd97 a3c0 c7a8 54bf 4e22 68bf
000001a0: 21a5 35c1 b3fc d0bf bd14 0abf dd03 c4be
000001b0: 6344 33c1 bb2c 86c0 4eeb c5c0 32fb 7bbe
000001c0: bcd3 c0bf d615 fcbe 5051 1ec0 dd48 5ac0
000001d0: ef0a e0bf a6d2 bdbe 986d 2cbf 5d8f 00bf
000001e0: 09de f7be 07e8 1cc0 e727 35c1 713c 20c1
000001f0: bcde c3bf aa06 35bf af41 4ebf 11e5 41c1
00000200: 8f37 92c1 10a6 4cbf 98a7 1cbf c523 04bf
00000210: d48a fbbf 1cd6 7ebf 777c 85be 96cd 01c0
00000220: e513 4ac1 d9e2 28bf e18d 81bf 386c a2bf
00000230: 7511 54bf fca5 5abe bfad b2bf 0a54 19c1
00000240: 029b 86be 47d7 7dc0 c155 38bf 2794 64c0
00000250: b134 4dbf d7bf 61c0 60ea efbe 539a 0ebf
00000260: 91d6 3ac0 c785 5dbf e53d 23c1 1708 9dbf
00000270: 87f6 03bf eb49 adc0 0a98 d0bf 94d0 94be
00000280: a464 55bf f069 f0be 1f32 10c1 f3cf 9cbf
00000290: f8c4 0ec1 dec3 82be 75bb 0bc1 d5f7 9641
000002a0: 9143 c8bf 7ff4 13c0 6429 13bf 2978 22c0
000002b0: 0249 a1bf beb4 0cc1 0b81 97c0 c428 d9bf
000002c0: 2a9c 75bf f686 cabf fe68 38c0 1049 0fbf
000002d0: 6ddc 66bf 9936 71bf dae9 d5be 141b 07bf
000002e0: 0336 d8be 7568 f4be 141e f8bf bc34 57bf
000002f0: d5a9 93bf a258 44bf a92e 47c0 53a6 2fbf
00000300: 48f9 5abf c9b1 03c0 c2b9 87bf 240b 6cbf
00000310: 1fb1 e5bf 41d8 6bc0 5d4c 4cbf ed55 c1bf
00000320: 36b6 6bbf ee73 ddc0 12a4 b1be 8739 9cbf
00000330: 1209 f4be 340c e8bf ca4f 19bf fc0b 4dbf
00000340: cb9d d4bf 5dda 3fbf ef6f febe 671f cec0
00000350: 3f43 f2c0 89c5 3ec1 a036 24bf 39b5 77bf
00000360: 26dd e9c1 7891 4cbf cbc4 21bf 5cc2 20c1
00000370: db9e 3dc0 59c2 5cbf f307 bebf 5694 88c0
00000380: fca1 85be a198 25bf 6ee2 a4bf de79 41bf
00000390: cf5e 3fbf 7e52 9fc1 6817 01be a8a3 32c1
000003a0: 8de1 35bf 6e4c 46bf 7a9e d8be c05c 3fc0
000003b0: 37ac 2dbf b0e0 b1be 182b 46c0 a381 0ec1
000003c0: 5dad aec0 644f bbc0 19a1 6fc0 e04f a4bd
000003d0: 7bab 01bf d64d 60bf 6255 3bc1 be80 22c0
000003e0: b8bd 0cc0 c959 1fbf afc0 53bf 5de3 06c1
000003f0: 94ff 0fc1 f17b a8be 84ac 79bf 89dd d1c0
-17.261843 -0.6644692 -0.53845835 -0.7685673 -0.85018355 -8.697393 -0.82530844 -0.18053594
-2.352862 -1.0296654 -2.9796689 -3.4022343 -11.72944 27.360373 -1.5066856 -2.8718703
-0.35477746 -0.7128097 -1.9893445 -1.8532186 -16.128094 -1.0397032 -0.9396711 -0.7943316
-1.0025576 -12.016328 -0.9889424 -0.5089409 -0.46580067 -1.3224577 -0.29595837 -1.8153105
-11.471866 -1.1564015 -0.7502872 -0.884998 -0.86760914 -2.8900392 -0.6683449 -0.69014585
-1.6097538 -0.726599 -0.60913193 -25.673159 -0.71297836 -7.941002 -9.623358 -0.8808894
-6.3350773 -0.7077609 -2.1033669 -3.4944308 -0.9074339 -22.598454 -0.5515786 -0.7293569
-1.532551 -1.1851671 -31.132877 -11.698563 -0.30427638 -2.5997455 -12.275514 -0.53710705
-0.46466953 -0.009252131 -0.4943128 -0.5851659 -0.98505163 -1.7616578 -0.9291874 -2.8516808
-0.89525884 -1.1694366 -0.66181856 -0.9255974 -1.5055145 -3.8089619 -1.7735479 -1.0137757
-11.811387 8.115237 -0.5659752 -10.240047 -10.309311 -1.5321473 -0.7095177 -21.289673
-7.296918 -0.9009581 -1.4959186 -1.4369282 -1.8783177 -12.273234 -0.385184 -0.931828
-1.0562974 -0.635961 -1.5314732 -3.1812422 -1.8192943 -5.112288 -0.83070034 -0.90677345
-11.352815 -1.6327118 -0.53937894 -0.38284197 -11.204196 -4.1929603 -6.1849737 -0.24607542
-1.5064616 -0.4923541 -2.473713 -3.4106972 -1.7503337 -0.37074775 -0.67354727 -0.50218755
-0.48411587 -2.4516618 -11.322242 -10.014756 -1.5302348 -0.70713294 -0.80568975 -12.118424
-18.277128 -0.7994089 -0.6119323 -0.5161708 -1.9651742 -0.99545455 -0.26071522 -2.028173
-12.629857 -0.6597114 -1.0121423 -1.2689276 -0.8283914 -0.2135238 -1.3959273 -9.583017
-0.26290137 -3.9662645 -0.7200585 -3.5715425 -0.80158526 -3.527334 -0.468585 -0.5570423
-2.919346 -0.86532253 -10.202611 -1.2268094 -0.51548046 -5.415273 -1.6296399 -0.29065382
-0.8335669 -0.46955824 -9.012237 -1.2250961 -8.923088 -0.2554006 -8.733266 18.871012
-1.564562 -2.3117979 -0.5748503 -2.538584 -1.2600405 -8.7941265 -4.7345023 -1.6965566
-0.9594141 -1.5822437 -2.8814082 -0.5597086 -0.90180093 -0.94223934 -0.41779977 -0.5277569
-0.42228708 -0.47735944 -1.9384179 -0.8406484 -1.1536204 -0.7669774 -3.112223 -0.68613166
-0.85536623 -2.0577261 -1.0603564 -0.922045 -1.7944678 -3.685074 -0.7980402 -1.5104347
-0.92074907 -6.9204016 -0.34695488 -1.2205056 -0.4766317 -1.8128724 -0.59887373 -0.8009641
-1.6610655 -0.7494257 -0.49694774 -6.4413333 -7.5707088 -11.923226 -0.6414585 -0.967609
-29.232983 -0.7990947 -0.6319091 -10.047451 -2.9628208 -0.8623405 -1.4846176 -4.2681074
-0.26100147 -0.6468602 -1.2881601 -0.7557658 -0.7475404 -19.91528 -0.12606585 -11.164955
-0.7104729 -0.7746037 -0.42308408 -2.990036 -0.67840904 -0.34741735 -3.0963802 -8.90665
-5.4586625 -5.853441 -3.7442076 -0.080230474 -0.50652283 -0.8761877 -11.708345 -2.5391078
-2.1990795 -0.62246376 -0.82715887 -8.430509 -8.999897 -0.3290706 -0.9752886 -6.558293

linear2.weight f4 [256, 256]
00000000: 50f9 e2be 05ec e8be 72a7 45bf 508f 9abb
00000010: fa48 063f 2739 a2bf e264 3abd dbc0 3abe
00000020: 2850 b6be 8805 55bc 78f7 733d 8a35 0fbf
00000030: 86d1 8ec0 4cc6 e1bf 0768 0cbf ef04 1e40
00000040: e0a6 2ebd 08b6 d1be d009 adbe e037 e6bd
00000050: 4b2b 973f eeae 7b3d 0c59 0bbf 754f 313f
00000060: b450 e6be 41ab 8cc0 5f7a 3cbf 3c6b d43c
00000070: 3c99 e33c d36d 19be e946 063f 851c 293f
00000080: 7056 0fc0 d00d 02bf 397d afbe 687f 26be
00000090: 408e 2a3b 9049 9fbe 2f8e 56bf 041d 84bc
000000a0: a85f 06bf ca49 f1be 88bb 043c bea5 bec0
000000b0: a873 323c c0eb bcbf c256 10c0 1bad 0dbf
000000c0: a5c1 fcbf 84e7 033d bbaf fabf 1415 bb3c
000000d0: 698c 3bbf 5596 8f3f b362 1ebf 2a17 a93f
000000e0: b742 2a3f 2849 0bbf fac9 e8bf 4ac3 86c0
000000f0: 643e 473f d390 32bf cfb1 08c1 36f8 043f
00000100: aa7c 00bf e2a6 5e3d 587a 6cbd f2da 653e
00000110: 62e9 d5be 3852 05bf dcef adbc ec0c e73f
00000120: 5d32 f8be 00b3 ca3c 3718 2cbf 0a64 07bf
00000130: d8a9 50bd 5816 8f3c 806b 55bb bbf2 03bf
00000140: 0eec 6cc0 99b3 f93f 1588 98be b8e4 5cc0
00000150: 6e4c e7c0 fe48 143f a52c 00bf 8a65 993f
00000160: a2bf 16c0 7f8e 0cbf 6691 01bf 4ad2 bcbe
00000170: 5c87 093f 8bbd 30c0 0c7f f4bc 89a4 02bf
00000180: dcb2 9cbd ec19 e4be 68cd 183d 1b2d 723e
00000190: 4aa1 8bbf 0c78 813f 3ecf 04bf 1e32 16bf
000001a0: b7b2 95c0 0800 f23c 1d7c 0bbf 52ec 353f
000001b0: 565d 02c0 347d dbbe 4803 0f41 eb94 36be
000001c0: 0cff 9b3c 662e 023d 9d44 093f fcee 2bbe
000001d0: 5462 9b3f 2818 3fbd 9071 0abf e482 973c
000001e0: a067 d0bc 12d1 4bbf 9ba5 18c0 96d0 2cc0
000001f0: 7ad2 cfbe adaa 1fbf 7848 7bbc 094f 23c0
00000200: 0f5b f1bd 60f0 343b fa5f 19bf 6634 07bd
00000210: 0cc9 133f 1933 07bf 240d f13e abf3 3a3f
00000220: fa4b ebbf 026c 0bbf e815 d3be 1e93 08be
00000230: 3cbc 4abf 1a4f 88bd 2d50 c0be 8c65 8fc0
00000240: 5c4a 82bc 9153 21bf e4b7 a2bc a54a a2bf
00000250: 9fc4 f6be 8bef bd3f 5ed3 21bf be4a 713d
00000260: 0099 3abf 8f4d 0e3f 80fe 86c0 d5f8 50be
00000270: 407f e83b ed23 88bf be33 843f d0e9 c1bb
00000280: ad98 c0be a2fe 0fbd 3ff1 01c0 5fd3 81be
00000290: 9767 7fbf 443f b8bc 43ca d8bf 39e6 74c0
000002a0: 3e2e 0cbf cb52 04c0 581e 613c afda 9b40
000002b0: be89 0fbf a521 94bf 9a78 1440 ec94 02bf
000002c0: 3cbe dbbc 9e5d a43f 767d 0c3d 22e2 443d
000002d0: a327 babd 188e cabe c067 853c 0866 3bbd
000002e0: 601f 77bc 2c50 9bbc 3490 dc3c 5db4 1abf
000002f0: a083 1fbf 8c22 4cbf 8296 94bf c641 49bd
00000300: 23f2 ddbe fc8a e33f 5a21 41bf 16c4 a6bd
00000310: 28bc fabc aff0 3dc0 4c6b 1cbf 1525 a23f
00000320: 52fe 583d da68 4ebf dc22 013f 273d fabe
00000330: 4387 1c3f 18f7 a43f d33a 43bf 271b ea3e
00000340: 8234 9fbf 5623 7abd 03c2 0cbf 6e05 1540
00000350: ea8d 87bf 063c 92c0 561d 323d 6e9b 5fbe
00000360: 26f5 55c1 7f0a 47bf ea0d 2c3f ae8c 94c0
00000370: 988e 12bc 2198 f9be e81c 24be 7054 1b3f
00000380: 90bc c13b 84a2 133d 34c2 05bd 36ea e53e
00000390: 9d2b 4fbf fe71 b9c0 a69b 233d e816 96c0
000003a0: c62b 1bbf b03e 7d3c 6e24 343d f27a 773d
000003b0: 57ec 13bf 7eb6 38bd 908f 21bd 1d1f 76bf
000003c0: 4051 65bb 4c27 e6bf 9d98 07c0 0013 203b
000003d0: 589d d5bc 8e09 0fbf f681 17c0 7eb0 0cbf
000003e0: 4c11 77bf d83c 6fbc 11c6 10bf 3e6a 2fc0
000003f0: 405e 81bf a8a1 5bbc 8d73 00bf c72b d9bf
-0.44330835 -0.4549257 -0.77208626 -0.004716791 0.52455103 -1.2673692 -0.045506366 -0.18237631
-0.3560803 -0.013001807 0.059562176 -0.5594107 -4.4630766 -1.763864 -0.54846233 2.4690511
-0.042639613 -0.4095919 -0.3379655 -0.11241126 1.1810087 0.061446123 -0.5443275 0.69261867
-0.44983447 -4.395905 -0.73624223 0.02593004 0.027783029 -0.14983301 0.5245195 0.6605914
-2.2396507 -0.50802326 -0.34275225 -0.16259539 0.002602473 -0.3111081 -0.83810705 -0.016127117
-0.5248971 -0.4712661 0.008101352 -5.957732 0.010891832 -1.4759445 -2.2552953 -0.55342263
-1.9746596 0.032203212 -1.9584879 0.0228372 -0.73261124 1.1217753 -0.61869353 1.3210194
0.6650805 -0.544085 -1.8186638 -4.211339 0.77829576 -0.69752234 -8.54341 0.5194124
-0.5019022 0.05435837 -0.057733864 0.22446802 -0.4177962 -0.5207858 -0.021232538 1.8050818
-0.48475924 0.024743557 -0.6722445 -0.5288702 -0.050943226 0.017466709 -0.0032565296 -0.5154225
-3.7019076 1.9507934 -0.29791322 -3.45146 -7.22808 0.5792388 -0.5006812 1.1984112
-2.3554463 -0.5490493 -0.50612485 -0.36879188 0.53722167 -2.7615688 -0.029845737 -0.5103231
-0.07651302 -0.44551027 0.037305266 0.23650019 -1.0908597 1.011476 -0.51878726 -0.5867022
-4.678066 0.02954103 -0.54486257 0.7106372 -2.0369468 -0.4286896 8.938301 -0.17830245
0.019042514 0.03178253 0.5362032 -0.16790384 1.2139382 -0.046653897 -0.5407953 0.01849503
-0.025440037 -0.7961589 -2.3851078 -2.700231 -0.40590268 -0.62369806 -0.015337102 -2.551699
-0.11784946 0.0027609095 -0.59912074 -0.033008955 0.5772865 -0.52812344 0.47080338 0.7302806
-1.8382561 -0.5446168 -0.4122765 -0.13337371 -0.7919347 -0.066557124 -0.3756117 -4.481146
-0.015904598 -0.6301814 -0.019863077 -1.267903 -0.48196885 1.4838728 -0.63213146 0.05890917
-0.7288971 0.55587095 -4.218567 -0.20407422 0.0070952475 -1.0635964 1.032829 -0.005917765
-0.37616482 -0.035154946 -2.0303495 -0.25356576 -0.9976744 -0.022491105 -1.6936725 -3.8265517
-0.5475806 -2.0675533 0.013740145 4.870445 -0.5606955 -1.1572767 2.319861 -0.51008487
-0.02682411 1.284107 0.034299336 0.04806722 -0.09089591 -0.39561534 0.016284823 -0.0457516
-0.015083164 -0.018959127 0.02692423 -0.6043146 -0.6231022 -0.79740214 -1.1608431 -0.049134992
-0.43348798 1.777679 -0.75441515 -0.08142869 -0.030607298 -2.9678152 -0.6110122 1.2667567
0.052976914 -0.8062874 0.50443816 -0.4887478 0.61143893 1.2887907 -0.76261634 0.4572384
-1.2437899 -0.061068855 -0.5498354 2.3284564 -1.0590184 -4.569827 0.04348501 -0.21836635
-13.372351 -0.7775039 0.6720873 -4.642173 -0.00894513 -0.48748878 -0.16026652 0.60675716
0.005912371 0.03604366 -0.03265591 0.4490525 -0.80925924 -5.795165 0.03994336 -4.690296
-0.6061367 0.01545684 0.043980055 0.060419984 -0.577825 -0.045095913 -0.039443552 -0.96141225
-0.0034991056 -1.7980742 -2.1186898 0.0024425387 -0.026076004 -0.55873954 -2.3673072 -0.54956806
-0.9651077 -0.014601909 -0.56552225 -2.7408595 -1.0106888 -0.013405241 -0.50176316 -1.6966485

linear2.bias f4 [256]
00000000: 3487 0841 809d 0ac0 c051 6dc1 d0d6 8f40
00000010: 1dca 2041 4b70 efbf 9423 abbf 43e2 4bc1
00000020: 1fc2 d8bf 0f75 cb3e 0102 6dc0 330a 2cc0
00000030: a4c4 edc1 4b9e 1abf ee90 05c0 5408 0dc0
00000040: 450b 1ac1 168f 1bc0 64e8 31c1 9560 c8bf
00000050: 8277 f8bf 7d72 e3bf b17a 8fbf fe2a 1ebf
00000060: 7c37 cbbf 927b d3bf 3043 72bf ca41 ffbf
00000070: ec0f ecbf 0ace 2bc1 3a7e 2dc0 8dbf fdbf
00000080: dced 12c0 f669 1dc0 75b6 12c0 6f68 27c0
00000090: 245c 1cc0 7248 cf3f 9cc2 0ec0 da42 f8bf
000000a0: a55b 02bf 741f dabf 7c97 4741 8b92 09c1
000000b0: 01a1 ffbf 281b 1dbf 9656 2ec0 7834 16bf
000000c0: 3c95 17c0 0a76 ccbf 1fb2 0dc0 39a5 0dbf
000000d0: 217c 22c0 69cd 0dc0 4591 c2bf 60fd cebf
000000e0: 71f0 49c0 13bf 24c0 3181 12c0 8a91 14c0
000000f0: 0235 03c1 d6a1 bec1 143c 2440 d63e d0bf
00000100: 044c d1bf bf5d 07c0 f2b6 15c0 babf d8c0
00000110: f318 0ebf cbe1 18bf b59f 0dc0 b764 82bf
00000120: 752a c3bf fde8 42c1 77de e5bf f30d 17c1
00000130: 7396 61c1 eda9 19c0 753f 11c0 3582 b3bf
00000140: 6caf 18c0 6be2 0dc0 b165 0abf d9b8 17c0
00000150: 62fc 9dc0 1e80 4dc0 64ff 2ac0 118f b6bf
00000160: 2e8b 9640 8535 10c0 ef37 b83f 29b4 29c0
00000170: 507d 0fc0 5d58 35c0 0572 c9bf 4b86 18c0
00000180: 03bd 15c0 360c 19c0 230b 9ec0 7094 e4bf
00000190: 3a46 21c0 13c9 9ac0 84d5 d2c0 ef77 ffbf
000001a0: 1337 e1bf 5b4e 77bf 827a a3c1 07c5 0ebf
000001b0: ad71 5cc1 4698 97c0 b1c9 52c0 82be 45c0
000001c0: 1fa9 eec0 f511 1dc0 66ff 33c0 a6cf c7bf
000001d0: de04 18bf 6d53 5840 c67d 14c0 2cd7 b1c1
000001e0: 40d7 fbbf 148d b8c0 8182 21bf ed52 14c0
000001f0: 9071 22c0 76e9 7e40 dc9d 0cc0 8b49 1fc0
00000200: 941d abc0 b40f 93bf eabe 2441 764b 28bf
00000210: 9022 eb40 b09b 24bf 76e6 74c0 e940 e7bf
00000220: 3cb0 15c0 a708 86c0 5fb9 07bf 1e28 0abf
00000230: bcab 72c1 a08a b6bf 9b7c 0ac0 e667 0cc0
00000240: 76b0 0fbf 8de0 0ebf 11f6 1fc1 89ba 14c0
00000250: e1e1 e3bf d838 5cc0 aac5 67c0 c538 64c0
00000260: d63a 0bc0 f5b8 8ac1 5150 aabf b3a7 8cc0
00000270: 75bc b2c0 523b 12c0 4cd6 0bbf 0b46 95c1
00000280: bce0 1fc0 94ba ffbe bf5f 6cc1 32b9 26bf
00000290: f411 d0bf 11d2 c0bf c533 1ec0 5055 94bf
000002a0: e15b 9a40 638f c0bf 1ea9 02c0 bdc7 09bf
000002b0: 178a acbf 6e7a 0cbf 5b20 5dc0 efa7 7a40
000002c0: 296a 74bf 8360 f3bf 30d0 a5c0 3ed2 8040
000002d0: 4821 3abf 3d2e 063f 0788 25c0 cfa8 20c0
000002e0: acee aebf e528 e1bf b3fd 49bf 325e 3d41
000002f0: 8027 efbf 2f4b 66bf 37c3 4fc0 8871 8bbf
00000300: 67ae 43c1 8937 1bc1 3be1 fbbf 0b0f adbf
00000310: 1fe8 e6bf db8c 5cc1 b9b6 fe3f 61bd 06c0
00000320: 5f49 8cc1 33ce 0abf 6515 1abf 5e78 01bf
00000330: 021c a5c0 cb7b 9ec0 cc71 e0c1 d6fe aebf
00000340: cbef 35bf 400f e8bf b78b 53c0 97c8 20bf
00000350: b901 13c0 206a 1ebf a16c 80c0 e8a1 16bf
00000360: 08e0 0ec0 02fc 313e 80cd 2cc0 cf54 22c0
00000370: f350 0cc0 3a36 98bf 81f3 3ac1 6d06 00c0
00000380: 6d58 c5bf 7ec4 bbbf 1504 50c0 2180 b0c0
00000390: fe27 1fbf 80ee 40c0 9e38 6dc0 b8d2 f4bf
000003a0: ffed e2bf 6bc9 75c1 3a28 23c0 932f 46c1
000003b0: bc5d 59c0 ffd5 0cbf d9d9 a3bf 5545 1fc0
000003c0: 14e7 44c0 2313 4ac0 52d0 66c1 107f 1ac0
000003d0: 8da2 25c0 809a 2ec0 d80d 89bf 5b92 fabf
000003e0: 8594 1ebf ba8e d2bf 125d 2ac0 5443 32c1
000003f0: ede1 02c0 a2d5 58c1 6b60 0441 cda0 22bf
8.533009 -2.165863 -14.8324585 4.494972 10.049344 -1.8706144 -1.3370233 -12.74274
-1.6934241 0.39737746 -3.7032473 -2.6881225 -29.721016 -0.60397786 -2.0869708 -2.2036333
-9.627751 -2.4306083 -11.119236 -1.5654474 -1.9411471 -1.7769314 -1.1209317 -0.6178435
-1.5876307 -1.6522086 -0.9463377 -1.9941952 -1.8442359 -10.7378025 -2.7108293 -1.9824082
-2.2957678 -2.4595923 -2.2923863 -2.6157491 -2.4431238 1.6193984 -2.230628 -1.9395401
-0.5092109 -1.7040849 12.4744835 -8.598277 -1.997101 -0.6136956 -2.7240348 -0.5867381
-2.3684835 -1.5973523 -2.2139966 -0.55330235 -2.5388262 -2.2156622 -1.5200583 -1.6171074
-3.1553004 -2.5741622 -2.2891352 -2.321383 -8.200441 -23.829021 2.5661669 -1.6269176
-1.6351323 -2.1150968 -2.339291 -6.773404 -0.5550682 -0.5971953 -2.2128727 -1.0186986
-1.5247332 -12.181882 -1.7958516 -9.440906 -14.099231 -2.4009964 -2.269498 -1.4024111
-2.385707 -2.2169445 -0.5406142 -2.3706572 -4.9370584 -3.2109447 -2.6718378 -1.426241
4.7044897 -2.2532666 1.439207 -2.651621 -2.2420235 -2.8335183 -1.5737921 -2.3831966
-2.3396614 -2.3913703 -4.9388595 -1.78578 -2.5199113 -4.837045 -6.588564 -1.9958476
-1.7594932 -0.96603936 -20.434818 -0.5576939 -13.777753 -4.737338 -3.2935603 -3.0897527
-7.4581447 -2.454221 -2.8124633 -1.5610244 -0.59382427 3.380092 -2.3201766 -22.230064
-1.9675064 -5.7672215 -0.6308976 -2.3175614 -2.5381813 3.9829993 -2.197135 -2.4888637
-5.3473606 -1.1489167 10.29661 -0.65740144 7.347969 -0.6430006 -3.8265662 -1.8066684
-2.3388815 -4.188556 -0.5301723 -0.53967464 -15.166927 -1.4261055 -2.1638553 -2.1938415
-0.56128633 -0.5581139 -9.997575 -2.3238852 -1.7803308 -3.4409695 -3.6214395 -3.565965
-2.175466 -17.340311 -1.3305761 -4.395471 -5.585505 -2.2848706 -0.54623866 -18.6592
-2.4980917 -0.49947035 -14.7733755 -0.65126336 -1.6255479 -1.5064107 -2.4719098 -1.1588535
4.8237157 -1.5043758 -2.041572 -0.538204 -1.3479642 -0.5487431 -3.4550998 3.9164999
-0.9547449 -1.9013828 -5.1816635 4.0256643 -0.72707033 0.52414304 -2.5864275 -2.5103033
-1.3666587 -1.7590605 -0.7890274 11.835497 -1.868393 -0.8995847 -3.24629 -1.0894022
-12.230079 -9.701058 -1.967811 -1.3520216 -1.8039588 -13.784389 1.9899513 -2.1053088
-17.535826 -0.54220885 -0.60188895 -0.5057429 -5.159669 -4.9526114 -28.055565 -1.367152
-0.7106902 -1.8129654 -3.3054025 -0.62806076 -2.2969801 -0.61880684 -4.0132604 -0.588408
-2.2324238 0.1738129 -2.7000427 -2.5364263 -2.1924407 -1.1891549 -11.684449 -2.0003922
-1.541761 -1.466934 -3.2502491 -5.5156407 -0.621704 -3.014557 -3.7065806 -1.9126806
-1.7728881 -15.361674 -2.5493302 -12.386615 -3.396346 -0.5501403 -1.2800857 -2.4886067
-3.076604 -3.157418 -14.425859 -2.4140053 -2.5880463 -2.72818 -1.070735 -1.9575914
-0.6194537 -1.6449807 -2.6619306 -11.141438 -2.0450394 -13.552156 8.27354 -0.6352661

linear3.weight f4 [4, 256]
00000000: a8c9 4241 4b1d c6be e118 d240 be2a 3540
00000010: 14c8 0241 ea14 ed3e 10f3 dbbe c4fc 95c1
00000020: 8ad5 473d 3f8c 5740 c09e bebf a65c 483f
00000030: 1761 3541 8252 203f 4528 cdbe d3a1 8abe
00000040: cef5 15c1 889b 28c0 d900 68c1 8057 b1bd
00000050: f52f 62be 23e6 493d 94aa c13c b036 113f
00000060: f08b 3a40 e10f febe 6153 0bbf 9b27 b7bf
00000070: 0ecb b8bf 940f 8340 4c81 523e eb7c 9ebd
00000080: 86f1 9fbe c487 c73d 1094 0d3f c7d6 413f
00000090: 817e 91be b40d 96c0 f03c 85be f4e1 023c
000000a0: cc0e edbe 251d 293f cf10 b840 8286 1b40
000000b0: d35c 0e3f 74c0 193f ec66 b33f bae0 0e3f
000000c0: 978c a5be b106 15bf 4a5e 8dbe 9c9a f4be
000000d0: b058 c8be db1a 183f a086 2740 5b93 e23e
000000e0: 6a36 173f 1e17 bcbe 31a8 b4be 88f4 babe
000000f0: dee5 17c1 bdb2 f140 718f 6d3e 926b 89be
00000100: b2af 2440 6542 823f 7393 6cbe 9754 dbc0
00000110: 882d 1d3f cdea 1b3f d4e0 003f e9e2 d83f
00000120: 9f7c 3240 1b3c a840 0d81 ddbe b09d 33c1
00000130: a4cc b440 7ec3 bbbe 9b8d 3e3d 3af2 2f40
00000140: fb0b 76bf 906c 4cbe 0f93 0c3f bc80 b4bf
00000150: 54a1 8640 b75d 163f 2f03 c03e a200 3540
00000160: c175 50bf 4a3b 103f 7730 efc0 7b04 d5be
00000170: 1cf9 d6bc d1c3 c9be 07ee c4be 70e2 e0be
00000180: 602d 153f 636b 65be 9db5 b7c0 750b 3f3f
00000190: c65a 3040 b6bf f93f a258 723f b2ee 373f
000001a0: 483c 55c0 2190 1a40 9edc 1141 3811 0f3f
000001b0: d13a 2640 bd85 ba3f a5f4 1b3f 08c7 59be
000001c0: 4618 093f 8493 b0be 072e 3ec1 9291 3640
000001d0: f457 05bf 20f5 4440 005e 173f 93b5 2a41
000001e0: 0bc8 adbe a65b cb40 7ecd 183f f20e 96be
000001f0: 5bb3 b4be 6782 f240 47a3 b8be 1423 a5be
00000200: ae4b 0e40 151d b73f ae0d 6c3f 5a51 193f
00000210: 5e75 72bf d49c 1b3f 94f5 683e f798 433f
00000220: bb2e 213f b73e 0940 3fc7 04bf 0fab 123f
00000230: 008e ca3f 0154 a6be e5f3 cabf 6f86 0f3f
00000240: 5178 0c3f c130 0a3f 0a76 1340 3282 80be
00000250: 49de ca3e 0545 103f d39a 963f 8f1c 18c0
00000260: 3600 853f dbc7 82c1 827d 2d3f cc58 86bf
00000270: 4a60 e440 fa80 1e3f 69e5 0b3f 94d7 e340
00000280: 6d2d c2be dc09 03bf 66ad b140 178c 1b3f
00000290: 1b4d 0f3f 24fb 2c40 b7cd 123f e1f7 dc3d
000002a0: d5bf d03f c003 8c3d e8a9 b53e 15ea 6b3f
000002b0: eed0 4240 f2bc 0f3f 7bf1 453f 0a70 61c1
000002c0: d246 61bf a9cd 9cbe 54da 8ac0 c2ed 893f
000002d0: 7589 373f ec5a 70c0 27c7 76bf 4842 89bf
000002e0: 59bd 3b40 f953 dabe 8cc0 3d3f fb59 0841
000002f0: dbc5 2abf 4e31 b73e a5c3 04bf aa67 a1bf
00000300: 7b86 8440 7d78 5a40 fa17 babf 2574 4140
00000310: a029 a2be c542 ac40 7be3 14c0 637b 22be
00000320: 8280 3541 8859 0c3f 119d 0c3f 0bf8 09bf
00000330: 778f 2bbd 1be8 f73f 956a aa40 05fa 3340
00000340: 8b69 5b3f 9610 ac3e 7006 12c0 bc21 1a3f
00000350: 2b4c a73f faba 193f e42f ebbf 1513 113f
00000360: ed16 00bf 9ee2 0441 7ff4 e7be 7aff e2be
00000370: f0ae c9bc 2554 aa3f 431b bac1 b88b ccbe
00000380: 52ae 2940 3e70 2f40 3607 923f 0d00 233f
00000390: 4847 1b3f 22f4 7b3f 30a3 8abf 28d4 983f
000003a0: 9538 1d3f 66af c740 e99a cfbe 9d69 9d40
000003b0: 3020 0a3f af7a 1a3f 22c3 0b41 5a57 9bbe
000003c0: 50fe 173f cfb2 233f 3c8a be40 a58d c9bf
000003d0: e8d4 cebe 88f2 f3be eb8c 1540 d1af 0f40
000003e0: 5089 163f 85fa 18bf eafe bebe 30c4 e93f
000003f0: 7acf 13bf 4573 cd40 b90e eac0 0854 22bc
12.1742325 -0.38694224 6.565537 2.8307338 8.173847 0.4630502 -0.4295888 -18.74842
0.04878763 3.367935 -1.4892197 0.7826637 11.336204 0.62625897 -0.40069786 -0.27076587
-9.372511 -2.6344929 -14.500207 -0.086592674 -0.22088607 0.04929174 0.023640908 0.5672407
2.914791 -0.4962149 -0.544241 -1.4308962 -1.4436967 4.0956516 0.20557135 -0.0773867
-0.31238955 0.09742692 0.5530405 0.7571835 -0.28416827 -4.6891727 -0.26023054 0.007988442
-0.46300352 0.66060096 5.752052 2.4300847 0.5561039 0.60059285 1.4015784 0.55811656
-0.32333824 -0.58213335 -0.27611 -0.47774208 -0.39130163 0.5941598 2.6175919 0.44253048
0.59067404 -0.36736387 -0.3528457 -0.36514688 -9.49362 7.5530686 0.2319925 -0.26839882
2.5732236 1.0176512 -0.23103122 -6.854076 0.613976 0.6090515 0.5034306 1.6944247
2.7888563 5.257337 -0.4326252 -11.225998 5.6499805 -0.36672586 0.046521764 2.7491593
-0.9611203 -0.19963288 0.54911894 -1.4101787 4.2071934 0.5873675 0.3750243 2.8281636
-0.8142968 0.5634047 -7.474666 -0.4160498 -0.026241831 -0.3940721 -0.3846285 -0.43922758
0.5827236 -0.22404246 -5.7409196 0.7462686 2.7555404 1.951163 0.9466649 0.71848595
-3.3318043 2.415047 9.116362 0.5588565 2.5973399 1.4572064 0.6092017 -0.2126733
0.53552663 -0.34487545 -11.886237 2.852635 -0.5208733 3.0774612 0.5912781 10.66933
-0.33941683 6.3549376 0.59688556 -0.29308277 -0.35293087 7.5784183 -0.3606207 -0.32253325
2.2233691 1.430575 0.92208374 0.5988976 -0.9471034 0.60786176 0.2274993 0.7640528
0.6296193 2.1444528 -0.51866525 0.57292265 1.5824585 -0.32485965 -1.5855681 0.56064504
0.5487109 0.5398064 2.3040795 -0.2509933 0.39622715 0.56355315 1.1765999 -2.376743
1.0390689 -16.347586 0.67769635 -1.0495849 7.136754 0.6191555 0.5464693 7.1200657
-0.37925282 -0.5118692 5.552417 0.60760635 0.5597703 2.7028284 0.57345146 0.10789467
1.6308542 0.06836653 0.3548119 0.92154056 3.044002 0.5614768 0.77321595 -14.089853
-0.8799869 -0.30625656 -4.3391514 1.0775683 0.7169412 -3.7555494 -0.9639763 -1.0723352
2.9334319 -0.4264219 0.7412193 8.521968 -0.66708153 0.35779804 -0.5186103 -1.2609761
4.141416 3.413604 -1.4538567 3.022714 -0.31672382 5.3831506 -2.3263843 -0.15867381
11.343874 0.54824114 0.54927164 -0.5389411 -0.041884866 1.9367708 5.3255105 2.812135
0.8570792 0.33606404 -2.281643 0.60207725 1.307012 0.6005093 -1.837399 0.5666974
-0.5003498 8.305326 -0.45303723 -0.44335538 -0.02461955 1.3306929 -23.263311 -0.39950347
2.6512647 2.7412257 1.1408451 0.6367195 0.6065564 0.9841939 -1.0831051 1.1939745
0.6141446 6.240161 -0.40547875 4.9191422 0.53955364 0.6034345 8.73514 -0.3034008
0.59372425 0.63944715 5.9543743 -1.5746351 -0.4039681 -0.47645974 2.336726 2.245106
0.5880327 -0.5975726 -0.3730386 1.8262997 -0.5773846 6.420321 -7.314297 -0.00990773

linear3.bias f4 [4]
00000000: 2f60 dfc0 2cf2 11c0 a66b b240 9661 cabf
-6.980491 -2.280406 5.5756407 -1.5811031
