models/model_city3.bin (torch_old, 273482 bytes, 6 tensors)

linear1.weight f4 [256, 4]
000000 6c f4 75 bf 10 a9 12 bf 91 86 44 bf 33 69 6c bf
       -0.96076083 -0.5728922 -0.7676783 -0.9234802
000010 dc d1 ae be 2d d1 fe bd f7 e2 ce be 4e bc e9 be
       -0.34144485 -0.12442241 -0.40407535 -0.45651478
000020 7d f9 b4 c0 a5 57 d1 3e 8c 0e b1 c0 3d a0 44 c0
       -5.655455 0.4088718 -5.5330257 -3.0722802
000030 df 14 1c bf 38 8b de be 61 65 08 bf a1 e8 01 bf
       -0.60969347 -0.4346559 -0.5327969 -0.5074559
000040 70 7e 5d be ea dd 07 bf a6 ae 37 bf 8d 1e f2 be
       -0.21630263 -0.5307299 -0.7175087 -0.47288933
000050 05 87 9f bf 40 db e6 bd 32 e7 6c bf f6 ae 97 bf
       -1.246308 -0.11272287 -0.92540276 -1.1850269
000060 bd c2 57 3e e7 b7 02 bf 18 15 84 3e a3 f1 86 bf
       0.2107038 -0.5106186 0.25797343 -1.0542492
000070 39 d6 01 bf 5e 4f 0e bf cf a4 46 bf af 0c c8 be
       -0.507175 -0.55589855 -0.7759523 -0.39072177
000080 3a 26 b5 bf 04 9f 89 be 0e 91 5b bf 34 68 e1 be
       -1.4152291 -0.26879132 -0.8576821 -0.44024813
000090 f1 cc 55 be 32 76 1c bf 2b a0 44 bf da f1 9b be
       -0.2087896 -0.6111785 -0.76806897 -0.30457956
0000a0 68 4f a2 bf 87 29 c1 be eb de 16 bf f9 bf a7 bf
       -1.2680483 -0.37726995 -0.58933896 -1.310546
0000b0 54 5b 05 bf da 66 c9 be 50 42 91 be d8 9f 15 bf
       -0.5209248 -0.39336282 -0.28370905 -0.5844703
0000c0 74 41 13 bf ba 6a f9 be ca 96 07 bf 5e e9 80 be
       -0.5752175 -0.48714238 -0.5296446 -0.25178045
0000d0 e0 df d5 3c b2 53 88 be f9 32 ac be 00 24 0b be
       0.026107728 -0.26626354 -0.3363264 -0.13587952
0000e0 85 31 ef be 25 ea 3e bf 7f 4e 68 bf b3 5b 0d be
       -0.46717468 -0.74576026 -0.90744776 -0.13804512
0000f0 ac 0c 8c be ab 20 ac be 38 64 18 be 58 4c a2 3d
       -0.27353418 -0.33618674 -0.1488198 0.07924718
000100 4c 6b b7 be 39 96 94 bf c2 42 74 be 62 c8 11 c0
       -0.3582405 -1.1608344 -0.23853591 -2.2778554
000110 47 10 a6 be e3 4a 53 be a8 54 bf be c7 3b 2f bd
       -0.32434294 -0.20634036 -0.37369275 -0.042781617
000120 a4 79 f4 be 20 10 a9 bc 50 18 84 bd d6 5f bd be
       -0.47749054 -0.020637572 -0.0644995 -0.3698718
000130 68 95 b0 bd ec 07 32 be 72 6c e6 be 38 56 87 bd
       -0.08622247 -0.17385834 -0.45004612 -0.06608242
000140 1e 7f fc be a0 db 3f be 26 2d 85 be 00 39 86 bc
       -0.49315733 -0.18736124 -0.26011008 -0.016384602
000150 f9 2d 2e bd 86 5f c2 be fb 2f e4 bd 41 b0 e1 be
       -0.04252431 -0.37963504 -0.11141964 -0.44079784
000160 fd 17 19 bf 7a f4 c6 be a0 85 1a bf 40 79 74 bf
       -0.5980223 -0.38858396 -0.60360146 -0.9549751
000170 68 b2 1c be 60 7a 19 be b0 fc bd be 48 95 c5 bd
       -0.15302432 -0.14988089 -0.37106848 -0.09647614
000180 c0 4e 7a be b6 dd 9d be 38 77 82 be 90 d0 86 bd
       -0.24444103 -0.30833215 -0.25481582 -0.06582749
000190 0e 36 01 bf 7e 58 40 be fa 4c 8e be 8b 06 1a bf
       -0.50473106 -0.18783757 -0.27793103 -0.60166234
0001a0 f7 9b 87 3f dc bd af 3f e7 cc b8 3f 53 0c 09 c0
       1.0594472 1.3729815 1.4437531 -2.1413772
0001b0 93 4e 0e bf 6d 20 b4 bd 3c 96 be be c0 5f 1a bd
       -0.55588645 -0.08795247 -0.37223995 -0.03768897
0001c0 40 1f 61 3c b6 97 e7 be 69 7d dc be 30 c9 50 be
       0.013740361 -0.45232934 -0.4306443 -0.20389247
0001d0 2c fa de be b4 66 46 be c0 16 45 be b8 29 ae be
       -0.4355024 -0.19375116 -0.1924696 -0.34016204
0001e0 2c f0 eb be 1f d9 d3 c0 b1 15 56 40 be 4d bd 3f
       -0.46081674 -6.620254 3.345074 1.478935
0001f0 88 8d b8 be 0f 0e f7 be b8 21 a6 be 4e 4a 19 bf
       -0.3604548 -0.48252913 -0.324476 -0.59879005
000200 3a 18 fb ba 41 25 be be 50 af 78 be 78 28 97 be
       -0.0019157 -0.37137797 -0.24285626 -0.29523063
000210 d0 fa 78 be db d8 d4 be 7f c3 cf be f0 de 3e bd
       -0.24314427 -0.41571698 -0.4057884 -0.04659933
000220 d1 13 01 c0 54 4d 96 bf 97 5b c2 3f c8 d9 43 be
       -2.0168345 -1.1742349 1.5184201 -0.19126046
000230 96 9a aa be 7d 3f 0b c0 4b 7f 0a c0 c4 6b 95 be
       -0.33321065 -2.17575 -2.1640193 -0.2918378
000240 a5 cb ad bf 01 39 76 bd 5d 9d 5d bf 6b 5c ce c0
       -1.3577772 -0.060112957 -0.8656824 -6.4487815
000250 3a 41 ca bf 8d 11 b6 bf c4 44 18 c0 00 5a 57 c0
       -1.5801156 -1.4224106 -2.3791971 -3.3648682
000260 f4 4e fd be c1 e7 41 be 38 cb b3 bd d2 cf aa be
       -0.494743 -0.18936063 -0.08778995 -0.3336168
000270 03 53 00 c0 00 50 63 be 74 3d a7 be a8 32 11 c0
       -2.0050666 -0.22198486 -0.32664073 -2.2687168
000280 4f 74 48 bf 56 0a 10 3e c2 87 89 bd 92 b9 b3 bf
       -0.7830247 0.14066443 -0.06715347 -1.4041007
000290 c7 55 e5 bf 90 16 e9 bd 54 8a b5 be fc 42 14 c0
       -1.7916802 -0.113812566 -0.35457098 -2.3165884
0002a0 a9 11 46 bf cd dc 59 bf e2 6d 89 be d4 d1 44 bf
       -0.773707 -0.8510254 -0.26841646 -0.7688267
0002b0 ee 3c 88 be 43 84 71 be 04 53 f5 be 90 7f 7a be
       -0.26608986 -0.2358561 -0.47914898 -0.24462724
0002c0 3d 9b 58 bf 98 a0 2e be 72 9f 2f bf 05 5f 17 3d
       -0.84611875 -0.17053449 -0.6860267 0.036955852
0002d0 1c a6 02 bf e8 65 d0 be 90 8c 0c be 40 25 e8 be
       -0.5103471 -0.40702748 -0.13725495 -0.4534092
0002e0 82 a1 08 bf f8 af 95 bf cb 50 ed 3c 6c 39 3c bf
       -0.5337144 -1.1694326 0.02896919 -0.7352512
0002f0 47 36 2a c0 eb 4f 05 c0 10 ab 26 c0 a6 e5 c8 be
       -2.6595628 -2.0830028 -2.6041908 -0.39237708
000300 ab 9d 18 be 85 0e 57 bf d8 97 a5 be c0 84 20 bd
       -0.14903896 -0.8400653 -0.3234241 -0.0391891
000310 ac d4 8b be b3 ab 10 be c0 d1 5f bf 50 87 ce be
       -0.27310693 -0.14127998 -0.8742943 -0.4033761
000320 eb 5b 94 be 76 e6 02 bf e1 32 85 be 39 ea e6 be
       -0.28976378 -0.51132905 -0.2601538 -0.45100573
000330 e0 29 9b bf 16 11 b6 be 25 45 31 bf 93 65 91 bf
       -1.2122154 -0.3555991 -0.6924613 -1.1359123
000340 40 a6 2b be fa bd 61 be 2c 21 70 be 00 3f 53 3d
       -0.16762638 -0.22045127 -0.23450154 0.051573753
000350 bc 29 85 be 4a b7 dc be 0f 89 93 be ad b6 97 be
       -0.26008403 -0.43108588 -0.28815505 -0.29631558
000360 69 0f e2 be 44 b7 e3 bd 98 82 39 be e0 28 2d bd
       -0.44152382 -0.111189395 -0.18116224 -0.04227531
000370 e8 51 19 c0 43 a2 08 c0 d0 c5 13 bf b9 f2 4a be
       -2.3956242 -2.1349037 -0.5772371 -0.19819154
000380 c0 50 97 be a8 84 3e bf 01 d2 87 bb 5f 0a ce bf
       -0.29553795 -0.7442117 -0.0041449075 -1.6096915
000390 f4 78 85 be a0 df 4b be c7 57 fb be ff 4a 8f be
       -0.26068842 -0.19909525 -0.49090406 -0.27986905
0003a0 b3 4b 81 be e2 df 68 bf a8 47 37 3d b3 ea 55 bf
       -0.25253066 -0.9096662 0.04474607 -0.8356125
0003b0 c5 0e 22 bf 8d db 9e be 0c a2 2c be b0 91 58 be
       -0.63303787 -0.3102688 -0.16858691 -0.21149325
0003c0 f0 93 7e bf c2 8f ac be f6 20 07 bf 62 c1 2c bf
       -0.99444485 -0.33703429 -0.5278467 -0.6748258
0003d0 b4 e1 1b c0 3e 98 08 c0 bb 1f 1b c0 9c 40 32 be
       -2.4356508 -2.1342921 -2.4238117 -0.17407459
0003e0 c0 bd 95 bf 52 c9 05 c0 f4 38 23 c0 14 fc f1 be
       -1.1698532 -2.0904126 -2.5503511 -0.47262633
0003f0 1a d9 ad be 3a 95 9e be 00 79 a4 bc e0 2b 19 bd
       -0.33954698 -0.30973226 -0.020077229 -0.037395358

linear1.bias f4 [256]
000000 8a ee 9f bf 00 1c 11 bf 6b 42 e9 bf 48 cd c3 bf
       -1.2494671 -0.5668335 -1.8223394 -1.5297022
000010 6e b5 35 bf 96 e5 c2 be f1 19 f5 c0 e0 50 ce be
       -0.70979965 -0.38065785 -7.6594167 -0.40296078
000020 fc a1 bc bf 09 2a 9e c0 90 82 10 c0 93 ef d3 be
       -1.4736934 -4.9426312 -2.257969 -0.41393718
000030 3c dd e6 be 9f 59 67 bf 57 ea 2d bf c5 76 6c bf
       -0.45090663 -0.90371126 -0.679357 -0.9236873
000040 ac b4 21 c1 71 df 96 bf 55 bd 03 bf 4f f4 2e bf
       -10.106609 -1.1786939 -0.5146077 -0.68341535
000050 60 44 22 bd 8c 7a 9b bf 6d 03 86 bf f8 af fb be
       -0.03961599 -1.2146773 -1.0469795 -0.4915769
000060 50 75 83 be a6 86 b3 be 73 cc 01 c0 ac 1e af be
       -0.2567544 -0.35063666 -2.0281036 -0.34203088
000070 45 9a 75 bf be 50 5f bf d0 a0 08 c1 c1 fb 5f bf
       -0.9593852 -0.8723258 -8.539261 -0.8749352
000080 c1 37 61 be d1 34 2f bf 07 6a 9d c1 5f dd 34 c0
       -0.21993925 -0.68439966 -19.676771 -2.8260114
000090 ca fc 66 c1 c0 44 8a c0 02 e3 63 bf be c6 07 c0
       -14.436716 -4.3208923 -0.8901826 -2.1215053
0000a0 cb ad 08 c1 3a 4b 43 c0 78 b6 0b bf 5b 82 01 bf
       -8.54243 -3.0514665 -0.545753 -0.5058953
0000b0 f6 41 ec bf 6c 2a b3 be 7b 6d 0a c0 08 a1 22 c0
       -1.845763 -0.34993303 -2.1629322 -2.5410786
0000c0 ad b2 3b bf a7 b4 1c bf 94 d1 4c bf 63 40 ee bf
       -0.7331951 -0.61213154 -0.8000729 -1.8613399
0000d0 7b b6 2a bf 5b ee 6e bf 3c d2 08 bf 2e 35 47 c0
       -0.66684693 -0.9333245 -0.5344579 -3.1126208
0000e0 8c 5b 10 c0 f5 6b 6e bf f5 f7 88 bf 84 bf d0 be
       -2.2555876 -0.9313348 -1.070067 -0.40771115
0000f0 66 f0 0b c0 ce 4b 25 c0 44 ca bc bf 8c 06 00 bf
       -2.1865478 -2.5827518 -1.4749227 -0.5000999
000100 8d 2b 04 bf 65 88 f9 3f 12 34 7a bf 07 5a d5 be
       -0.51628953 1.9494749 -0.97735703 -0.41670248
000110 7f 74 60 bf d6 b0 76 bf b1 bc c1 bf 89 57 1a bf
       -0.8767776 -0.9636358 -1.5135709 -0.6028982
000120 20 04 1c c0 e0 a4 52 be da d1 f8 bf 9f 30 28 c0
       -2.4377518 -0.20570707 -1.9439042 -2.6279676
000130 f2 f9 9c bf 1b 36 1b c1 d2 63 c3 bf 50 d7 7c c0
       -1.2263777 -9.700709 -1.5264838 -3.9506416
000140 7b 31 3b c1 0e a0 73 bf c8 34 44 c0 97 6a ac be
       -11.69958 -0.951661 -3.0657215 -0.33675072
000150 b6 2a a2 be 70 17 3d c0 ca c2 27 bf 66 07 7e bf
       -0.3167321 -2.9545555 -0.655316 -0.9923004
000160 aa 87 2f c0 56 3a 4c c1 be 6d fd be 42 6c 9d be
       -2.7426553 -12.764242 -0.4949779 -0.30746657
000170 2a a2 f8 c0 04 10 31 bf 6f d7 1b c0 e3 ca c0 bf
       -7.7697954 -0.6916506 -2.435024 -1.5061916
000180 c3 f1 09 c0 8f eb f0 c0 2e c3 b1 bf a9 38 ab bf
       -2.155381 -7.5287547 -1.3887689 -1.3376666
000190 e6 e9 c9 c0 31 b4 43 c0 78 bf 93 bf 18 dd 2b c0
       -6.309802 -3.057873 -1.1542807 -2.6853695
0001a0 26 f1 9b bf dc 9e e6 be c9 87 3a bf d9 14 42 bf
       -1.2182968 -0.45043075 -0.7286344 -0.7581306
0001b0 1e 9f ce 40 3f 0a 35 c1 a6 fc 8c c1 7b 50 28 bf
       6.4569235 -11.3150015 -17.623363 -0.65747803
0001c0 f5 37 29 bf 31 2f 56 bf 71 4e 0b c0 82 2c ba be
       -0.6610101 -0.8366576 -2.1766627 -0.36362082
0001d0 c3 cc 8e c1 1d 12 c3 bf 25 12 2c c1 b1 9b f4 be
       -17.849981 -1.5239903 -10.75443 -0.47775033
0001e0 17 a2 07 bf 47 5b bc be a6 67 9d bf a5 e1 be c0
       -0.52981704 -0.3678839 -1.2297256 -5.9650445
0001f0 e4 54 6e c0 33 26 13 bf a1 e4 8b bf 59 39 e5 bf
       -3.7239313 -0.5748016 -1.0929147 -1.7908126
000200 e7 1b 10 bf d8 ba d9 bf b6 72 c3 bf 83 aa 5c bf
       -0.56292576 -1.7010145 -1.5269382 -0.8619768
000210 74 c8 14 c0 9b ad 35 c0 50 99 2f bf 68 13 3b c1
       -2.3247347 -2.838721 -0.6859331 -11.692238
000220 34 6f 69 be b0 3c 7f bf 40 68 3c bf 97 f3 56 bf
       -0.22796327 -0.99701977 -0.7359657 -0.8396544
000230 b5 4d 6a bf c6 0d b8 c0 ea f1 2c c0 56 13 97 be
       -0.9152482 -5.7516813 -2.7022653 -0.2950694
000240 fc be 96 bf da 4c 75 bf 7d eb 6d bf 72 21 8d be
       -1.1777034 -0.9582039 -0.9293745 -0.2756458
000250 a2 9c 65 be 4f fb b9 bf 11 6d 91 bf 41 3a 36 bf
       -0.22423032 -1.4529818 -1.136141 -0.7118264
000260 ad 7c fc bf 7b 98 e6 bf b8 e2 0a c1 e5 9d 13 bf
       -1.9725548 -1.8015283 -8.680351 -0.576628
000270 6b 97 ca c0 fa 04 f4 be 39 e3 4d c1 bb 72 23 c1
       -6.3309836 -0.47660047 -12.867974 -10.21551
000280 75 4a b0 bf a0 3d 09 c1 36 01 f9 be ad 0d 85 bf
       -1.3772722 -8.577545 -0.48633736 -1.0394799
000290 d2 29 37 c0 40 9d e8 be ba 2d 0f c0 1f 54 76 bf
       -2.8619275 -0.45432472 -2.237166 -0.9622211
0002a0 ff 66 32 c1 a8 52 d1 c1 f2 ce ce bf 4f ca 29 c1
       -11.150146 -26.16536 -1.6156905 -10.611892
0002b0 19 3f 4b c0 6e 13 7c bf f7 2d a0 c1 b2 ca c9 bf
       -3.1757262 -0.9846715 -20.022444 -1.5764983
0002c0 1a 6c 95 c0 3f ee b3 be 2a ec b4 be 26 6f 1e c1
       -4.669446 -0.35142705 -0.3533643 -9.902136
0002d0 93 34 c0 be 16 28 4c c1 36 3b c8 c0 32 72 00 c1
       -0.3754011 -12.759787 -6.257228 -8.02788
0002e0 f7 f0 b6 c0 8d 84 d0 c0 60 f2 3c c0 26 d1 5b bf
       -5.7169147 -6.5161805 -2.9522934 -0.8586601
0002f0 3b 7e 13 c0 4a e4 b3 be 15 d8 86 c1 33 f7 05 c1
       -2.3045795 -0.35135108 -16.855509 -8.372851
000300 83 31 70 bf 18 08 b8 c1 7f 07 14 c1 65 b6 e0 3f
       -0.9382555 -23.003952 -9.25183 1.7555662
000310 c4 f6 3b be 8d 83 60 bf 5e 11 0f bf a4 fd 20 bf
       -0.18355852 -0.8770073 -0.55885875 -0.62887025
000320 2d f7 11 c0 93 d4 7f bf 26 e9 94 bf 04 ad 1f c0
       -2.2807114 -0.9993374 -1.1633651 -2.494935
000330 e2 1d 06 bf d6 a1 1b c1 d6 54 1a bf b3 53 59 bf
       -0.5238935 -9.727011 -0.602857 -0.8489334
000340 5e 79 95 bf 7a 2e 55 bf 91 bc 87 c1 25 f1 d5 bf
       -1.1677663 -0.8327404 -16.967073 -1.6714216
000350 86 9e c4 c0 eb b7 f2 c0 dc 4e 1d c0 44 26 f9 bf
       -6.144351 -7.584951 -2.4579382 -1.9464803
000360 12 de 51 bf 21 ac 6c bf f3 e5 e5 be 7c 21 0a bf
       -0.8197948 -0.9245015 -0.44902 -0.53957343
000370 1a 96 68 bf b9 69 9e bf 79 a8 82 bf 8d a7 3c c0
       -0.90854037 -1.2376014 -1.0207664 -2.9477265
000380 b2 4e f2 c0 5d fd ec bf 87 38 68 bf ec 48 07 c0
       -7.5721064 -1.851482 -0.90711254 -2.1138258
000390 4c 38 64 3f e3 bd 14 c1 e3 48 3c c0 7a 2a d0 be
       0.891484 -9.296359 -2.9419487 -0.40657407
0003a0 86 57 ca bf 8a ff 99 c1 06 72 28 c0 90 d2 22 bf
       -1.580796 -19.249775 -2.6319594 -0.6360254
0003b0 15 5d a9 be 4c 62 fa be ab e0 98 bf b9 35 e7 be
       -0.33078828 -0.4890312 -1.1943563 -0.45158175
0003c0 eb 08 2d c0 93 21 2b bf 09 99 73 bf 05 66 84 bf
       -2.7036693 -0.66848105 -0.9515539 -1.0343634
0003d0 e2 86 ec bf 62 d1 b2 bf 00 bc 27 bf 75 a4 09 bf
       -1.8478663 -1.3970149 -0.6552124 -0.53766567
0003e0 d9 a9 3d c0 2d f6 01 c0 a7 a4 42 c0 82 29 08 bf
       -2.9634917 -2.0306504 -3.0412996 -0.53188336
0003f0 67 a5 23 c0 ad 4b 79 bf e1 28 06 c0 50 e8 c1 c0
       -2.5569704 -0.973811 -2.096245 -6.0596085

linear2.weight f4 [256, 256]
000000 7c 56 6d bd 29 70 1e bf 98 41 0f 3c 58 7e d3 bc
       -0.057943806 -0.6188989 0.008743666 -0.025817081
000010 5c ca e7 3c c2 36 1e bf 82 8c 7c 3d 6f 9a 0a bf
       0.028294735 -0.61802304 0.061657436 -0.54141897
000020 20 2d 26 bf a6 1a 1d bf 09 f6 23 bf 68 9a 10 bf
       -0.64912605 -0.6136879 -0.64047295 -0.56485605
000030 11 87 1a bf 84 2e 8c 3c 70 73 1c bf 70 b8 45 3c
       -0.60362345 0.017112024 -0.61113644 0.012067899
000040 8e 11 05 bd 70 97 cd 3b 65 27 1f bf a6 5b 5b bd
       -0.032487445 0.0062741563 -0.62169486 -0.0535542
000050 64 74 d3 bc ae 99 3c bd e0 ea d7 3b 9c a8 0b bf
       -0.025812335 -0.046044998 0.0065892786 -0.5455415
000060 fe 60 65 3d 99 4c 20 bf d3 28 0f bf 58 51 49 bc
       0.056000702 -0.6261688 -0.5592167 -0.01228746
000070 3b df 15 bf 98 6f 9f bc 62 a6 0e bf 12 68 33 bd
       -0.5854375 -0.019462392 -0.5572263 -0.04380042
000080 18 ef 84 bc 00 9c 36 ba 04 b3 29 bf 8e 66 10 bf
       -0.01622729 -0.0006965995 -0.6628878 -0.56406486
000090 72 fd 26 bf 4d 6e 11 bf a8 4d cc bc 5c 3e 15 3d
       -0.65230477 -0.5680893 -0.024939373 0.036436424
0000a0 8a d7 19 bf 76 fd 22 3d e8 fb 0d bf 2c de 27 bf
       -0.6009451 0.0397925 -0.55462503 -0.6557338
0000b0 9d 76 28 bf 54 ee 24 bf bc d6 05 3d 96 27 1c bf
       -0.6580599 -0.6442616 0.03267549 -0.60997903
0000c0 13 16 10 bf d1 62 12 bf a1 bb 11 bf 1a 96 55 bd
       -0.5628368 -0.5718203 -0.56926924 -0.0521451
0000d0 50 5a 35 bd eb 8b 0b bf d0 df 6f bc 10 fa 1d bf
       -0.04427558 -0.5451037 -0.014640763 -0.6170969
0000e0 80 51 bb ba 95 1f 0a bf e1 2d 10 bf 1e 1c 0c bf
       -0.0014291257 -0.5395444 -0.56320006 -0.54730403
0000f0 10 83 18 bc b0 78 2c bc 60 72 5a bc c9 e7 11 bf
       -0.0093085915 -0.010526821 -0.013332933 -0.569943
000100 95 85 0a bf 76 c9 44 3d e5 eb 0f bf d9 53 16 bf
       -0.5411008 0.04804369 -0.5621932 -0.5872169
000110 7f d1 0e bf 2d c1 1c bf f7 70 0f bf 0f 66 1b bf
       -0.55788416 -0.6123226 -0.56031746 -0.60702604
000120 b0 a4 09 bc e8 29 14 bd 74 81 c4 bc 00 3a 08 3b
       -0.008401081 -0.036172777 -0.02398751 0.0020786524
000130 fc 54 5d 3d c8 59 ef bf a4 4a 34 3d 20 43 f2 3b
       0.054036126 -1.8699274 0.044016495 0.007393256
000140 30 f4 5c bc 53 46 24 bf 32 d8 14 bf e0 a7 1c bf
       -0.013485953 -0.64169806 -0.5814239 -0.61193657
000150 b1 38 1d bf 4c cf 81 3c 54 b7 bf bc 90 da 22 bc
       -0.6141463 0.015845917 -0.023402847 -0.009939805
000160 d2 87 12 bf 12 7e 5e bd 8c fd 11 bf 60 1f b5 3b
       -0.57238495 -0.05431945 -0.57027507 0.005527422
000170 d0 c7 9d 3c 80 38 1d ba 10 aa de bc 90 51 ed 3b
       0.019260317 -0.0005997494 -0.027180701 0.007242389
000180 90 d0 e3 3c 83 4f 10 bf cc 55 16 bf c4 b9 11 bf
       0.027809411 -0.56371325 -0.58724666 -0.5692408
000190 04 51 d3 3c d6 52 34 bd 54 e1 5b bd 8e e9 1c bf
       0.025795467 -0.04402431 -0.053681687 -0.61293876
0001a0 10 36 82 bb dc 3e b4 3c 6d 94 1a bf fb 0e 0e bf
       -0.00397373 0.02200263 -0.6038273 -0.5549161
0001b0 0c df ee bf c6 a8 20 bf ae 13 47 bd 19 24 24 bf
       -1.8661819 -0.6275753 -0.048602752 -0.6411758
0001c0 fe ed 71 3d 09 bd 0a bf 60 82 dc 3c 00 b8 09 b9
       0.059064858 -0.54194695 0.026917636 -0.00013133883
0001d0 54 7d b5 3c a4 97 c2 3c b6 ba 1e bf b6 87 0e bf
       0.022154488 0.023753949 -0.6200365 -0.5567583
0001e0 cc 4b 21 bf 2c 6d 0d bf 90 f1 75 bc 0c ec 9d bc
       -0.6300628 -0.5524471 -0.015011206 -0.019277595
0001f0 f0 2c 24 3d 4f fd 0d bf da 51 19 bf 3f 04 0a bf
       0.04008192 -0.55464643 -0.5989052 -0.5391273
000200 6d 84 1c bf d0 5b 89 bb b6 7e 4c 3d e4 36 86 3c
       -0.61139566 -0.004191853 0.04992553 0.016383596
000210 cc de c2 bc ca 1a 18 3d c0 6c 71 bc 98 f4 ea bf
       -0.023787878 0.037134923 -0.014735401 -1.8355894
000220 20 34 05 bd c4 5a 8f bc 5a 4b 79 bd fa 8d 11 3d
       -0.032520413 -0.017499335 -0.060862876 0.03553579
000230 c0 f8 08 3b 22 88 12 bf 70 9c 7f 3d c8 ba 13 bf
       0.002090022 -0.5723897 0.06240505 -0.5770688
000240 90 13 d8 3c d6 16 15 bf db 47 0c bf 74 a2 df bc
       0.026376516 -0.5823797 -0.5479714 -0.027299143
000250 17 92 1d bf 64 c6 82 3c 83 f0 16 bf 34 8c 66 bd
       -0.6155104 0.01596374 -0.5896074 -0.056286052
000260 f2 fd 60 bd c0 a3 19 bf 4a 54 6c bd c5 ed 27 bf
       -0.05492968 -0.6001549 -0.05769757 -0.6559718
000270 30 76 3f bc 16 a2 1e bf 3a 73 13 bf de f3 e8 bf
       -0.011685893 -0.61966074 -0.57597697 -1.8199422
000280 6c 7e 28 bf 9a ab f2 bf ee 11 6e bd 1c 3e 2c 3d
       -0.65817904 -1.8958619 -0.058122568 0.04205142
000290 e6 3c 2d 3d 76 ba 34 3d 3c f0 10 bf 95 e3 16 bf
       0.042294405 0.044123136 -0.5661657 -0.5894101
0002a0 0f c4 21 bf 44 f0 21 bf 02 c7 28 bf 74 17 4a 3d
       -0.63189787 -0.6325724 -0.6592866 0.049338773
0002b0 f3 0b 1b bf 40 33 50 3b 18 21 02 bc fe de 22 bf
       -0.6056511 0.0031768829 -0.0079424605 -0.6362151
0002c0 8f 1c 0f bf b7 49 24 bf 72 40 15 bf c8 20 1d bf
       -0.5590295 -0.6417498 -0.5830146 -0.61378145
0002d0 ff 6e 12 bf b4 16 72 3d 65 9e 28 bf da d3 29 3d
       -0.57200617 0.059103683 -0.6586669 0.041461803
0002e0 f6 f5 71 3d 7f 3c 0f bf 50 4a 25 bf 24 24 74 3d
       0.059072457 -0.55951685 -0.64566517 0.05960478
0002f0 ea d1 36 3d 92 d5 0a bf f7 9d 18 bf 22 47 21 bf
       0.044633783 -0.5423213 -0.59616035 -0.62999165
000300 82 c3 1a bf 7c 0b 53 bd 74 69 61 3d 4d a6 0e bf
       -0.6045457 -0.051524624 0.05503221 -0.55722505
000310 f8 4e 74 3d 00 81 5c 3d 7a 23 67 3d 0e a9 23 bf
       0.059645623 0.05383396 0.056430317 -0.6392983
000320 a8 3a 26 bf 98 ae 29 bf 84 73 27 bf 00 a3 2f bc
       -0.6493325 -0.66282034 -0.6541064 -0.010720015
000330 72 68 0d bf fa 08 24 bf 38 a0 11 bf 4b a7 27 bf
       -0.55237496 -0.640762 -0.568851 -0.65489644
000340 60 d8 24 3c 28 2a 0a bf cc ef d4 bc 86 e3 48 3d
       0.010061353 -0.53970575 -0.02599325 0.04904511
000350 99 fe 25 bf 05 4b 1d bf f1 64 17 bf b0 ff 88 bc
       -0.6484161 -0.61442596 -0.591384 -0.016723484
000360 53 65 27 bf 8a 33 16 bd ba a5 1d bf 5e ea 25 bf
       -0.65388983 -0.036670245 -0.61581004 -0.6481074
000370 72 4c 17 bf b6 e3 1c 3d 0e 8d 5b 3d ac 80 0e 3d
       -0.5910102 0.0383031 0.053601317 0.03479068
000380 b3 04 12 bf fc 5d 27 bf a4 bf 4e bd 08 c3 0f 3d
       -0.5703842 -0.65377784 -0.05047573 0.035098106
000390 e4 80 bf bc c8 b1 47 3c 5a c8 75 bd 6d fe 20 bf
       -0.02337689 0.012188382 -0.060005523 -0.6288822
0003a0 3e 4f 45 bd b8 5e 59 3c 00 d0 57 b9 37 07 21 bf
       -0.048171274 0.013267212 -0.00020581484 -0.62901634
0003b0 ef de 27 bf fc 22 1c bf 50 8b 05 3d a0 0b 0a bf
       -0.65574545 -0.6099088 0.032603562 -0.5392399
0003c0 9c f9 3f bd 67 86 1c bf 07 02 1b bf 08 48 f1 3c
       -0.046868905 -0.6114258 -0.6054997 0.029453292
0003d0 40 be 8d bb 60 a4 97 3c 24 7f a7 bc 3d 26 0d bf
       -0.004325658 0.018510997 -0.020446368 -0.5513647
0003e0 c0 eb 83 bb 27 d1 1c bf 70 8a c3 bc c2 de 16 bd
       -0.0040259063 -0.6125664 -0.023869723 -0.036833532
0003f0 fb ac 0d bf 7a 5d 05 3d f2 8a 0c bf e0 80 6b 3c
       -0.5534207 0.03255985 -0.54899514 0.014373988

linear2.bias f4 [256]
000000 0d 34 1c c0 a3 24 1f c0 fc 55 6e 40 37 af 50 c0
       -2.440677 -2.4866111 3.723998 -3.2606943
000010 e4 59 bd bf 19 83 eb bf b2 a1 af c0 36 3a 2d c0
       -1.4793057 -1.8399383 -5.488488 -2.706678
000020 76 4d 55 bf 18 77 b1 3e 40 5e fb bf 46 42 15 bf
       -0.8332132 0.34661174 -1.9638138 -0.5830425
000030 62 43 9a c0 02 20 bf bf f9 0f 28 be 96 a9 6c 40
       -4.8207254 -1.4931643 -0.16412343 3.6978507
000040 f0 20 2c bf 20 d6 e3 be 21 1d 06 c1 52 4c 46 bf
       -0.6723776 -0.44499302 -8.382112 -0.77460206
000050 7a 80 49 c0 4a 80 9d bf c8 ac d4 3f d7 f5 31 c0
       -3.1484666 -1.2304776 1.6615229 -2.7806299
000060 20 a6 c0 bf 73 ea a6 bf 29 f6 b8 c0 c9 7d 0c bf
       -1.5050697 -1.3040298 -5.780049 -0.5487943
000070 66 0d 9c 40 32 36 3f bf 4c 2e 54 41 3e 01 71 bf
       4.8766356 -0.7469207 13.261303 -0.9414252
000080 e2 ea 9d bf b1 19 fb 3f fc 4a 21 bf f3 67 db 40
       -1.2337306 1.9617215 -0.6300504 6.856439
000090 e7 8c e4 bf 5e 0b 1c c0 27 82 1b c0 74 ea 2e c0
       -1.78555 -2.4381938 -2.4298189 -2.73306
0000a0 56 d2 24 c0 95 88 e4 40 29 10 08 c0 9e 25 ca c0
       -2.575338 7.1416726 -2.1259863 -6.317092
0000b0 49 36 20 c0 09 74 0d bf 90 f1 95 c0 09 1d 95 c0
       -2.5033133 -0.5525518 -4.6857376 -4.6597943
0000c0 98 1e e2 bf e5 b7 44 c0 3c be 0e c1 7b 2c d6 bf
       -1.7665586 -3.073724 -8.921444 -1.6732324
0000d0 be 28 22 c0 83 15 0a c0 72 de 1e c0 f7 d1 19 c0
       -2.5337367 -2.157563 -2.482327 -2.4034402
0000e0 e2 97 62 3f af 88 04 bf 4a 07 0b c0 46 1f 97 bf
       0.88513005 -0.5177106 -2.17232 -1.1806419
0000f0 44 cf f9 be 9a 5d e5 40 7d 6b e6 41 da 9c 3c 40
       -0.48790944 7.167676 28.802485 2.9470735
000100 d5 b1 a9 c0 a5 e2 17 41 05 83 5e 40 ab c6 07 c0
       -5.302958 9.492833 3.4767468 -2.1215007
000110 57 da 09 c0 7d ba ff bf 0a cf 23 c0 c9 a5 49 c0
       -2.1539514 -1.9978787 -2.5595117 -3.1507437
000120 d3 9c b5 bf 2b cb 5d c0 6a b9 24 c0 ae bf 1c 41
       -1.4188484 -3.4655254 -2.5738168 9.796797
000130 93 ef ac c0 a6 c8 31 c0 8b 64 03 c0 9e 40 4e bf
       -5.404245 -2.7778716 -2.0530117 -0.8056735
000140 cf f2 a7 3f 6c b1 45 c0 b8 d5 e6 bf ff 5f 08 c0
       1.3120974 -3.088954 -1.8033972 -2.1308591
000150 0a a9 bd 3f c0 b3 1e bf a6 4c 2e c0 24 6a a7 c0
       1.4817212 -0.61993027 -2.7234282 -5.2317066
000160 c0 94 6d 3f 17 0f ed bf 57 58 13 bf 6a 02 ac bf
       0.928051 -1.852023 -0.5755667 -1.3438237
000170 ee 80 a2 bf 42 54 12 c0 a6 fa 8c bf a5 d0 12 bf
       -1.2695596 -2.2863927 -1.1013992 -0.57349616
000180 2a 79 11 3f da ee a1 c0 9d 4a 4f c0 58 9e cf bf
       0.56825507 -5.0604067 -3.238929 -1.6220198
000190 ad c8 37 bf 4c ce 10 bf d7 4c 1b c0 25 b4 3b c0
       -0.7179058 -0.56564784 -2.426565 -2.9328701
0001a0 c0 fe 9e c0 2f d2 c4 bf 4d 79 b1 bf 2d 44 4f 40
       -4.9685974 -1.5376643 -1.3865143 3.2385361
0001b0 09 b8 83 c0 fa 91 23 c0 95 50 c9 40 7e db 0e c0
       -4.116215 -2.5557847 6.2910867 -2.2321467
0001c0 86 6a ef bf d8 a2 de bf b5 83 2c c0 45 2b c9 c0
       -1.8704383 -1.7393446 -2.6955388 -6.286532
0001d0 57 78 50 3f 20 53 65 c0 c6 21 47 bf 55 91 f6 bf
       0.81433624 -3.5831985 -0.7778591 -1.9263102
0001e0 17 37 94 c0 e7 14 0a bf fc 46 c4 be bb 14 47 c1
       -4.631725 -0.53938144 -0.38335407 -12.442561
0001f0 fb 85 d7 bf 3d 59 49 c0 c2 72 d0 3f ea 01 46 40
       -1.6837763 -3.1460717 1.6285021 3.0938668
000200 8c 1d aa 3f 68 f0 27 c0 f8 cc 95 bf 69 64 be c0
       1.3290267 -2.6240482 -1.1703176 -5.949757
000210 c0 7f 51 c0 9b 35 1b c0 aa 09 0f c0 87 8f 43 40
       -3.2734222 -2.4251468 -2.2349648 3.0556352
000220 ef b8 e7 bf 77 48 46 c0 c5 02 d8 bf a5 e2 92 c0
       -1.8103312 -3.098173 -1.6875845 -4.5901666
000230 64 fb af bf d4 e2 1c c0 bb 2b 65 c0 20 58 b8 3e
       -1.3748593 -2.4513445 -3.580794 0.36004734
000240 65 0a 1a c0 35 6f 74 bf d3 10 b8 bf 27 10 fd bf
       -2.4068844 -0.9548219 -1.4380134 -1.9770554
000250 11 35 42 c0 25 25 15 c0 19 ac 0c bf c9 0b c3 40
       -3.034489 -2.3303921 -0.549501 6.0951886
000260 1c f4 4a c0 34 07 1e c0 58 51 c6 bf ae b8 07 c0
       -3.1711493 -2.4691896 -1.5493574 -2.120647
000270 19 6d 0c bf 01 40 87 bf da cf 0e c0 f4 3e 64 40
       -0.5485397 -1.0566407 -2.2314363 3.5663424
000280 f4 d2 18 c0 e9 5d 25 c1 25 19 b8 40 bd 16 97 c0
       -2.3878756 -10.335427 5.7530694 -4.7215257
000290 1d 8e 0f c0 28 71 a8 bf b4 35 03 c1 c8 69 19 c0
       -2.243049 -1.3159533 -8.200611 -2.3970814
0002a0 10 98 1b bf 8f 25 0f bf df b9 1a c0 b8 d4 13 c0
       -0.60778904 -0.55916685 -2.4175947 -2.3098583
0002b0 96 8f ea 40 6e 8e 95 40 fd de 17 bf 22 cf fc 40
       7.3300276 4.6736364 -0.5932463 7.900285
0002c0 e2 43 3d c0 bf f8 c3 c0 6f 73 0e bf f6 2a f4 bf
       -2.9572682 -6.1241145 -0.5564489 -1.9075611
0002d0 df 87 38 c0 61 6b 2e c0 a1 3a ff be 47 6b 5b bf
       -2.883293 -2.725304 -0.49849418 -0.8571057
0002e0 15 4c e5 c0 29 6a 09 c0 4f bc 96 c0 94 4a e7 c0
       -7.1655374 -2.1471045 -4.710487 -7.227854
0002f0 a1 21 66 bf 36 8a 21 bf 21 ba 61 bf b7 b6 de c0
       -0.89895064 -0.6310152 -0.88174635 -6.959804
000300 6b ce 2e c0 32 c5 24 bf f7 52 1e c0 22 67 2f c0
       -2.7313488 -0.64363396 -2.4738138 -2.7406697
000310 3c fd 02 bf 64 cc 3c 41 99 a4 05 bf a3 85 1a c0
       -0.51167655 11.7999 -0.5220428 -2.4144065
000320 ce 0b 82 c0 25 51 55 40 bd 4b 29 be 3b bc de bf
       -4.063941 3.3330777 -0.16532798 -1.7401193
000330 52 50 98 bf 18 62 62 c0 85 ab 65 c1 4e f4 c4 bf
       -1.1899512 -3.5372372 -14.354375 -1.5387056
000340 eb 85 24 bf 14 ef 46 bf 18 91 af bf 98 0e e6 bf
       -0.6426684 -0.77708554 -1.3716154 -1.7973204
000350 94 0c 48 c0 fb 24 9f bf 21 a9 1f bf 37 2e 03 c0
       -3.1257677 -1.243316 -0.62367445 -2.0496957
000360 8e 62 17 41 bf 7c 88 bf 9c ea fc be 81 8d 92 c0
       9.461561 -1.066307 -0.49397743 -4.5797734
000370 fd 1d 69 40 e8 06 0c bf 2a 01 36 c0 e3 1b d7 3f
       3.6424553 -0.5469804 -2.843821 1.6805385
000380 01 20 10 c0 44 41 1a bf 3a e7 01 bf 81 dd 15 c0
       -2.2519534 -0.6025584 -0.5074345 -2.3416445
000390 af 34 0f bf a5 b6 b3 bf ce 20 37 3f 53 be 5a 40
       -0.55939764 -1.4040114 0.7153443 3.4178665
0003a0 99 12 09 bf b0 5a 7e c0 ac fd da bf f7 aa d2 c0
       -0.53544 -3.9742851 -1.7108665 -6.5833697
0003b0 18 ac 8f c0 bc 1b c2 bf bc 8f fc be bd aa 7e c0
       -4.4897575 -1.5164714 -0.4932841 -3.979171
0003c0 11 c8 1c c0 f9 92 10 bf 79 8e e9 bf f2 21 be c0
       -2.449711 -0.5647426 -1.8246604 -5.9416437
0003d0 8b b8 71 c0 3d c2 a3 bf ce e8 f0 40 c1 2a 95 bf
       -3.7768886 -1.2793652 7.5284185 -1.1653672
0003e0 ba f4 47 41 82 d6 a5 3f f6 2e 82 bf ba d7 77 c0
       12.497248 1.2956088 -1.0170581 -3.872542
0003f0 40 7e 09 bf ce d3 27 bf c0 39 e0 40 55 3b aa bf
       -0.5370827 -0.65557563 7.0070496 -1.3299357

linear3.weight f4 [4, 256]
000000 75 9f 16 3f 8d 17 7d bf f7 4e 8e 40 cd 94 2f 40
       0.5883706 -0.9886406 4.4471393 2.743457
000010 23 43 97 bf 95 da 36 be 79 56 0a c0 2f 70 74 bf
       -1.1817364 -0.1785682 -2.1615279 -0.9548368
000020 08 7a 9e 3f f3 18 3c 3c 29 a6 07 3f ec c1 22 3f
       1.2380991 0.011480558 0.52987915 0.6357715
000030 ef 9b 05 c0 1d d8 03 bf 6c b6 19 bf a5 07 01 bf
       -2.0876424 -0.5150164 -0.6004398 -0.5040229
000040 cb 57 36 3e 52 e7 01 3f 55 a4 1d bd dc 74 ad bd
       0.17806928 0.5074359 -0.038486797 -0.08469555
000050 0a 37 36 c0 af 7d 9e be fe 44 1b bf f0 ee 0c c0
       -2.8471093 -0.30955264 -0.6065215 -2.2020836
000060 36 bb c4 3f 10 5f 8f be 0d 84 ae 3e c0 c3 1f 3f
       1.5369632 -0.28002214 0.34085122 0.62408066
000070 fe 27 5d 40 dc dc 22 40 1e b8 79 c0 9c df fe bf
       3.455566 2.5447302 -3.9018626 -1.991199
000080 4b e3 83 3f 1b d6 b4 c0 b6 e7 0f 3f 53 b2 e2 bf
       1.0303739 -5.651136 0.5621294 -1.771067
000090 17 52 dc be b5 1f 21 3f 1e 72 9c bf 18 a7 70 bc
       -0.4303138 0.62939006 -1.2222326 -0.014688276
0000a0 27 28 d6 bf f0 47 7c 40 4b 00 8f be 3c e0 b6 c0
       -1.6731004 3.9418907 -0.2792991 -5.7148724
0000b0 2c d3 0b 3f 57 b2 0b 3f 27 04 77 3e 31 ec 77 3f
       0.546191 0.54569 0.24122678 0.96844774
0000c0 0c 8f 8b 3f c6 3c 68 3f 64 57 92 40 45 8e 7f be
       1.090303 0.9071773 4.573168 -0.24956615
0000d0 cc 46 05 3f 15 dc e8 3f 6a b0 19 40 0b d7 e1 3f
       0.5206115 1.8192164 2.4013925 1.7643751
0000e0 ea 06 07 40 6c 30 84 3f e1 2a 9f 3f ba 36 32 be
       2.109797 1.0327277 1.2434961 -0.17403689
0000f0 fe a3 15 bd 72 bc 4c c0 52 57 7b 41 5e fc c1 40
       -0.03653335 -3.1990018 15.708818 6.0620565
000100 40 a0 b8 3f b0 16 ff 3e 5f 66 65 c1 8f b6 55 bf
       1.4423904 0.49821997 -14.337493 -0.8348169
000110 e0 f2 e5 3d d6 ef 90 3d 75 96 be bf 81 c2 51 3f
       0.11227965 0.07076995 -1.4889666 0.81937414
000120 a3 a8 6a be ac 9c 8c 3f 2b 15 b0 bf 5a f8 11 c1
       -0.22915892 1.0985312 -1.375646 -9.123133
000130 6c 75 8c 3f 4c 98 df bf 23 12 68 40 21 48 5c be
       1.0973334 -1.7468352 3.626107 -0.2151189
000140 50 54 0c 3f 9b 8a fb 3f 10 26 23 40 1c 73 cc 3f
       0.5481615 1.9651674 2.5491982 1.5972629
000150 5e cb 9c 40 c6 ae 2a 3d 0e 58 0a c0 78 ce 35 c1
       4.899825 0.041670583 -2.1616244 -11.362907
000160 10 a8 63 3f 11 78 e1 bf 60 d8 93 bb 5f 75 4e 3d
       0.8892832 -1.7614766 -0.004511878 0.050404903
000170 f1 5a d4 3e d2 3b b1 be 99 c2 59 be 9f 7e 10 3f
       0.41475633 -0.34615952 -0.2126564 0.5644321
000180 d5 7b ef 3f c5 b0 11 40 b9 78 1c c0 9c 7d c9 3f
       1.8709666 2.2764142 -2.4448683 1.5741458
000190 6a b9 e6 3f 23 ce ec 3e 94 fe a3 bf 6b f0 fc 3e
       1.8025334 0.4625102 -1.2812066 0.49402174
0001a0 61 95 74 40 3c e7 9f be d2 7c ae be 2d a1 45 c1
       3.8216174 -0.31231105 -0.34079605 -12.35185
0001b0 98 53 cd 3b dc 13 36 bf 72 19 85 40 74 bd f5 be
       0.0062660687 -0.71124053 4.159356 -0.47996104
0001c0 31 48 08 3f b9 42 45 be bd da c6 bf a0 fc 49 41
       0.53235155 -0.19263734 -1.5535504 12.624176
0001d0 69 74 0e 3f b7 50 b7 3f 7e 3d 7b bd 7a 59 0f 40
       0.5564638 1.4321507 -0.06133794 2.2398362
0001e0 39 6c 24 3f 30 49 eb be 55 d5 42 bf 3c 26 04 c1
       0.64227635 -0.45954275 -0.7610677 -8.259335
0001f0 5d e5 d5 3f 68 43 98 bf 85 11 ec 3f 03 de 01 c1
       1.6710621 -1.1895571 1.8442847 -8.116702
000200 98 2b 33 c1 78 ef 02 bf a0 19 bd 3e f7 a9 d7 bf
       -11.198143 -0.5114665 0.36933613 -1.6848744
000210 14 c9 72 bf 0f 9e 14 3f c5 32 b7 3f f9 aa 0d bf
       -0.9483807 0.5805368 1.4312369 -0.5533901
000220 e6 8a ad bf d4 68 bf 3e d1 fa af bf c2 6a 97 3f
       -1.3558013 0.37384665 -1.3748418 1.1829455
000230 ec ad e1 3e 57 83 a5 bf 6a 18 dd bf f4 c6 c8 3f
       0.44078004 -1.2930707 -1.7273076 1.5685716
000240 e8 5f de 3f 18 ca a7 40 f8 0c dd 3f 8f 46 02 3c
       1.7373018 5.2434196 1.7269583 0.007951393
000250 fa 66 f8 3e 30 cc f1 bf 57 7a 16 3f 2e 04 ba be
       0.48516065 -1.8890438 0.58780426 -0.36331314
000260 22 ef e7 bf 19 01 39 3e bb cc 20 be 01 d1 80 3f
       -1.8119853 0.18066825 -0.15703098 1.0063783
000270 6d cd 14 3f 48 4e 1a c0 74 77 ff 3f 0d 56 d2 be
       0.58125955 -2.411028 1.9958329 -0.41081277
000280 63 29 a3 bf 45 4d 31 c1 bd 54 be 40 aa 2c 7a 3f
       -1.2747005 -11.081365 5.947844 0.977244
000290 43 d5 b4 3d 08 05 c0 bf 85 2e 7d c1 31 77 a8 3f
       0.08829739 -1.5001535 -15.823857 1.3161374
0002a0 e5 fc e7 bf e3 ab eb 3e b7 67 0d 3f 50 ea dd be
       -1.8124052 0.46029577 0.5523638 -0.4334283
0002b0 42 91 18 bc 17 a0 a6 40 63 2c 00 bf fb 6a 0f c1
       -0.009311976 5.207042 -0.5006773 -8.963618
0002c0 87 0b ba 3e b7 7f 1f bf 84 4d 0c 3f 7a 0e 68 3f
       0.3633692 -0.6230425 0.5480578 0.9064709
0002d0 24 80 05 3f 16 7f 1a 3f 72 68 cb 40 93 a5 b5 be
       0.5214865 0.6035017 6.3564997 -0.35477886
0002e0 d3 b3 ca 3f 2e 11 f0 3e 4e 86 7e 3f 8c f0 ee 40
       1.5836128 0.46888107 0.9942368 7.4668636
0002f0 c3 16 a5 be ce 62 0e 3f 64 3c 67 3f 5c 0c 56 c1
       -0.32243928 0.55619514 0.90326524 -13.378017
000300 eb 7c 42 bf d8 15 0f 3f 7c e0 a1 bf 63 cd 1b 3f
       -0.7597186 0.55892706 -1.2646632 0.6086027
000310 c1 f2 ed 3f 60 fe 63 41 02 cb f2 3e a5 e7 82 bf
       1.8589708 14.249603 0.47420508 -1.0226942
000320 88 72 7f 3f 8c a6 e6 be ae 50 90 3f 10 97 bf be
       0.99784136 -0.4504894 1.1274621 -0.3741994
000330 42 93 7d 3d e5 c0 c3 3f 21 f9 ca 40 96 7a 0a bf
       0.061908014 1.5293242 6.3429112 -0.540933
000340 2f 7b b8 3e 78 8f d1 3f 6d 4c 08 c1 cd fb 2b be
       0.36031482 1.6371908 -8.518659 -0.16795273
000350 72 87 98 3f 7d 17 0e 40 cc 08 1d 3f 08 e3 35 40
       1.1916335 2.2201836 0.6134155 2.841982
000360 14 37 3a c0 43 e5 09 c0 f0 1d 01 bf 87 d6 9a c0
       -2.9096117 -2.154618 -0.50436306 -4.8386874
000370 bf 7c f1 bf 0f c4 fc 3e c1 e7 17 3f 28 86 74 bf
       -1.8866194 0.4936833 0.59338003 -0.95517206
000380 bb 11 69 3f ca a5 65 3d 6d 3a 0d bf fa e4 c0 be
       0.9104268 0.056066312 -0.55167276 -0.37674695
000390 13 ed 1a 3f 2c 7b 97 be 14 02 05 bf 62 49 1e c1
       0.60517997 -0.2958616 -0.51956296 -9.892916
0003a0 84 a7 8b 3c da 2b 76 3f be 60 84 be b0 18 6e c0
       0.017047651 0.9616066 -0.25855058 -3.7202568
0003b0 bb 5e 7e 40 ab d6 b3 3e f5 94 0a 3f 74 6c 89 3f
       3.974532 0.35124716 0.5413354 1.0736222
0003c0 6a 8b 15 3f 21 18 0d 3f 5b 84 ce 3e 83 b3 dc 3f
       0.58415854 0.5511494 0.40335354 1.7242283
0003d0 e7 77 c9 3e 74 4c c2 3f e4 eb ad be 8f 2e 7f 3f
       0.3934929 1.5179582 -0.33969033 0.9968042
0003e0 db e2 b8 c0 32 08 84 be 0d ff af 3e 35 d5 6a 3f
       -5.7776923 -0.25787503 0.34374276 0.9173158
0003f0 cf 66 fb be b5 de 10 3f 7b 10 2a c1 97 ab 60 40
       -0.49101874 0.56589824 -10.629024 3.510473

linear3.bias f4 [4]
000000 b7 79 3c bf ab e0 1c c0 95 8b 52 3f 95 c7 ed 40
       -0.7362322 -2.4512126 0.82244235 7.430613
